model/OQMD_10k_model (residue).pth (torch, 248059 bytes, 18 tensors)

fc1.weight f4 [128, 141]
-0.022171695 -0.029702311 0.10948359 -0.0045549194 0.015349292 0.04939784 -0.091364264 0.21951461
0.2862065 -0.011318284 -0.034605294 -0.01704119 0.026849855 -0.03664519 0.09481503 0.06694044
0.052833915 0.06765508 -0.07932947 0.03400813 0.032014623 0.09409076 0.036868393 -0.034367308
-0.046599846 0.06392575 -0.0070231436 -0.05936768 0.02991519 -0.03685565 0.0076174024 0.021898855
0.06928253 0.16040839 0.09370629 0.060332328 0.09910682 -0.050931368 0.05894534 0.077780575
-0.07915973 -0.09437125 -0.02608064 -0.020362658 0.029231206 -0.0174318 0.006701955 0.083618134
0.031713054 0.04272745 0.051147748 0.065571114 0.23958893 0.09849563 0.105833165 -0.028062917
0.062739044 -0.013474701 0.4236872 0.42048758 -0.049587466 -0.21409339 -0.010103869 0.29178664
0.07608475 0.23595491 0.17776333 0.41703227 0.3197057 0.13778003 0.21927488 0.18929441
0.13326824 -0.16859122 -0.08976712 -0.16286747 -0.026131587 -0.03932221 -0.0039842287 0.12540375
-0.115224786 -0.053521328 0.087962136 0.012793308 -0.065676674 -0.024648182 -0.058228858 0.09058841
0.12310978 0.10498101 -0.011018664 -0.30242136 -0.1063343 0.3866575 0.2430618 0.20906629
0.22780672 0.6372538 0.55416626 -0.10505115 -0.06832904 -0.09198346 -0.07148229 -0.09058369
-0.17049737 0.26021135 0.123687945 0.1499835 0.11034334 0.24396719 0.4396389 0.053949162
-0.15041229 -0.12616658 -0.024172558 0.1072821 0.12450501 -0.0996796 0.0055152653 0.037608087
0.01749226 -0.018987745 -0.05589311 0.040927544 -0.025935095 -0.09590938 -0.11197919 -0.011657147
0.08160434 -0.046490077 0.07753321 0.034237187 0.1393816 -0.12564783 -0.11167298 0.035780836
0.023041703 0.04951417 0.039201457 -0.10237965 -0.07685015 0.012069326 -0.061451327 -0.028518371
-0.007944947 0.0500708 0.041556474 -0.4029389 0.16846305 0.25000155 0.013094842 -0.06562538
-0.04859054 -0.0333104 -0.020425202 0.0794142 0.07461465 0.0468384 -0.026194217 0.08383429
-0.027830267 0.02196505 -0.042935845 -0.03610703 0.0267892 -0.0118576605 0.012523181 -0.05011449
0.033897564 -0.014266951 -0.038612183 0.04009272 -0.002972754 -0.017164048 0.02771382 0.15419042
0.15180998 -0.0060956553 -0.046469007 -0.02800457 -0.004094257 -0.069812156 0.056982134 0.010874916
0.097829826 0.055541057 -0.042888373 -0.06296082 0.0057922644 0.034148492 -0.0033020142 0.021208663
-0.014746873 0.17771642 0.024226516 0.026323646 -0.0041012815 -0.02990136 0.044810224 0.20162995
0.11711196 0.016021295 0.033803627 0.05424008 0.16604078 0.121237874 0.24601947 0.07151805
-0.53392726 0.17075408 0.11506022 0.06916864 0.09954342 0.041734673 -0.021325136 0.045344975
-0.029947115 -0.071249545 0.058409035 0.0657804 -0.15032093 -0.0040105027 0.027432717 0.0957855
0.055821832 -0.02085062 0.026361795 0.037218135 0.025432074 0.10596689 0.016898742 0.0028474245
-0.44213665 -0.07649164 -0.014114007 -0.018125407 0.058623992 0.07925384 -0.68839955 0.039192904
-0.025798444 0.0135110095 -0.008292941 0.0057377988 -0.17140819 0.043843 -0.04023013 -0.041840546
0.052399624 -0.049955916 -0.02629809 0.052007742 0.005884705 -0.087069534 -0.0073745884 -0.047281265
00000000: 6aa1 b5bc 4352 f3bc ef38 e03d 6f41 95bb
00000010: 997b 7b3c 6455 4a3d 301d bbbd 70c8 603e
00000020: a989 923e 5370 39bc 48be 0dbd f799 8bbc
00000030: 3af4 db3c 4419 16bd 622e c23d 1218 893d
00000040: 6068 583d bf8e 8a3d 7d77 a2bd 1c4c 0b3d
00000050: c421 033d a8b2 c03d 5003 173d bcc4 0cbd
00000060: 7bdf 3ebd 81eb 823d 6622 e6bb 862b 73bd
00000070: b310 f53c f3f5 16bd 679b f93b 3a65 b33c
00000080: 00e4 8d3d 1942 243e 15e9 bf3d 081f 773d
00000090: 84f8 ca3d 699d 50bd ab70 713d 6c4b 9f3d
000000a0: 7f1e a2bd b745 c1bd 11a7 d5bc 97cf a6bc
000000b0: 4876 ef3c 22cd 8ebc 139c db3b fc3f ab3d
000000c0: 8ce5 013d fb02 2f3d 4d80 513d 264a 863d
000000d0: cd56 753e 14b8 c93d 0fbf d83d 34e4 e5bc
000000e0: 547d 803d fec4 5cbc 87ed d83e 264a d73e
000000f0: 3a1c 4bbd 4c3b 5bbe b38a 25bc 0f65 953e
00000100: 52d2 9b3d 2a9e 713e 9707 363e 4185 d53e
00000110: 77b0 a33e 3516 0d3e 9889 603e 65d6 413e
00000120: 7877 083e 2da3 2cbe d3d7 b7bd bbc6 26be
00000130: e911 d6bc 5310 21bd 228e 82bb d769 003e
00000140: f9fa ebbd 2e39 5bbd 7e25 b43d 069b 513c
00000150: 7e81 86bd fcea c9bc 6281 6ebd 6b86 b93d
00000160: fb20 fc3d 4900 d73d a087 34bc f9d6 9abe
00000170: ccc5 d9bd f9f7 c53e 31e5 783e 7915 563e
00000180: 2a46 693e 1123 233f d7dd 0d3f 0f25 d7bd
00000190: 19f0 8bbd d361 bcbd 4f65 92bd f183 b9bd
000001a0: dd96 2ebe 6c3a 853e 1b50 fd3d 4695 193e
000001b0: b0fb e13d 89d2 793e 5a18 e13e ccf9 5c3d
000001c0: ae05 1abe d031 01be 8705 c6bc b8b6 db3d
000001d0: 7cfc fe3d d124 ccbd 66b9 b43b f00a 1a3d
000001e0: ee4b 8f3c 308c 9bbc 2cf0 64bd a4a3 273d
000001f0: d675 d4bc 236c c4bd 5855 e5bd 9efd 3ebc
00000200: 2d20 a73d 616c 3ebd bbc9 9e3d 4b3c 0c3d
00000210: 0dba 0e3e d3a9 00be ceb4 e4bd ed8e 123d
00000220: f4c1 bc3c 5fcf 4a3d b591 203d 6cac d1bd
00000230: 9d63 9dbd 6cbe 453c 63b4 7bbd 5c9f e9bc
00000240: 862b 02bc 0a17 4d3d 1f37 2a3d 024e cebe
00000250: 9481 2c3e 3400 803e c08b 563c 9966 86bd
00000260: e006 47bd 7c70 08bd c152 a7bc e9a3 a23d
00000270: 91cf 983d 9fd9 3f3d 4195 d6bc 50b1 ab3d
00000280: 4dfc e3bc 0cf0 b33c 7fdd 2fbd f7e4 13bd
00000290: 0675 db3c a246 42bc 072e 4d3c da44 4dbd
000002a0: 2cd8 0a3d eebf 69bc cf27 1ebd 4438 243d
000002b0: 89d2 42bb 9e9b 8cbc 1808 e33c 18e4 1d3e
000002c0: 1374 1b3e 10be c7bb 4956 3ebd d769 e5bc
000002d0: 1e29 86bb adf9 8ebd 1966 693d b42c 323c
000002e0: 015b c83d 057f 633d b8ab 2fbd 9af1 80bd
000002f0: 09cd bd3b 4adf 0b3d 9b66 58bb cabd ad3c
00000300: de9c 71bc 4bfb 353e b076 c63c b0a4 d73c
00000310: 0b64 86bb b2f3 f4bc ed8a 373d 1578 4e3e
00000320: 65d8 ef3d 173f 833c ac75 0a3d d92a 5e3d
00000330: 9806 2a3e 904b f83d 87ec 7b3e 0e78 923d
00000340: 75af 08bf 28da 2e3e b1a4 eb3d 4aa8 8d3d
00000350: 6cdd cb3d faf1 2a3d 0db2 aebc a7bb 393d
00000360: a753 f5bc 48eb 91bd 503e 6f3d e0b7 863d
00000370: bbed 19be 896a 83bb 94ba e03c 302b c43d
00000380: 6fa5 643d ebce aabc b1f4 d73c 0b72 183d
00000390: ed56 d03c 2b05 d93d 3b6f 8a3c db9b 3a3b
000003a0: bc5f e2be a6a7 9cbd 703e 67bc bc7b 94bc
000003b0: b61f 703d d64f a23d f43a 30bf bd88 203d
000003c0: 4257 d3bc 485d 5d3c 1edf 07bc 2504 bc3b
000003d0: a185 2fbe b894 333d 59c8 24bd fe60 2bbd
000003e0: fda0 563d 939e 4cbd 186f d7bc 1206 553d
000003f0: 7cd4 c03b 8351 b2bd 88a6 f1bb 00aa 41bd

fc1.bias f4 [128]
0.05029616 -0.036470894 0.07361936 0.0064901947 -0.016436817 -0.062466063 -0.069933765 -0.11149303
-0.033381965 -0.11478432 -0.07315251 -0.064370275 0.0010765626 0.103021875 -0.117854275 0.04918607
-0.028667502 0.08603509 0.029762268 -0.11726064 -0.039597522 0.0743421 0.011093821 0.11142357
-0.06428834 0.133007 0.016313024 0.05094634 0.0033265566 0.004859554 -0.06683418 0.010705055
0.11038804 0.13317116 -0.106634945 -0.071841426 0.13526788 -0.002764113 0.08670346 -0.048793964
0.06996484 0.00789974 -0.042169828 0.020090727 0.06234952 -0.021968203 0.06986176 -0.10523709
0.060779907 0.08654568 0.015124853 -0.024948377 -0.012839688 0.083345935 0.04204707 0.020318866
0.008649025 0.06823338 0.058130097 -0.05018607 -0.009786454 -0.037784573 -0.031329744 -0.09426516
-0.015426722 0.089433834 0.10826843 -0.042345453 -0.05552231 0.15623769 0.005504671 0.016871285
0.111345395 -0.021080218 -0.061802 0.06582346 -0.05155972 0.029514382 0.08573535 0.02918345
0.18216266 0.17239676 0.18886858 0.03236232 6.435911e-05 -0.09159793 -0.0826919 -0.018862648
-0.023412488 0.12083956 0.07506188 -0.023261772 0.0908352 -0.035205442 0.085985586 -0.049872357
-0.16959757 -0.06130874 0.0809143 -0.06874784 -0.083196774 -0.078414656 -0.09948258 -0.048489705
0.015595852 0.105461605 -0.002435449 -0.04214665 0.031496394 -0.040426612 0.0014947642 0.044723675
-0.06705089 0.07562121 -0.04037675 -0.081869476 -0.08948561 0.18389575 -0.05938327 -0.026965033
0.119095996 -0.008683799 0.03769096 0.0279477 0.15032202 0.02235872 0.021239389 0.037682578
00000000: 5903 4e3d 8162 15bd bfc5 963d b3ab d43b
00000010: 81a6 86bc 6adc 7fbd 6f39 8fbd 7556 e4bd
00000020: 87bb 08bd 0b14 ebbd fcd0 95bd 90d4 83bd
00000030: 721b 8d3a 22fd d23d 955d f1bd 5577 493d
00000040: 1cd8 eabc 2a33 b03d 00d0 f33c 5926 f0bd
00000050: 0331 22bd ac40 983d dcc2 353c 0a32 e43d
00000060: 9ba9 83bd fd32 083e e4a2 853c 1cad 503d
00000070: 5c02 5a3b e53c 9f3b 5ce0 88bd 4164 2f3c
00000080: 2013 e23d 055e 083e 6c63 dabd 9921 93bd
00000090: aa83 0a3e 1f26 35bb 9591 b13d 2edc 47bd
000000a0: ba49 8f3d e96d 013c 45ba 2cbd 4f95 a43c
000000b0: 3662 7f3d a9f6 b3bc af13 8f3d 8b86 d7bd
000000c0: 5af4 783d dd3e b13d 3bce 773c 8a60 ccbc
000000d0: 8e5d 52bc 46b1 aa3d 8c39 2c3d c073 a63c
000000e0: a4b4 0d3c f1bd 8b3d d319 6e3d e98f 4dbd
000000f0: 5d57 20bc ffc3 1abd 9e53 00bd 180e c1bd
00000100: 5dc0 7cbc 1629 b73d d7bb dd3d 6d72 2dbd
00000110: 5d6b 63bd c6fc 1f3e 8760 b43b a635 8a3c
00000120: 0e09 e43d 6cb0 acbc 1824 7dbd 73ce 863d
00000130: 4930 53bd 25c8 f13c 0496 af3d 2112 ef3c
00000140: d988 3a3e c788 303e c466 413e 5a8e 043d
00000150: 89f8 8638 b297 bbbd 5f5a a9bd d785 9abc
00000160: 8ccb bfbc bb7a f73d 0bba 993d 798f bebc
00000170: ce07 ba3d 9533 10bd 3619 b03d f546 4cbd
00000180: fcaa 2dbe e01e 7bbd 66b6 a53d abcb 8cbd
00000190: 1263 aabd dd97 a0bd 86bd cbbd 249d 46bd
000001a0: bf85 7f3c 41fc d73d 0e9c 1fbb f7a1 2cbd
000001b0: 5d02 013d 6096 25bd f7eb c33a 2c30 373d
000001c0: fa51 89bd 4bdf 9a3d 1762 25bd 2fab a7bd
000001d0: 3b44 b7bd 2b4f 3c3e df3b 73bd c6e5 dcbc
000001e0: 9ae8 f33d 7e46 0ebc d661 1a3d 93f2 e43c
000001f0: 04ee 193e a229 b73c 3afe ad3c 0c59 1a3d

bn1.weight f4 [128]
0.9202491 0.9596243 1.0211827 0.93511325 1.2335312 0.978661 1.2603536 0.988983
1.2998327 0.9557884 1.1767739 0.95134306 0.98302066 1.2333559 1.1281317 0.9094876
1.0946168 1.0196348 1.003859 1.0154855 1.3499522 1.254753 0.9466321 1.1097113
1.2055966 1.1378528 1.0102031 0.9922511 1.2489043 1.1303803 1.4221997 1.0637838
0.87923986 1.1562152 1.016756 0.9517884 0.9819246 0.9989689 1.0363604 1.4197065
1.0305755 0.9477403 0.98443747 0.98403525 0.99220693 1.1019009 1.0750473 0.9835399
0.99829483 1.1511323 0.9542887 1.0982817 1.1520736 1.3063279 0.96578455 1.012826
0.99479187 1.0851192 0.9558169 1.1057699 0.9899567 1.1491373 0.98276585 0.98279274
0.97815496 1.2436354 1.2564176 0.98280144 0.9897528 1.1180328 1.3442895 0.9485807
1.1505892 0.9507548 1.1945537 0.96670246 0.9604079 0.9637201 1.0933099 0.9816867
1.2827319 1.0186565 1.0827523 1.1562154 1.041825 1.1245757 0.9986765 1.0253013
1.1829113 1.176542 1.1270257 1.0610341 1.002307 1.1298782 1.1597943 0.98225504
1.1855758 1.1521409 0.95533526 0.9775687 1.2670547 0.982741 1.1264474 0.9809623
1.12113 1.288983 1.1388605 0.9841066 1.0129373 1.1918288 0.9747082 0.8915084
0.94915295 0.9159473 0.9737328 0.98835087 1.1608502 1.0256977 0.93567425 1.1577882
1.2256471 1.0312284 1.0561029 1.0791343 1.1825438 0.9936489 1.2463093 1.2425207
00000000: 7295 6b3f f0a9 753f 1db6 823f 9563 6f3f
00000010: 5ae4 9d3f 8789 7a3f 4453 a13f fd2d 7d3f
00000020: eb60 a63f 8cae 743f 87a0 963f 388b 733f
00000030: 3ea7 7b3f 9bde 9d3f 9f66 903f 2ed4 683f
00000040: 671c 8c3f 6583 823f 747e 803f 6efb 813f
00000050: 3ccb ac3f bf9b a03f 7b56 723f 050b 8e3f
00000060: fd50 9a3f 29a5 913f 564e 813f 2b04 7e3f
00000070: 19dc 9f3f 4db0 903f a40a b63f 112a 883f
00000080: dd15 613f dcfe 933f 1025 823f 68a8 733f
00000090: 695f 7b3f 6dbc 7f3f 75a7 843f f1b8 b53f
000000a0: e6e9 833f 1c9f 723f 1804 7c3f bce9 7b3f
000000b0: 4601 7e3f 170b 8d3f 269b 893f 45c9 7b3f
000000c0: 4090 7f3f 4e58 933f 444c 743f 7f94 8c3f
000000d0: 2677 933f c135 a73f a83d 773f 48a4 813f
000000e0: aeaa 7e3f 30e5 8a3f 6bb0 743f de89 8d3f
000000f0: cd6d 7d3f ee16 933f 8b96 7b3f 4e98 7b3f
00000100: 5d68 7a3f 722f 9f3f 4bd2 a03f e098 7b3f
00000110: 7160 7d3f b31b 8f3f ae11 ac3f 2fd6 723f
00000120: 8246 933f ab64 733f 23e7 983f d079 773f
00000130: 4bdd 753f 5cb6 763f 94f1 8b3f d24f 7b3f
00000140: 8f30 a43f 5663 823f a197 8a3f defe 933f
00000150: 865a 853f 19f2 8f3f 43a9 7f3f 133d 833f
00000160: a369 973f ee98 963f 6142 903f f7cf 873f
00000170: 994b 803f d99f 903f 2474 943f 1175 7b3f
00000180: f3c0 973f 5a79 933f da90 743f f141 7a3f
00000190: d92e a23f ea94 7b3f 6e2f 903f 5820 7b3f
000001a0: 3081 8f3f 65fd a43f 2ec6 913f 69ee 7b3f
000001b0: eea7 813f d98d 983f 7a86 793f e539 643f
000001c0: b0fb 723f 867b 6a3f 8e46 793f 9004 7d3f
000001d0: bd96 943f 104a 833f 5988 6f3f 6732 943f
000001e0: 01e2 9c3f 4bff 833f 612e 873f 1321 8a3f
000001f0: 985d 973f c65f 7e3f 1087 9f3f eb0a 9f3f

bn1.bias f4 [128]
-0.0399922 -0.04766687 -0.09777114 -0.07564096 -0.023715312 -0.04353309 -0.06955801 -0.033662166
-0.037275277 -0.056271672 -0.14759643 -0.0320913 -0.056889925 -0.014471227 -0.05536138 -0.097108506
-0.008887796 -0.036126804 -0.02282594 -0.08052502 -0.11606599 -0.045637053 -0.04558429 -0.0163005
-0.07033315 -0.2026156 -0.04115946 -0.17340606 -0.0121067455 -0.09104267 -0.040170148 -0.011589551
-0.08160324 -0.019630224 -0.030975705 -0.039127976 -0.03428534 -0.04233884 -0.09028804 -0.0077027194
-0.14851451 -0.05564224 -0.040938687 -0.006157699 -0.026690392 -0.20198816 -0.079251766 -0.04762729
-0.07577161 -0.028032929 -0.07135444 -0.14001165 -0.049878158 -0.04419674 -0.029437138 -0.027366474
-0.044357635 -0.06798904 -0.039579857 -0.051387202 -0.017835427 -0.041386317 -0.025208997 -0.028311666
-0.03114163 -0.1620501 -0.13311732 -0.018712258 -0.0129855005 -0.031343408 -0.12945701 -0.20707747
-0.018642997 -0.023024011 -0.081306264 -0.0790851 -0.015225826 -0.016668286 -0.087803364 -0.02153537
-0.011621906 -0.093528196 -0.07513124 -0.059265446 -0.049309686 -0.1981835 -0.0077060144 -0.034493193
-0.047075797 -0.025021011 -0.08984374 -0.095362894 -0.13819742 -0.041291412 -0.021306548 -0.026148975
-0.005716266 -0.048540797 -0.18194632 -0.042043157 -0.02053746 -0.03581791 -0.10462998 -0.01206375
-0.07828526 -0.033902053 -0.04066553 -0.022594167 -0.018923894 -0.028858108 -0.015659545 -0.047646306
-0.032158803 -0.024657352 -0.03509751 -0.025295975 -0.078725554 -0.26731536 -0.05261659 -0.035270117
-0.08562494 -0.23908049 -0.039536163 -0.054742545 -0.1342274 -0.04369785 -0.035373118 -0.0377268
00000000: dcce 23bd 563e 43bd 3c3c c8bd a6e9 9abd
00000010: 9d46 c2bc c14f 32bd 6e74 8ebd 57e1 09bd
00000020: f6ad 18bd 207d 66bd 8523 17be 2b72 03bd
00000030: 6905 69bd ba18 6dbc 9dc2 62bd d3e0 c6bd
00000040: 1e9e 11bc b3f9 13bd 77fd babc 4dea a4bd
00000050: 01b4 edbd ebed 3abd 98b6 3abd a088 85bc
00000060: d40a 90bd 777a 4fbe d296 28bd 5c91 31be
00000070: 5f5b 46bc 9474 babd 7489 24bd 1ae2 3dbc
00000080: 991f a7bd 90cf a0bc c3c0 fdbc a844 20bd
00000090: c96e 0cbd 7e6b 2dbd f0e8 b8bd 1867 fcbb
000000a0: 3014 18be 1ee9 63bd 53af 27bd 86c6 c9bb
000000b0: cfa5 dabc fcd5 4ebe c04e a2bd d514 43bd
000000c0: 252e 9bbd 50a5 e5bc 4722 92bd 375f 0fbe
000000d0: 0a4d 4cbd a407 35bd 2726 f1bc a82f e0bc
000000e0: 5ab0 35bd d63d 8bbd 7d1e 22bd 637b 52bd
000000f0: 9a1b 92bc b384 29bd 1983 cebc deed e7bc
00000100: bb1c ffbc 76f0 25be e84f 08be 734a 99bc
00000110: 23c1 54bc f261 00bd 6190 04be 1e0c 54be
00000120: 33b9 98bc da9c bcbc e683 a6bd 5ef7 a1bd
00000130: be75 79bc ee8b 88bc 40d2 b3bd f26a b0bc
00000140: cf69 3ebc b68b bfbd 68de 99bd 53c0 72bd
00000150: f4f8 49bd 9ef0 4abe bc82 fcbb bc48 0dbd
00000160: 8dd2 40bd ddf8 ccbc ffff b7bd 9f4d c3bd
00000170: a083 0dbe 2f21 29bd 128b aebc 6036 d6bc
00000180: 844f bbbb b7d2 46bd 2350 3abe 7235 2cbd
00000190: 2d3e a8bc cdb5 12bd 3e48 d6bd 09a7 45bc
000001a0: 0654 a0bd e1dc 0abd e690 26bd 6717 b9bc
000001b0: 4806 9bbc d767 ecbc 7248 80bc c628 43bd
000001c0: f3b8 03bd 37fe c9bc 68c2 0fbd 8139 cfbc
000001d0: dd3a a1bd 8fdd 88be 7e84 57bd 6677 10bd
000001e0: 215c afbd 84d1 74be acf0 21bd b839 60bd
000001f0: e872 09be 84fc 32bd 67e3 10bd 6b87 1abd

res_block1.fc.weight f4 [128, 128]
-0.108606346 -0.036935233 0.048442703 0.061499525 -0.029275501 0.010629809 0.18183424 0.079622805
0.006804493 0.040954676 -0.108804345 0.029129047 0.027764924 0.057433665 0.009258231 -0.027424803
0.016228259 -0.029547127 -0.07394617 0.04523972 0.041725915 -0.060578417 -0.03263912 -0.18500952
0.09277895 -0.11243008 0.046785675 0.0070993137 -0.03186409 0.11356007 0.011435455 0.051125396
-0.07443855 0.004368538 -0.04176777 0.0505781 -0.058054496 0.05821844 -0.038611818 0.06424248
0.015536866 0.037408505 0.07216124 0.07463958 -0.031830743 0.03394708 0.0060385317 0.06794298
0.042428143 -0.110356346 0.006499423 -0.05080947 -0.023700954 0.021510037 0.08495728 0.046249542
-0.07483025 -0.06257016 -0.022318922 0.03847462 -0.011880227 -0.018496752 0.08506283 0.010792719
-0.038024694 0.022746762 -0.072498165 0.027635239 0.018710433 -0.020008137 0.0281432 0.09532054
-0.0703001 0.007434397 0.010631891 0.03991869 0.044676986 0.016818615 -0.035302456 0.045035277
0.057358824 -0.08085864 0.007120784 0.07496334 0.06364533 -0.0029304088 0.029832784 -0.060200468
-0.054253247 0.05691345 -0.07696742 -0.09783393 0.062278762 -0.016979674 -0.041378055 0.013057067
0.18514432 0.12833461 -0.038205467 0.06706763 0.0128158415 -0.05320967 0.019950008 -0.018396676
-0.06823603 -0.19256671 -0.056563035 -0.0066993874 -0.076425076 0.122682504 -0.022933232 0.02562865
0.025690915 -0.021136036 0.06195871 -0.057689026 0.102719955 -0.037796807 0.021289594 -0.0070148217
0.109200165 0.008690174 0.070104584 0.009336909 -0.050566167 -0.029507011 -0.08370237 -0.03318316
0.0739638 0.039534777 0.012662274 0.0749865 -0.063651375 0.019392274 0.0058128047 0.048370555
-0.013014428 -0.046923205 0.06823194 -0.04821514 -0.01065426 0.08354638 0.13129893 -0.063464075
-0.05315291 -0.109093785 -0.03229083 -0.03987628 -0.09890239 -0.006190731 0.0048031253 0.11286681
0.08785754 -0.046965934 0.08886119 0.08840381 0.085400976 0.12430258 0.18126695 0.021670174
0.10227028 0.035604753 -0.08237847 -0.07689733 0.12014358 0.03426413 -0.051848896 -0.19896834
0.054275047 0.0514082 0.06575016 -0.013981238 0.035984606 0.08841497 0.053506423 -0.104112715
0.0050819954 0.037470244 0.04066842 -0.02208037 0.027628116 0.008194168 0.04940921 -0.0021990738
-0.072336875 -0.039531283 -0.035714217 0.071314946 -0.035079457 0.024951091 -0.017259255 0.0675045
-0.035770357 0.030788094 0.06522103 -0.088340685 -0.015666096 0.15640715 0.12297577 -0.0004924699
0.10292501 -0.0101247905 -0.10945352 -0.07337852 0.08257076 -0.011317874 0.10809304 -0.102636255
0.08611298 0.015613365 -0.03157223 0.0077618314 0.14873712 0.038552962 0.056579176 -0.03977454
0.09808877 0.10835211 0.010887115 0.05280019 -0.09758451 0.15730599 0.13285987 0.02020348
-0.052819908 0.007800283 0.020335658 0.0016111244 -0.2028928 -0.093986854 0.100832805 0.07987277
-0.06547586 0.10733078 -0.06761974 -0.07072794 -0.03467871 0.055483084 0.026957192 0.0013348069
0.066248804 0.07006705 -0.040398672 -0.01876229 -0.08025557 0.071701266 -0.062155306 0.18097675
0.2007728 0.025126332 0.04656117 -0.009806579 0.1052852 -0.0763611 -0.058222085 0.18737404
00000000: 016d debd 6649 17bd db6b 463d ede6 7b3d
00000010: 2dd3 efbc a728 2e3c c132 3a3e 4811 a33d
00000020: 39f8 de3b 17c0 273d d0d4 debd 0aa0 ee3c
00000030: 4473 e33c 903f 6b3d d6af 173c fba9 e0bc
00000040: 20f1 843c d10c f2bc 1771 97bd 494d 393d
00000050: cbe8 2a3d 1321 78bd 99b0 05bd 2373 3dbe
00000060: e402 be3d be41 e6bd 56a2 3f3d 5ca1 e83b
00000070: ec83 02bd 2f92 e83d c65b 3b3c dd68 513d
00000080: 3d73 98bd f425 8f3b ae14 2bbd fb2a 4f3d
00000090: 8dca 6dbd 7576 6e3d 6d27 1ebd 9091 833d
000000a0: 578e 7e3c a939 193d 46c9 933d a3dc 983d
000000b0: f460 02bd 180c 0b3d e0de c53b b025 8b3d
000000c0: 22c9 2d3d 8202 e2bd 1df9 d43b 971d 50bd
000000d0: 8128 c2bc d135 b03c 15fe ad3d 2970 3d3d
000000e0: 9a40 99bd c924 80bd 2cd6 b6bc 9097 1d3d
000000f0: 49a5 42bc 8086 97bc 6c35 ae3d f2d3 303c
00000100: c8bf 1bbd 6b57 ba3c eb79 94bd 4c63 e23c
00000110: 9f46 993c 1be8 a3bc 918c e63c 6a37 c33d
00000120: 80f9 8fbd 3e9c f33b 6231 2e3c c881 233d
00000130: 37ff 363d 31c7 893c 4f99 10bd e976 383d
00000140: 16f1 6a3d 3799 a5bd 7755 e93b 6186 993d
00000150: 7c58 823d 1a0c 40bb e263 f43c c494 76bd
00000160: a738 5ebd 141e 693d 18a1 9dbd 285d c8bd
00000170: 0418 7f3d f518 8bbc 097c 29bd 4fed 553c
00000180: 7996 3d3e 266a 033e 567d 1cbd c15a 893d
00000190: 89f9 513c 62f2 59bd 336e a33c a0b4 96bc
000001a0: 55bf 8bbd 3530 45be a4ae 67bd 8986 dbbb
000001b0: c084 9cbd f740 fb3d 79de bbbc 2df3 d13c
000001c0: c175 d23c 7b25 adbc 6bc8 7d3d 544b 6cbd
000001d0: d75e d23d d3d0 1abd 8467 ae3c 97dc e5bb
000001e0: 56a4 df3d 3b61 0e3c fe92 8f3d d6f9 183c
000001f0: 781e 4fbd b0b8 f1bc 266c abbd 11eb 07bd
00000200: 557a 973d 38ef 213d 6d75 4f3c 8692 993d
00000210: a75b 82bd 8cdc 9e3c 5779 be3b 3420 463d
00000220: 783a 55bc 8c32 40bd 30bd 8b3d 3d7d 45bd
00000230: 358f 2ebc 5d1a ab3d 3a73 063e 74f9 81bd
00000240: deb6 59bd 906c dfbd 6443 04bd 4f55 23bd
00000250: 568d cabd 9edb cabb 8963 9d3b b726 e73d
00000260: a7ee b33d 5a5f 40bd dbfc b53d 0f0d b53d
00000270: b5e6 ae3d 5a92 fe3d 0b9e 393e a685 b13c
00000280: 1573 d13d 4ad6 113d 0bb6 a8bd 597c 9dbd
00000290: d60d f63d 8b58 0c3d 825f 54bd 5bbe 4bbe
000002a0: 834f 5e3d 6891 523d 05a8 863d 9011 65bc
000002b0: 9864 133d e812 b53d 8d29 5b3d 0c39 d5bd
000002c0: de86 a63b 667a 193d ee93 263d e4e1 b4bc
000002d0: 5c54 e23c d540 063c 5061 4a3d 561e 10bb
000002e0: 5b25 94bd 8eeb 21bd 1249 12bd 920d 923d
000002f0: 7aaf 0fbd 3b66 cc3c 4863 8dbc cd3f 8a3d
00000300: f083 12bd 5037 fc3c 9a92 853d f6eb b4bd
00000310: 2f56 80bc 3229 203e b8da fb3d 1819 01ba
00000320: 59ca d23d 73e2 25bc 2b29 e0bd 7a47 96bd
00000330: dc1a a93d 9b6e 39bc e25f dd3d f532 d2bd
00000340: 015c b03d 33cf 7f3c e251 01bd f656 fe3b
00000350: 8b4e 183e b6e9 1d3d 91bf 673d a1ea 22bd
00000360: c4e2 c83d b6e7 dd3d df5f 323c 0345 583d
00000370: 63da c7bd d214 213e 6b0c 083e c581 a53c
00000380: b059 58bd 8499 ff3b f796 a63c 5d2c d33a
00000390: 21c3 4fbe 2e7c c0bd 6e81 ce3d 5694 a33d
000003a0: 3518 86bd 3dd0 db3d 387c 8abd cfd9 90bd
000003b0: 430b 0ebd 3b42 633d 54d5 dc3c b0f4 ae3a
000003c0: 74ad 873d 507f 8f3d 1479 25bd 60b3 99bc
000003d0: 085d a4bd 1dd8 923d 9096 7ebd f851 393e
000003e0: 6397 4d3e bdd5 cd3c edb6 3e3d c6ab 20bc
000003f0: c49f d73d 3563 9cbd 487a 6ebd fbde 3f3e

res_block1.fc.bias f4 [128]
-0.05026314 -0.062162176 -0.017727066 0.094006576 0.027535122 -0.01218347 -0.0412148 0.04916847
0.05327459 0.051023345 -0.08491689 0.055796504 0.0025768161 -0.098528646 0.07494703 0.08394359
0.049949978 0.0071258587 0.07638238 0.012338192 -0.104969434 0.07261532 0.04273683 0.018304741
-0.016345786 0.06255037 0.051772762 0.08091994 -0.095002204 -0.059970565 0.064318284 0.043855503
0.0757965 -0.0752138 0.008000048 0.062083047 -0.012675958 0.03629347 0.049542475 -0.093862325
0.06421173 -0.009293773 0.062105574 0.012072451 -0.01592703 0.036288776 -0.040167876 0.07385901
-0.013585936 -0.04489967 0.008074343 -0.0076051606 0.013334369 0.04413368 -0.032009114 0.027846625
0.07143757 0.056886252 -0.004924891 -0.024331024 -0.026069446 -0.10438869 -0.032473974 -0.0011316384
0.016144179 -0.11133426 0.010549897 0.014984543 -0.02093927 0.08704822 0.066606805 -0.07734598
-0.040137626 0.11715527 -0.065443635 0.06873903 -0.038815625 -0.034447394 -0.0069985376 -0.027005969
-0.072872944 -0.020980554 -0.04360376 -0.0063576507 -0.073719196 -0.0027781955 0.08783493 0.08623475
-0.017982168 0.028230445 0.023378788 -0.031070316 -0.008977926 0.04632503 -0.12043314 -0.0053152046
0.026303476 0.066289864 -0.021066934 -0.036791187 0.043824352 0.081434734 0.015467886 0.017047573
-0.01632227 0.048535366 0.052342214 -0.048125345 0.03152861 0.0710517 0.03911979 0.08735504
0.043101694 0.025432706 -0.08665348 -0.061238147 0.06666337 -0.05490841 0.024383498 0.027948972
0.08316285 0.073859826 -0.08269054 0.06117826 -0.04699064 0.005424667 -0.05950108 0.014890172
00000000: b9e0 4dbd c49d 7ebd 5a38 91bc 8586 c03d
00000010: 5691 e13c 2d9d 47bc dad0 28bd e164 493d
00000020: 7536 5a3d dbfd 503d e8e8 adbd e08a 643d
00000030: cddf 283b 63c9 c9bd d47d 993d 9eea ab3d
00000040: 5998 4c3d 0980 e93b 5e6e 9c3d 2126 4a3c
00000050: 37fa d6bd 57b7 943d d00c 2f3d d3f3 953c
00000060: 99e7 85bc 691a 803d ad0f 543d 5ab9 a53d
00000070: 8490 c2bd b2a3 75bd 4eb9 833d d4a1 333d
00000080: 323b 9b3d b109 9abd a212 033c cb4a 7e3d
00000090: d2ae 4fbc 76a8 143d 0ded 4a3d e43a c0bd
000000a0: 7181 833d e944 18bc 6a62 7e3d 88cb 453c
000000b0: 6779 82bc 8aa3 143d 1287 24bd 6543 973d
000000c0: 8c97 5ebc b7e8 37bd 404a 043c b634 f9bb
000000d0: 6678 5a3c 85c5 343d fd1b 03bd 9b1e e43c
000000e0: dc4d 923d 8f01 693d fb60 a1bb db51 c7bc
000000f0: 978f d5bc bdc9 d5bd 6e03 05bd 7c53 94ba
00000100: cc40 843c 3703 e4bd 7ad9 2c3c bb81 753c
00000110: d588 abbc 5646 b23d 2669 883d 9267 9ebd
00000120: 5a67 24bd 1aef ef3d 5007 86bd 0cc7 8c3d
00000130: 22fd 1ebd b618 0dbd fd53 e5bb 9f3b ddbc
00000140: 693e 95bd 69df abbc db99 32bd d753 d0bb
00000150: 17fa 96bd 6312 36bb cde2 b33d d89b b03d
00000160: 574f 93bc 8943 e73c df84 bf3c 2d87 febc
00000170: 2718 13bc 51bf 3d3d a6a5 f6bd 2b2b aebb
00000180: 637a d73c fbc2 873d 9094 acbc 5bb2 16bd
00000190: 2a81 333d 41c7 a63d 046d 7d3c 5aa7 8b3c
000001a0: 48b6 85bc 05cd 463d ca64 563d 151f 45bd
000001b0: 2524 013d 8e83 913d 133c 203d 33e7 b23d
000001c0: 678b 303d 4058 d03c 6177 b1bd dad4 7abd
000001d0: ce86 883d a4e7 60bd e7bf c73c 3ef5 e43c
000001e0: 4951 aa3d d243 973d a859 a9bd 0e96 7a3d
000001f0: 4279 40bd 68c1 b13b 68b7 73bd e8f5 733c

res_block1.bn.weight f4 [128]
1.0138289 0.98740727 0.98964447 0.9609905 1.0160148 0.9898067 1.0294181 0.965836
1.0510455 0.9819734 1.0663815 0.99788594 0.9375824 1.1210203 0.99550015 0.93844086
1.0065792 0.98221874 1.013181 1.0263841 1.1504265 0.98928463 0.9837237 0.9908045
1.019886 1.0799873 1.0011641 1.0081954 1.0300221 0.99507916 1.0323617 1.0031294
1.0016153 0.98767674 0.99117506 0.9963538 0.9798976 1.0352921 1.0166419 1.0679911
0.98724216 0.86204255 0.98950964 1.0051392 1.011184 1.0455294 1.0013036 1.004662
1.0627484 0.97303706 0.8908303 1.0452516 1.0209243 0.9817957 0.96170557 1.0332464
0.9860342 1.0013559 0.9481958 1.0191102 0.9863779 1.0477719 1.0551858 0.9852803
0.9863381 1.1255057 0.98569614 1.0349951 1.0046598 0.97837865 1.0188135 0.9598789
0.995784 0.9980325 0.9819065 0.9821955 0.9673932 1.0522852 0.9963807 1.0790813
1.0442749 0.95734257 1.0001583 0.9740056 1.015636 0.9655588 1.0042962 0.9831557
1.0830982 0.9821811 1.0224621 0.9948975 0.9778646 0.9858723 1.0725764 0.9906613
1.0506992 1.05922 0.97440463 1.0533488 1.002714 0.9922076 0.9697341 1.0257328
1.0094903 0.97327375 1.000866 0.9852471 0.9771183 1.0407176 0.9906991 1.0065436
0.9841561 0.9963722 0.9836813 0.9865482 1.0037595 0.95771736 0.99446636 1.0048368
0.9577989 1.0145078 1.0505781 1.035617 0.94668317 0.9852285 1.0069065 0.98223245
00000000: 25c5 813f b9c6 7c3f 5759 7d3f 7903 763f
00000010: c60c 823f f963 7d3f f9c3 833f 0741 773f
00000020: a988 863f 9c62 7b3f 307f 883f 7475 7f3f
00000030: 6605 703f 987d 8f3f 19d9 7e3f a93d 703f
00000040: 96d7 803f b072 7b3f eaaf 813f 8e60 833f
00000050: 2d41 933f c241 7d3f 51d5 7b3f 5da5 7d3f
00000060: a08b 823f 063d 8a3f 2526 803f 8c0c 813f
00000070: c4d7 833f 82bd 7e3f 6e24 843f 8b66 803f
00000080: ee34 803f 62d8 7c3f a6bd 7d3f 0b11 7f3f
00000090: 92da 7a3f 7484 843f 5221 823f efb3 883f
000000a0: e7bb 7c3f d2ae 5c3f 8150 7d3f 67a8 803f
000000b0: 7a6e 813f e8d3 853f b72a 803f c498 803f
000000c0: 2408 883f f518 793f 740d 643f ceca 853f
000000d0: a6ad 823f f756 7b3f 5632 763f 6b41 843f
000000e0: bd6c 7c3f 6e2c 803f f6bc 723f 3472 823f
000000f0: 4383 7c3f 641d 863f 5410 873f 543b 7c3f
00000100: a780 7c3f 9210 903f 9556 7c3f b87a 843f
00000110: b198 803f 0677 7a3f 7b68 823f a0ba 753f
00000120: b3eb 7e3f 0f7f 7f3f 395e 7b3f 2a71 7b3f
00000130: 15a7 773f 48b1 863f ce12 7f3f 561f 8a3f
00000140: cdaa 853f 6714 753f 3005 803f 6e58 793f
00000150: 5c00 823f dd2e 773f c78c 803f 18b0 7b3f
00000160: f6a2 8a3f 3870 7b3f 0ae0 823f 9ab1 7e3f
00000170: 5655 7a3f 2162 7c3f 2f4a 893f fb9b 7d3f
00000180: 507d 863f 8594 873f 9572 793f 22d4 863f
00000190: ef58 803f 5101 7e3f 7e40 783f 364b 833f
000001a0: fa36 813f 7828 793f 611c 803f 2739 7c3f
000001b0: 6d24 7a3f 3c36 853f 759e 7d3f 6cd6 803f
000001c0: a7f1 7b3f 4012 7f3f 8ad2 7b3f 6c8e 7c3f
000001d0: 317b 803f f72c 753f 5995 7e3f 7e9e 803f
000001e0: 4f32 753f 64db 813f 5879 863f 198f 843f
000001f0: d459 723f ef37 7c3f 50e2 803f 9673 7b3f

res_block1.bn.bias f4 [128]
0.011238435 -0.04768144 -0.05428191 -0.11275481 -0.057089973 -0.0885524 0.0027567733 -0.032074757
-0.043779455 -0.027693659 -0.055295035 0.00555079 -0.08065218 -0.078621104 -0.02174504 -0.057708837
0.0018984289 -0.01308422 0.0020914848 -0.024985403 -0.066352114 -0.01521445 -0.0007856904 -0.021211728
0.0070489664 -0.0012829156 0.0063206037 0.0025813489 -0.07924853 -0.00012891422 -0.032107413 -0.0031613752
0.008372481 -0.12658627 -0.0023804044 -0.037413973 -0.032787863 -0.007872086 -0.076817736 -0.022838537
-0.0145662 -0.045645006 -0.0066149184 0.01163223 0.0066226292 -0.16666397 -0.019721333 -0.02151493
-0.06021857 -0.040559627 -0.052805245 -0.07323845 0.004568279 -0.02651463 -0.053403515 -0.046243697
-0.03333996 0.00823006 -0.035200592 -0.007009536 -0.018142905 -0.04765797 -0.048332725 -0.032296542
-0.017021013 -0.10666994 -0.028970914 -0.018038841 0.004461682 -0.019752631 -0.098431244 -0.02378113
-0.044400945 -0.053335514 0.0077165593 -0.0250772 -0.043060016 -0.006977941 -0.04452599 -0.036073465
-0.057640124 -0.015720157 -0.094863616 -0.04029452 -0.053918883 -0.102489695 0.009188749 -0.025342595
-0.10456361 -0.023006579 -0.06372412 -0.088678464 -0.031060496 -0.012885193 -0.06382139 -0.014778999
0.003924986 -0.018654337 -0.029625248 0.009446462 -0.005960614 -0.020258324 -0.03131495 0.007298813
0.008140052 -0.02502466 -0.01177658 -0.015397211 -0.026787365 0.0011662239 -0.012582449 0.0030215892
-0.059938863 0.0063856384 -0.021449389 -0.044250667 -0.005691591 -0.10343045 -0.030536024 -0.023117686
-0.027085746 -0.05389682 -0.04039187 -0.060115416 -0.051749762 -0.058708 -0.006273432 -0.024776319
00000000: 6a21 383c 9d4d 43bd b556 5ebd feeb e6bd
00000010: 2dd7 69bd f65a b5bd fbaa 343b d260 03bd
00000020: 1652 33bd d0dd e2bc 0c7d 62bd 67e3 b53b
00000030: f82c a5bd 1a04 a1bd a722 b2bc 1a60 6cbd
00000040: b4d4 f83a 325f 56bc 4b11 093b 30ae ccbc
00000050: 9ee3 87bd 0746 79bc caf6 4dba 38c4 adbc
00000060: 04fb e63b 8127 a8ba 111d cf3b d92b 293b
00000070: 0e4d a2bd 262d 07b9 1083 03bd 132f 4fbb
00000080: bb2c 093c d59f 01be 8f00 1cbb 653f 19bd
00000090: 914c 06bd ecf9 00bc 9e52 9dbd e217 bbbc
000000a0: 12a7 6ebc 42f6 3abd f5c1 d8bb 1c95 3e3c
000000b0: a402 d93b f6a9 2abe a28e a1bc 1440 b0bc
000000c0: bfa7 76bd da21 26bd 504a 58bd 0afe 95bd
000000d0: 80b1 953b 3635 d9bc a5bd 5abd 086a 3dbd
000000e0: 7b8f 08bd 60d7 063c 7f2e 10bd 40b0 e5bb
000000f0: 6ea0 94bc 0135 43bd 89f8 45bd 6149 04bd
00000100: a76f 8bbc c575 dabd 6954 edbc 31c6 93bc
00000110: 4d33 923b 45d0 a1bc 5296 c9bd a5d0 c2bc
00000120: c4dd 35bd 5776 5abd 31db fc3b b36e cdbc
00000130: b35f 30bd 36a7 e4bb e260 36bd c5c1 13bd
00000140: 0d18 6cbd 8fc7 80bc db47 c2bd de0b 25bd
00000150: 0cda 5cbd 1ee6 d1bd 688c 163c 469b cfbc
00000160: 7225 d6bd 4b78 bcbc cb81 82bd 0e9d b5bd
00000170: 9572 febc 6b1c 53bc cab4 82bd 9d23 72bc
00000180: 2b9d 803b fbd0 98bc a6b0 f2bc 55c5 1a3c
00000190: 4151 c3bb c9f4 a5bc 1b44 00bd e22a ef3b
000001a0: da5d 053c 8400 cdbc 8ef2 40bc 9544 7cbc
000001b0: 2d71 dbbc fbdb 983a 9e26 4ebc db05 463b
000001c0: 7482 75bd 9e3e d13b a1b6 afbc 3040 35bd
000001d0: 8780 babb 58d3 d3bd af26 fabc 4d61 bdbc
000001e0: ede2 ddbc e9c2 5cbd f271 25bd 953b 76bd
000001f0: 8ff7 53bd cd77 70bd 5d91 cdbb b5f7 cabc

res_block2.fc.weight f4 [128, 128]
0.0107999295 0.011228619 -0.08770645 -0.022187714 -0.0023605626 0.014888667 0.094637714 0.05865814
0.03328846 -0.03444229 -0.056014787 0.0038280438 -0.015609334 -0.013458474 -0.09127075 -0.020581672
0.07172687 0.040347025 0.0036433018 -0.047460265 -0.023121264 0.025346931 0.046589933 -0.026871523
0.04386922 -0.016987199 -0.06404902 0.020876203 0.08375055 0.07149739 0.11022315 -0.05618975
0.020778611 -0.12004284 -0.05299233 0.032086007 -0.042615235 0.010130208 0.09783211 0.10289454
-0.0034495716 0.037374236 0.086712696 0.035045914 0.05354546 -0.04765526 -0.03784897 0.057276074
-0.028309083 -0.01080426 0.0025624367 0.018975878 0.12401144 0.07610838 -0.08328915 -0.03186298
0.038052727 0.066942886 0.023196096 0.096880786 0.049132105 0.019890513 -0.09226108 -0.06115612
-0.054989297 0.07590771 0.006700021 0.056793455 -0.050191507 -0.0529124 0.13123073 -0.03867911
0.08492388 0.044691518 -0.002295032 0.014022715 -0.017748624 -0.00026885184 0.02465234 0.08605992
0.036885682 -0.04557877 0.0051083607 -0.016387032 -0.06497611 -0.042367768 0.09042289 0.022858288
-0.1057624 -0.07572714 -0.06529902 -0.082950406 0.023005342 0.048447847 -0.020206396 -0.040112812
0.023499057 0.047046922 0.031059867 -0.07472218 0.10304938 -0.019795679 0.09197319 0.0045903213
0.0866026 0.01918127 -0.034843504 -0.0042561726 -0.03921642 0.06029885 -0.01706771 0.023548309
-0.070076786 0.019149734 0.022523198 -0.06298604 -0.03159724 0.07305615 -0.06386212 0.010946031
0.07419536 -0.06755208 0.08399534 -0.047545385 -0.008896323 0.047689598 0.0071592196 -0.032955725
0.10340077 0.035952266 0.09652718 -0.021929525 0.011461654 0.04695268 0.019221285 -0.048819456
0.013522512 -0.0049720285 -0.050700415 -0.027211506 0.07445787 0.14304478 -0.065578036 0.029710164
-0.037534762 0.06258622 0.049996965 -0.09820881 -0.027583325 -0.06537988 0.0025322232 -0.051993027
0.022331662 -0.024482394 0.04073049 -0.02809412 -0.037772704 -0.0015002743 -0.024536708 0.047716204
0.038940784 0.10814411 -0.050070584 -0.059343427 0.106790364 -0.06784101 -0.0032480957 -0.13400376
0.030635267 -0.055175632 -0.08652658 0.06557251 -0.08268965 -0.08066982 0.030782111 -0.06788418
-0.08387768 0.0102116335 0.05675732 -0.019343762 0.04336497 0.027255345 -0.08625547 -0.05414965
-0.03555353 0.068411075 0.048861574 -0.0069934204 0.0014004416 -0.01734873 0.020588048 -0.018938754
-0.049671795 0.042656302 0.01450261 0.013050054 -0.07500376 -0.0068998253 0.036136508 0.05284635
0.08849069 0.04125749 -0.06315526 0.03857465 0.085187286 0.09499353 0.039281793 0.040832732
0.06993632 0.040201206 -0.08786392 -0.066059686 -0.04978706 0.029016444 -0.0058574853 -0.027737767
0.06938857 -0.04446613 -0.038106184 0.047277536 -0.04567802 -0.0373246 0.06801153 -0.034519568
-0.025266552 0.009889644 -0.04708315 0.06023994 -0.023715261 -0.07880719 0.043050356 0.0001934277
0.039309725 -0.015507053 -0.06456923 -0.09376832 -0.030460456 0.052157886 0.06281384 -0.007193953
0.02149843 0.09372131 0.030170813 -0.006996484 -0.09362414 0.01055192 -0.05182187 0.120409414
0.05180868 -0.005551524 -0.027965484 -0.044212405 0.014942957 0.002321921 -0.031188715 0.038253818
00000000: 30f2 303c 3ef8 373c 709f b3bd 02c3 b5bc
00000010: abb3 1abb 98ef 733c 6bd1 c13d 8543 703d
00000020: 7b59 083d 5c13 0dbd c36f 65bd ebdf 7a3b
00000030: 4bbe 7fbc ee80 5cbc 29ec babd e59a a8bc
00000040: 8ae5 923d ec42 253d 76c4 6e3b b265 42bd
00000050: ce68 bdbc 5ea4 cf3c 16d5 3e3d ab21 dcbc
00000060: 36b0 333d bd28 8bbc 222c 83bd 9204 ab3c
00000070: 6985 ab3d 396d 923d adbc e13d 3927 66bd
00000080: e837 aa3c 05d9 f5bd 7c0e 59bd 9e6c 033d
00000090: 508d 2ebd 2cf9 253c 345c c83d 5fba d23d
000000a0: 3512 62bb ba15 193d 6d96 b13d 4e8c 0f3d
000000b0: 7c52 5b3d 2932 43bd 8607 1bbd 519a 6a3d
000000c0: 73e8 e7bc 5a04 31bc 8eee 273b 4d73 9b3c
000000d0: b6f9 fd3d b6de 9b3d 8093 aabd c282 02bd
000000e0: 2ddd 1b3d 5a19 893d bd05 be3c 6f69 c63d
000000f0: bf3e 493d 6ef1 a23c 61f3 bcbd d77e 7abd
00000100: 753c 61bd 8075 9b3d da8b db3b 41a0 683d
00000110: 9c95 4dbd acba 58bd 5961 063e fd6d 1ebd
00000120: 92ec ad3d 740e 373d 3f68 16bb 88bf 653c
00000130: 9065 91bc aff4 8cb9 b4f3 c93c 2f40 b03d
00000140: 7115 173d ceb0 3abd 0964 a73b 193e 86bc
00000150: 3212 85bd d389 2dbd a32f b93d 4e41 bb3c
00000160: f599 d8bd d516 9bbd 7ebb 85bd e7e1 a9bd
00000170: b375 bc3c 4071 463d e287 a5bc 554d 24bd
00000180: 1881 c03c 46b4 403d 4371 fe3c f107 99bd
00000190: 8e0b d33d 8c2a a2bc 715c bc3d 686a 963b
000001a0: b45c b13d 0a22 9d3c 10b8 0ebd 5d77 8bbb
000001b0: 66a1 20bd edfb 763d 95d1 8bbc 62e8 c03c
000001c0: 6b84 8fbd e7df 9c3c 9282 b83c d3fe 80bd
000001d0: 1c6c 01bd 769e 953d 25ca 82bd fb56 333c
000001e0: bdf3 973d bf58 8abd c005 ac3d f3be 42bd
000001f0: e2c1 11bc 2b56 433d e397 ea3b 95fc 06bd
00000200: c8c3 d33d af42 133d 0bb0 c53d 8ca5 b3bc
00000210: a9c9 3b3c 7451 403d f575 9d3c e9f6 47bd
00000220: 878d 5d3c 66ec a2bb 3dab 4fbd aaea debc
00000230: 5e7d 983d 557a 123e c74d 86bd bb62 f33c
00000240: 0dbe 19bd 342d 803d 9ec9 4c3d b321 c9bd
00000250: 6df6 e1bc e3e5 85bd a8f3 253b a4f6 54bd
00000260: e4f0 b63c 4d8f c8bc 04d5 263d a425 e6bc
00000270: 8db7 1abd daa4 c4ba 3501 c9bc 1172 433d
00000280: 5f80 1f3d a97a dd3d d016 4dbd 1812 73bd
00000290: e8b4 da3d 3af0 8abd 01de 54bb 4838 09be
000002a0: d0f6 fa3c d8ff 61bd d934 b1bd e14a 863d
000002b0: 3159 a9bd 3836 a5bd c42a fc3c dc06 8bbd
000002c0: 10c8 abbd b24e 273c 5d7a 683d cf76 9ebc
000002d0: 779f 313d 9a46 df3c b5a6 b0bd 06cc 5dbd
000002e0: 94a0 11bd 1b1b 8c3d 1323 483d 1029 e5bb
000002f0: 068f b73a ec1e 8ebc 44a8 a83c 7225 9bbc
00000300: a774 4bbd 60b8 2e3d 5b9c 6d3c e5cf 553c
00000310: 929b 99bd ee17 e2bb e003 143d 6a75 583d
00000320: 9b3a b53d 9dfd 283d 8c57 81bd 7400 1e3d
00000330: ac76 ae3d f88b c23d f2e5 203d 3940 273d
00000340: c63a 8f3d 05aa 243d 00f2 b3bd 4d4a 87bd
00000350: 84ed 4bbd e5b3 ed3c 26f0 bfbb 503a e3bc
00000360: 981b 8e3d 1e22 36bd 3b15 1cbd 17a6 413d
00000370: e018 3bbd aee1 18bd a149 8b3d 6464 0dbd
00000380: cdfb cebc 2c08 223c 43da 40bd 28be 763d
00000390: 8246 c2bc aa65 a1bd 9255 303d dad2 4a39
000003a0: 3c03 213d 4b11 7ebc df3c 84bd 9b09 c0bd
000003b0: 3588 f9bc 82a3 553d 8ba4 803d 40bb ebbb
000003c0: 7a1d b03c f5f0 bf3d c828 f73c c342 e5bb
000003d0: 03be bfbd f6e1 2c3c 2b43 54bd 3699 f63d
000003e0: 5735 543d 8fe9 b5bb df17 e5bc 1118 35bd
000003f0: 4ed3 743c 5f2b 183b 7a7f ffbc 09b0 1c3d

res_block2.fc.bias f4 [128]
-0.0052916533 0.057629343 -0.026560633 0.0804184 -0.06237942 -0.088473774 -0.08615828 0.07217007
0.080455296 -0.018644694 -0.03093492 0.08195078 0.07332112 -0.017870927 0.04103231 -0.013168408
-0.070390075 0.014352239 -0.042613406 -0.00090464443 0.04572274 0.054877624 -0.065627985 -0.06636167
-0.069445595 0.09486893 0.0071554384 0.030443646 -0.06455394 0.061515708 -0.05670258 0.037429385
-0.063044704 0.06735612 0.012945632 0.070164464 -0.032893352 -0.07103199 -0.019457214 -0.020847026
-0.020094315 -0.02192167 0.0427592 -0.05015329 0.0320407 0.030845258 -0.07624096 0.05238129
-0.046766944 -0.00369928 -0.021713598 -0.016406475 0.059488736 -0.079273164 -0.05575683 -0.00042198854
-0.023241784 -0.056119505 -0.029301316 0.07046921 -0.025557768 -0.07431054 0.057541706 0.004642802
-0.001974189 -0.09500894 -0.062388174 -0.07362503 -0.03075307 0.083898336 -0.066892125 -0.076244436
0.043706253 -0.037485275 0.0028004867 0.062315274 -0.06281998 0.09123568 -0.015720477 0.033461668
-0.077626675 -0.0015576875 -0.004221083 -0.07881213 0.06194094 -0.07765475 0.079203986 -0.052938484
-0.018004332 -0.037505075 -0.053994656 -0.041420616 0.0051605017 0.053772982 -0.08060794 -0.022419685
0.05367987 -0.054920685 -0.06601221 0.047902033 -0.027164977 0.020542078 0.047044042 0.075693145
0.0674639 -0.06437709 0.007987104 0.06792375 -0.043670654 -0.0034100628 -0.024724275 0.051681772
-0.016871559 0.085335575 0.07347529 -0.006363324 0.061590306 -0.0415802 0.046278182 -0.031531133
-0.07646121 0.079845786 -0.094295256 -0.043422684 -0.06512835 -0.07729691 0.038267355 -0.030323911
00000000: 9b65 adbb bf0c 6c3d af95 d9bc 67b2 a43d
00000010: 9081 7fbd bd31 b5bd c173 b0bd e7cd 933d
00000020: bfc5 a43d c2bc 98bc 3b6b fdbc cfd5 a73d
00000030: 6229 963d 0d66 92bc 7f11 283d 4ec0 57bc
00000040: ac28 90bd a725 6b3c 658b 2ebd a925 6dba
00000050: c547 3b3d 5cc7 603d f767 86bd a1e8 87bd
00000060: 7e39 8ebd a44a c23d 2b78 ea3b f464 f93c
00000070: db34 84bd e5f7 7b3d f740 68bd 8e4f 193d
00000080: 951d 81bd 01f2 893d eb19 543c 63b2 8f3d
00000090: 2ebb 06bd 3879 91bd bc64 9fbc 62c7 aabc
000000a0: d59c a4bc 1395 b3bc 4524 2f3d 896d 4dbd
000000b0: 1c3d 033d 32af fc3c 3824 9cbd c38d 563d
000000c0: b28e 3fbd 9f6f 72bb b7e0 b1bc df66 86bc
000000d0: 76aa 733d f859 a2bd 4661 64bd 583e ddb9
000000e0: 8e65 bebc 91dd 65bd 5009 f0bc 2952 903d
000000f0: 865e d1bc 2030 98bd dab0 6b3d a522 983b
00000100: 6561 01bb 0c94 c2bd be8a 7fbd b8c8 96bd
00000110: dded fbbc e4d2 ab3d bdfe 88bd 0b26 9cbd
00000120: 5405 333d 298a 19bd 5f88 373b 4d3e 7f3d
00000130: c3a7 80bd c6d9 ba3d 3bc8 80bc 1a0f 093d
00000140: bcfa 9ebd 522b ccba 0351 8abb 4168 a1bd
00000150: c8b5 7d3d 7409 9fbd b335 a23d 06d6 58bd
00000160: d27d 93bc ec9e 19bd 8029 5dbd aaa8 29bd
00000170: 6d19 a93b 0f41 5c3d c715 a5bd 7da9 b7bc
00000180: 6cdf 5b3d 83f4 60bd 6931 87bd ec34 443d
00000190: 1689 debc dc47 a83c 41b1 403d 0205 9b3d
000001a0: 832a 8a3d 23d8 83bd 58dc 023c 9b1b 8b3d
000001b0: 00e0 32bd 5c7b 5fbb 908a cabc 44b0 533d
000001c0: 3936 8abc 6bc4 ae3d 367a 963d 6e83 d0bb
000001d0: 1e46 7c3d 0050 2abd 318e 3d3d ca26 01bd
000001e0: b297 9cbd 3086 a33d df1d c1bd fcdb 31bd
000001f0: 0362 85bd d84d 9ebd 3bbe 1c3d da69 f8bc

res_block2.bn.weight f4 [128]
0.9959978 0.995479 0.96998966 0.97077566 1.0141364 0.958134 0.98543847 0.97269934
1.0366089 0.9545204 0.99133724 0.955415 0.9469166 1.1089886 1.1390238 0.9896494
1.0050615 0.98548734 1.0110039 1.0256046 1.1008698 1.0453665 0.98362815 0.9505067
1.0068828 0.998598 1.0166943 0.9855373 0.97793037 1.0170016 1.0211114 1.0002321
1.0066048 0.9911437 1.0195948 0.98116624 1.0136522 0.9977108 0.9796161 1.3386703
0.99660736 0.99003166 0.9748177 0.95665306 0.99391156 1.0065233 1.0314208 0.99024
0.9755606 1.000966 0.8734319 1.0567544 1.0208133 0.92249054 0.98481584 0.99238884
0.95556504 1.002953 0.9681255 1.0103829 0.976274 1.040112 0.7599812 0.84176123
0.98232347 0.9880536 0.9859753 0.986473 0.97396475 0.9785154 1.1600271 0.9875033
1.1122942 1.004103 0.9578822 0.9814054 1.0095769 1.0081141 0.98517865 1.0407137
1.049512 0.9480623 0.9652586 0.98308563 0.9723626 1.0042828 1.0165168 1.0005456
1.0455387 1.0430881 1.109228 0.98863786 0.9793554 0.9871602 1.0541148 0.99307394
1.0547796 1.0466006 0.97842807 1.0122758 1.0020145 1.0210477 1.0050209 1.0072919
1.005248 0.97842 0.9921249 0.92698115 0.9852675 0.9928518 0.9706206 0.99664986
1.0020704 0.9995834 0.9833337 0.9883141 0.97356653 0.9920552 1.0413575 0.9456737
0.9369438 0.9602547 0.98991394 0.92931545 0.9826374 0.9633978 0.98253953 0.87052083
00000000: b6f9 7e3f b6d7 7e3f 3e51 783f c184 783f
00000010: 39cf 813f 4548 753f b245 7c3f d302 793f
00000020: 9aaf 843f 735b 743f 47c8 7d3f 1496 743f
00000030: 2069 723f 57f3 8d3f 88cb 913f aa59 7d3f
00000040: dba5 803f e648 7c3f 9368 813f 0347 833f
00000050: 4de9 8c3f 92ce 853f 0ecf 7b3f 6854 733f
00000060: 89e1 803f 1ea4 7f3f 0a23 823f 2c4c 7c3f
00000070: a559 7a3f 1c2d 823f c7b3 823f 9b07 803f
00000080: 6dd8 803f 98bb 7d3f 1582 823f b62d 7b3f
00000090: 5bbf 813f fa69 7f3f 1fc8 7a3f 8c59 ab3f
000000a0: a921 7f3f b772 7d3f a78d 793f 37e7 743f
000000b0: fd70 7e3f c1d5 803f 9905 843f 5e80 7d3f
000000c0: 57be 793f a71f 803f 3c99 5f3f ba43 873f
000000d0: 03aa 823f 5728 6c3f e41c 7c3f 320d 7e3f
000000e0: e99f 743f c460 803f 13d7 773f 3a54 813f
000000f0: 18ed 793f 6422 853f 218e 423f aa7d 573f
00000100: 8d79 7b3f 15f1 7c3f e168 7c3f 7f89 7c3f
00000110: c155 793f fc7f 7a3f c57b 943f 04cd 7c3f
00000120: a85f 8e3f 7286 803f c537 753f 623d 7b3f
00000130: d139 813f e209 813f ab34 7c3f 1b36 853f
00000140: 6956 863f 36b4 723f 301b 773f 80ab 7b3f
00000150: c1ec 783f 578c 803f 391d 823f e111 803f
00000160: 36d4 853f e983 853f 2ffb 8d3f 5f17 7d3f
00000170: 09b7 7a3f 88b6 7c3f 3ced 863f 183a 7e3f
00000180: 0503 873f 02f7 853f 437a 7a3f 4192 813f
00000190: 0342 803f b1b1 823f 86a4 803f f1ee 803f
000001a0: f7ab 803f bc79 7a3f e6fb 7d3f a34e 6d3f
000001b0: 7e3a 7c3f 892b 7e3f 977a 783f 7224 7f3f
000001c0: d843 803f b3e4 7f3f c2bb 7b3f 2702 7d3f
000001d0: a83b 793f 54f7 7d3f 344b 853f ac17 723f
000001e0: 8ddb 6f3f 41d3 753f 006b 7d3f 9ee7 6d3f
000001f0: 208e 7b3f 3da1 763f b687 7b3f 74da 5e3f

res_block2.bn.bias f4 [128]
0.0011188196 -0.040804554 -0.016854163 -0.021722335 -0.019529276 -0.030682871 -0.013570074 0.00068575883
0.01888439 -0.02186038 -0.012263212 0.009249389 -0.1272189 -0.056888025 -0.053436004 -0.0145303095
0.008163342 -0.06364208 -0.0017696831 -0.040710945 -0.07091033 -0.017773252 -0.008643693 -0.036838163
0.017698165 0.0015983945 0.0046381424 0.035624404 -0.018071687 0.02335958 -0.028590191 -7.1515045e-05
0.010443458 -0.027660418 0.010711587 -0.048939537 0.009186024 -0.012859506 -0.020858392 -0.026709286
-0.018031633 -0.035129573 -0.01519596 0.008870412 -0.010130556 -0.11096026 0.009539505 -0.015202091
-0.076463856 -0.074078865 -0.035744958 -0.021509074 -0.025446124 -0.05064916 -0.01929135 -0.014348728
-0.05576153 0.017914155 -0.059647407 0.0055070785 -0.017472556 -0.024016963 -0.0614716 -0.083612904
-0.016034005 -0.015299235 -0.01641364 -0.014210135 -2.8394046e-05 -0.020017741 -0.11616625 -0.013388065
-0.06109837 0.0046313372 0.00023061538 -0.043495458 0.008096175 0.0044677723 -0.020474415 -0.022413813
-0.060146693 -0.01707363 -0.034771748 -0.016873026 -0.019345166 0.0028086584 0.011278444 -0.0021230113
-0.058315087 -0.030997429 -0.055795997 -0.013476641 -0.019372944 -0.012394604 -0.03309364 -0.01300348
-0.030848239 -0.04331054 -0.022018243 0.01532146 0.0024649478 -0.07724745 -0.0072972523 0.005259461
0.0075253355 -0.04319041 -0.013308342 -0.025245102 -0.021504682 0.056455694 -0.008167239 0.0074195387
-0.003595908 0.0063530607 -0.020652477 -0.026193565 0.024593445 -0.029582893 -0.040690295 -0.047470458
-0.05751513 -0.084592514 -0.015180453 -0.03950759 -0.017950846 -0.020762602 0.01693042 -0.032882582
00000000: 5ba5 923a ad22 27bd be11 8abc 0af3 b1bc
00000010: dcfb 9fbc a55a fbbc 0455 5ebc 7fc4 333a
00000020: 70b3 9a3c 8a14 b3bc a4eb 48bc c08a 173c
00000030: ac45 02be 6b03 69bd b6df 5abd 8910 6ebc
00000040: 8abf 053c c756 82bd b6f4 e7ba 85c0 26bd
00000050: 6f39 91bd 3699 91bc 479e 0dbc 9de3 16bd
00000060: befb 903c 3881 d13a 8ffb 973b e5ea 113d
00000070: 130b 94bc 975c bf3c fa35 eabc 59fa 95b8
00000080: 0a1b 2b3c 1a98 e2bc a77f 2f3c d374 48bd
00000090: fa80 163c adb0 52bc 38df aabc 6fcd dabc
000000a0: 13b7 93bc 07e4 0fbd 7af8 78bc 3455 113c
000000b0: a2fa 25bc 223f e3bd 954b 1c3c 3112 79bc
000000c0: 1599 9cbd a9b6 97bd 4e69 12bd cc33 b0bc
000000d0: 6474 d0bc 7e75 4fbd e508 9ebc ed16 6bbc
000000e0: 3466 64bd b5c0 923c d750 74bd b974 b43b
000000f0: 9b22 8fbc 39bf c4bc a5c9 7bbd 3e3d abbd
00000100: bf59 83bc a4a9 7abc e675 86bc a0d1 68bc
00000110: c02f eeb7 3ffc a3bc 92e8 edbd 9d59 5bbc
00000120: 4942 7abd 79c2 973b 58d1 7139 4b28 32bd
00000130: d2a5 043c 6466 923b f6b9 a7bc 2c9d b7bc
00000140: 615c 76bd ffdd 8bbc d26c 0ebd 4d39 8abc
00000150: c179 9ebc 7811 383b 39c9 383c 3822 0bbb
00000160: cddb 6ebd 52ee fdbc 588a 64bd 21cd 5cbc
00000170: 02b4 9ebc bd12 4bbc 328d 07bd 8c0c 55bc
00000180: 72b5 fcbc 6566 31bd 9a5f b4bc dc06 7b3c
00000190: f68a 213b e933 9ebd ca1d efbb 8e57 ac3b
000001a0: 1797 f63b 6de8 30bd 3b0b 5abc d1ce cebc
000001b0: 962a b0bc 163e 673d e2cf 05bc 9a1f f33b
000001c0: 53a9 6bbb 562d d03b 622f a9bc e393 d6bc
000001d0: 3178 c93c d357 f2bc deaa 26bd 6270 42bd
000001e0: fc94 6bbd d73e adbd 6fb7 78bc b6d2 21bd
000001f0: a70d 93bc 5516 aabc aab1 8a3c e3af 06bd
