model/trained_model.pth (torch, 206107 bytes, 14 tensors)

fc1.weight f4 [128, 141]
000000 f2 f6 ef 3b 6e 6c 56 3d da 39 a1 3a 16 56 06 3c
       0.0073231393 0.0523495 0.0012300566 0.008199235
000010 56 33 3f 3d d2 2b 92 bd 09 2e 6d 3d 42 41 72 3c
       0.046679817 -0.07137264 0.05790523 0.0147860665
000020 88 bc 8b 3b 3d e3 27 bd 3d 6e b2 3d a9 4f 8d 3d
       0.004264418 -0.040988196 0.087124325 0.068999596
000030 3d 8a 39 3c bf cb c4 3c fc 65 2c 3b 1b 98 98 3d
       0.0113244625 0.024022935 0.0026305905 0.07450887
000040 5a 8c b2 3d f4 97 81 ba 73 2d a2 bc 71 46 9e 3d
       0.08718176 -0.0009887205 -0.019797063 0.077282794
000050 ff fd 66 bc 2c 78 5e 3d 2b da 92 3d ea 96 a6 bd
       -0.014098643 0.054313824 0.071705185 -0.08134253
000060 c6 78 75 bd c8 b8 80 3d fb a1 23 3d 63 00 91 3d
       -0.05992963 0.06285244 0.0399494 0.07080152
000070 ea 50 9c 3d f7 63 70 bd 05 15 11 3d 52 ca 23 3d
       0.07632621 -0.058689084 0.035420436 0.03998787
000080 e6 23 97 3d 56 f9 1b 3c c2 36 84 3d 79 ad 6e bd
       0.07379894 0.009519896 0.06455757 -0.058270905
000090 5e d1 5c 3d 54 a7 20 3d 95 af b7 3c b2 09 80 3d
       0.053910606 0.039222077 0.022422591 0.06251849
0000a0 47 29 90 bd a4 48 a3 3d 21 7f 05 bd ff 38 19 bd
       -0.07039123 0.079728395 -0.032591943 -0.03740787
0000b0 1b 3a 73 bd 52 65 95 3b 63 4a be bc 28 91 2e 3c
       -0.059381586 0.0045591975 -0.02322883 0.010654725
0000c0 94 a4 53 bc f5 d9 28 3d e9 6c 08 bd cb c4 8a 3d
       -0.012917656 0.041223485 -0.03330699 0.067758165
0000d0 1e fb 77 3d 89 66 99 bd f7 94 78 3d 0d b6 82 3d
       0.06054222 -0.0749026 0.06068894 0.0638238
0000e0 72 88 c0 bb 04 20 5b 3d 2d 5c 4f 3d 60 78 f7 3d
       -0.0058756405 0.05349733 0.050625015 0.120835066
0000f0 16 84 a1 bd 3f 18 2d bd 4f 6a 6a 3d 39 d4 ce 3d
       -0.078865215 -0.04225945 0.05723029 0.10099072
000100 4a da 15 3d 3d ec bb 3d b1 5c 06 3e 5c 21 5a 3e
       0.03658513 0.09175918 0.13121296 0.21301788
000110 55 4a 9d 3a 88 0d a2 bd 5b 26 b7 bc 47 8e 98 bb
       0.0012000302 -0.07912737 -0.022357157 -0.0046556327
000120 a2 d9 04 bd c0 11 0c 3c 1b 5e 00 be bc 0d a6 bd
       -0.032434113 0.008549154 -0.12535898 -0.081080884
000130 7b 5e 85 bd cf be 98 bd 6c f3 2b bd a8 18 35 be
       -0.06512161 -0.07458269 -0.041980192 -0.17685187
000140 dc b3 1f be 7b 69 8a bd 2a ad 1a 3d 5b 30 44 3d
       -0.15595955 -0.067584 0.0377628 0.047897678
000150 4e 10 72 3d f1 ec 30 bc 9a e7 20 bd 0d 2f 91 bc
       0.05909758 -0.010798679 -0.039283372 -0.01772263
000160 d6 c6 f0 3c 7b 17 45 3b e6 fc 25 bd c9 2b 82 3e
       0.029391687 0.003007381 -0.040524386 0.2542403
000170 15 9e 24 bc 49 bb 21 3d c1 4f 48 bb 5a 9a 96 bd
       -0.010047455 0.03948525 -0.0030565115 -0.07353659
000180 6b c5 30 3d 11 cf 1f 3e db 9e 61 3d 21 a1 24 3a
       0.043157022 0.15606333 0.055083137 0.00062801136
000190 df 9e a5 bc 28 d8 ec 3d 81 f6 47 bd 54 0e 0b 3e
       -0.020217357 0.11564666 -0.04881907 0.13579684
0001a0 12 4f 81 3d 35 cd 4e 3d e7 21 ba bd d9 9b a5 bc
       0.063139096 0.05048867 -0.090884976 -0.020215916
0001b0 96 af 83 bc 29 75 96 bd 05 fe 4e bd a8 40 0b 3c
       -0.016074937 -0.07346565 -0.05053522 0.008499302
0001c0 c5 8d bc 3b 02 ac b1 3d cc f5 94 3b e1 cb 15 3d
       0.005754205 0.08675386 0.004545903 0.036571387
0001d0 2a 90 96 3d 36 dc f5 3d 4f 0a 05 bc 9c 1c 6c 3d
       0.07351716 0.120048925 -0.008120134 0.05764447
0001e0 ea 51 4b 3d 07 1d b9 3b 73 7e 23 3e ba d0 aa 3d
       0.049638666 0.0056492123 0.15966205 0.08340593
0001f0 db ae b6 3a 1a 8d ba 3d a1 92 0c 3e 4e bb 20 3f
       0.0013937609 0.09108944 0.1372781 0.62785804
000200 b0 f0 73 3c a1 0c 90 be 74 89 9b bd 65 83 4c be
       0.014888927 -0.28134635 -0.075945765 -0.19971998
000210 aa 08 95 bd 2a 71 8c bd 5a d8 66 be 01 e4 81 3d
       -0.07277043 -0.06857522 -0.22543469 0.063423164
000220 57 a8 31 bd 4f 9a 55 3d 7a 6d ad 3d 2d ad dd ba
       -0.043373432 0.052149113 0.084681466 -0.0016912572
000230 8d a8 09 bd ac 90 7f 3c a2 21 c4 bb 0c ab 12 bd
       -0.03360801 0.015598457 -0.0059854547 -0.035807654
000240 65 b1 3d bd 9e ad 5e 3b ef f9 ba bc e7 bc f7 3b
       -0.046311755 0.0033977996 -0.022824256 0.0075603607
000250 40 65 97 3d 99 9a 21 3d 0e bc cb 3d c5 82 51 bd
       0.07392359 0.039454076 0.09947978 -0.051150102
000260 47 20 db 3d a8 f6 1f 3d d8 dd d5 3d e2 4a 73 3c
       0.10699516 0.03905359 0.10442704 0.014849396
000270 ad ca c1 bc 4a e8 17 3c 7f 5c f2 3a 95 92 4e bd
       -0.023656214 0.009271691 0.0018490701 -0.05043276
000280 73 e0 ad 3d df dd 27 bd 37 f9 bb bc c1 80 fd bc
       0.08490076 -0.040983077 -0.022945983 -0.030945184
000290 85 30 7b 3c ad 2e 23 bd 48 df a9 3d bc 50 e1 3c
       0.015331392 -0.039839435 0.08294541 0.027504317
0002a0 cd 87 a9 3c 38 06 cd 3c 5d 26 c4 3b 6c d2 92 3c
       0.020694638 0.02502738 0.0059860186 0.017922603
0002b0 d3 d6 e0 3c ab 1d 92 3d d5 f9 6f 3d f8 a6 8c 3d
       0.027446186 0.07134565 0.058587868 0.06867784
0002c0 53 ce 96 bd de b9 c0 3d f2 3d 90 3c b4 e8 ae 3c
       -0.07363572 0.09410451 0.017607663 0.021351196
0002d0 bf 9b 06 bd e4 c4 7e 3d 35 66 03 3e c0 28 34 bd
       -0.032863375 0.06219949 0.12831958 -0.043984175
0002e0 1f 19 6e 3d 7d c5 39 bd 7a 81 0c bd df f0 a3 3d
       0.058129426 -0.045354355 -0.034303166 0.08004927
0002f0 eb 1d ee 3a 38 e6 32 bd 99 0f 86 bc d5 ab 78 bd
       0.0018166875 -0.043676585 -0.01636486 -0.060710747
000300 76 ef a1 3d 54 57 44 3d 59 82 b4 3d 3a 98 b2 3d
       0.07907002 0.047934845 0.08813924 0.08720441
000310 8e c5 24 ba 53 60 a9 3d 21 9f 94 3d 27 72 38 bd
       -0.00062855415 0.082703255 0.07256914 -0.04503074
000320 c8 83 f8 bc 13 b1 ea 3d 92 ff ae 3d a3 92 c3 3b
       -0.030336276 0.114595555 0.0854484 0.005968408
000330 76 df e3 3c a9 4a 41 bd 3f f5 b0 bc 29 b8 46 bd
       0.027816515 -0.047190342 -0.021601317 -0.048515473
000340 e3 54 5e bd cc af 5c 3c 77 2d 42 bc 1c 2c f8 3c
       -0.054280173 0.013469648 -0.01185166 0.03029447
000350 51 59 9e 3d b8 11 b6 3d 23 f2 2e be c8 be 0b be
       0.077318795 0.08890098 -0.17084555 -0.13646996
000360 1a b2 01 3b d0 6b 33 3b 9e 27 4c bd d3 3f 41 bd
       0.0019789995 0.0027377494 -0.04984247 -0.04718001
000370 83 41 cd 3d 21 fe 46 3e 8e eb 54 bd 0c 6d c4 bb
       0.10022261 0.1943288 -0.051982455 -0.0059944447
000380 c0 46 70 3d 98 21 a1 3d 34 2a f2 bc 86 60 d4 bd
       0.058661222 0.078677356 -0.02956114 -0.10369973
000390 17 c3 03 be 10 67 68 bd 82 a3 f9 bd a4 27 fc 3c
       -0.1286739 -0.056738913 -0.1218939 0.03078062
0003a0 7c df 14 bf 13 64 c8 bd 8f 98 26 3e 01 60 dd 3d
       -0.5815351 -0.09784713 0.16269134 0.10809327
0003b0 dc a0 0d 3e a4 ee 82 3c 50 4f ba 3d ea 17 4b 3e
       0.13830894 0.015982933 0.09097159 0.19833341
0003c0 a1 27 00 3e ce 37 52 bc 6c d3 2a 3e 17 9d 7d 3d
       0.12515117 -0.012830688 0.16682214 0.06191739
0003d0 b3 4b 17 be 4f d0 a0 3d a0 ca 19 be 64 ef a3 bb
       -0.1477497 0.07852232 -0.15018702 -0.005002903
0003e0 2a 24 70 bd 9e 22 c7 3b f8 c5 8b bd cc e9 51 bd
       -0.05862824 0.0060771247 -0.06824869 -0.051248357
0003f0 0d e8 0a 3e b5 51 bd 3c f3 59 43 bb b4 7d 72 3d
       0.13565083 0.02311025 -0.0029808253 0.05920191

fc1.bias f4 [128]
000000 fd 84 01 3d c3 0e 9a 3d 1d cd 96 bd b2 dc 94 3d
       0.031620968 0.07522347 -0.07363341 0.07268657
000010 9b de a6 3d 3d 72 75 3d c9 81 4e 3d 80 9d 25 3a
       0.081479274 0.0599234 0.05041674 0.000631772
000020 04 14 79 bd 91 71 17 3d 9a 8c ac bd a2 e0 6e bd
       -0.060810104 0.03697354 -0.08425255 -0.058319695
000030 bb 43 a6 bd 9f 32 06 bd bd 09 7f 3d bf 48 8a 3d
       -0.08118387 -0.03276312 0.062265147 0.067521565
000040 c4 b9 b9 bd 37 5a 33 bd a9 7f 9e bd fe bc d1 bc
       -0.09068635 -0.043787207 -0.07739193 -0.025602814
000050 b4 5b 99 3d 80 77 91 bc 9f a1 ae 3d 89 55 80 bd
       0.07488194 -0.017757177 0.085269205 -0.062663145
000060 56 a6 11 3b 79 c8 58 bd a4 87 4c bd bd a9 d5 bb
       0.0022224388 -0.05292556 -0.049934044 -0.0065204785
000070 9c 24 e0 3c 5a b2 da bc 04 e4 20 3c 2d 54 af bd
       0.027361207 -0.026696373 0.009819988 -0.08560977
000080 e0 5a 03 bc ee 73 0f 3d 6b ca 60 3d c4 f9 92 bc
       -0.008017272 0.03502267 0.05488054 -0.017941363
000090 b8 e5 b6 bd a2 49 94 3d df 02 18 3b 3c 76 a3 3d
       -0.08930534 0.07240607 0.002319507 0.07981536
0000a0 65 47 92 3d c0 c3 1a bb c9 9a 54 3d 64 03 17 3d
       0.07142524 -0.0023615211 0.051905427 0.036868468
0000b0 34 9c 89 bc 8a e2 e5 3d c0 e5 0c bd 55 ce 4a bd
       -0.016798116 0.112248495 -0.034398794 -0.04951318
0000c0 3d 9c 39 bd b9 27 1f bd c0 39 d1 ba e1 64 ba 3a
       -0.045315016 -0.03885624 -0.0015962645 0.0014220738
0000d0 a1 8e a3 3d f6 41 0e bd aa 07 40 bd 17 75 9c bd
       0.07986189 -0.034730874 -0.04688231 -0.076395206
0000e0 0c df 6c bd 56 60 99 bc 53 7c a2 bb e9 0e 96 3c
       -0.0578299 -0.018722694 -0.0049586683 0.018317657
0000f0 bf 7b 52 3d 4d e9 0f bb 22 89 62 bd c1 66 a6 bd
       0.051387545 -0.0021959126 -0.05530656 -0.081250675
000100 17 8d aa bd fc 3f 79 3d 64 05 57 bd 02 dd a4 bd
       -0.08327692 0.060852036 -0.052495375 -0.080499664
000110 8b 3a 87 bd f9 b8 1f bd bb 97 39 bd a5 8b e7 bc
       -0.06602963 -0.038994763 -0.045310717 -0.02826483
000120 6a 99 a9 3d ff 56 25 3d 76 84 70 3d 4c 40 98 bd
       0.082812145 0.04036617 0.058720075 -0.07434139
000130 c6 f8 07 3d 49 ca 90 3d 50 e6 a3 bc 13 ce 95 bd
       0.033196233 0.07069833 -0.020007282 -0.07314696
000140 cf 9d f3 bc 4b 9e db bc 0a 90 9c bd 08 ad 37 3c
       -0.029738335 -0.026808878 -0.07644661 0.011210687
000150 cc 0f ae 3d f4 ad 7f ba 4f 90 f9 3c 01 ff a5 bd
       0.08499107 -0.0009753399 0.03046432 -0.08105279
000160 45 5b 1f 3c 60 60 b3 bd 39 99 0e 3d fa dd 23 3d
       0.00972635 -0.087586164 0.034814093 0.040006615
000170 5e 4a 17 3d d4 68 2b bd f7 de 17 bb 75 d2 37 3c
       0.036936156 -0.04184802 -0.002317367 0.01121961
000180 e4 70 88 3d 73 b1 9c bd e0 75 a0 3b fa 9b 38 bd
       0.06662157 -0.07651033 0.0048968643 -0.045070626
000190 14 3a 6e bd 0a 6d 8e 3d 80 02 49 bc 6c be 39 bd
       -0.058160856 0.06954391 -0.012268662 -0.045347616
0001a0 e8 39 3d 3d 30 63 cc bc 14 61 1b 3d b4 76 21 3d
       0.0461978 -0.02494964 0.037934378 0.039419845
0001b0 75 94 bc 3d f4 24 7e bc 43 41 60 3c e7 f7 1c bd
       0.092080034 -0.01551174 0.013687435 -0.038322356
0001c0 64 b7 88 3d ea 50 bc 3d ed 97 85 bd 59 b8 e4 bc
       0.06675604 0.09195121 -0.06523118 -0.027919935
0001d0 19 bc 3d 3d bb a4 4f bd 61 1e 15 bd 48 78 b4 bd
       0.046321962 -0.05069421 -0.036405925 -0.08812004
0001e0 93 65 00 3d 56 ec bb bc 00 e9 2e 3d 6f a1 1c 3d
       0.03134687 -0.022939842 0.042702675 0.038239893
0001f0 0e da 23 bc b6 19 a9 bd fc 0c d5 bc 26 7a 20 bd
       -0.010000719 -0.08256857 -0.026007168 -0.03917899

fc2.weight f4 [128, 128]
000000 af 5f c1 bc c0 82 3f bd e0 39 5f 3b c0 cf 9e 3c
       -0.023605196 -0.046755552 0.0034061596 0.019386172
000010 7c 24 13 bf f3 05 21 bd 5a fd bb 3b 70 f2 ab 3c
       -0.57477546 -0.039312314 0.005736989 0.020989627
000020 a6 81 99 bd c3 b0 f6 3c 1e 23 6c 3d 50 fe f8 3c
       -0.074954316 0.030113583 0.057650678 0.030394703
000030 00 20 b4 3b 06 7a 34 bd 2c 2b 32 3b 61 d9 5a 3d
       0.0054969788 -0.044061683 0.0027186377 0.053429965
000040 d3 78 9f 3d 3d cd b4 bc 7d e0 20 bb b8 f9 1d 3c
       0.07786717 -0.022070521 -0.0024547868 0.009642057
000050 ae 74 1e bd 9c 85 3b bd cc fe 73 3b b8 53 c8 3e
       -0.038685493 -0.045781717 0.0037230728 0.39126372
000060 4b 58 88 bd 56 63 1d be 64 2f 92 3c 23 89 20 3d
       -0.066574655 -0.15369925 0.017844863 0.039193284
000070 65 6a 2e bd 8b e2 1f bd f2 4c 33 be 8c 8d 8d 3c
       -0.042581934 -0.039034408 -0.17509821 0.017279409
000080 2b 9c 27 bd 46 36 5d 3d 4d 0f b6 3c 7f d3 27 bd
       -0.040920418 0.054006837 0.022224093 -0.040973183
000090 32 23 5a 3d 7f cb a3 3d 72 29 4b 3d be af 60 3d
       0.05325622 0.07997798 0.049600072 0.0548551
0000a0 25 28 a5 bc eb dc 8e bd 30 08 d1 bc 46 0b 84 bd
       -0.020160744 -0.069757305 -0.0255166 -0.06447463
0000b0 79 34 af 3d 88 0a 68 3d 11 9b 98 3d a6 f7 77 bd
       0.0855493 0.05665067 0.074514516 -0.06053891
0000c0 05 ae 1c 3d 10 e7 9b bb 57 ab 63 bd c5 4c 89 bd
       0.038251895 -0.0047577694 -0.055583324 -0.06704096
0000d0 14 c0 2b 3d bd 3a 21 bd 27 eb 41 bd ca d1 b0 bd
       0.041931227 -0.039362658 -0.0473434 -0.08633764
0000e0 cc 63 74 bd 99 ac 21 bd 1e f8 82 3d 8e 5f 8d 3d
       -0.059665486 -0.039471243 0.06394981 0.06902991
0000f0 6a 69 26 3d 08 54 c9 bc d2 f7 e0 bd 61 ae d6 3d
       0.040627874 -0.024576202 -0.10984768 0.10482479
000100 1c 82 3e 3d 5b 33 04 bd 38 09 a2 bb ef 2c 96 bd
       0.0465108 -0.03227554 -0.0049449466 -0.07332789
000110 8c ad a4 bd da df 90 bd c7 ee a9 3d f9 9b 1a 3e
       -0.08040914 -0.07073946 0.08297496 0.15098561
000120 7c 4f 2a 3d 39 6d 7f 3d 07 b5 64 ba f6 82 37 3d
       0.04157971 0.062360022 -0.0008724485 0.04480263
000130 5e 1d 1b 3d 6d 74 a6 3d 54 c6 94 bd f3 c6 72 bd
       0.037869804 0.08127675 -0.072643906 -0.059271764
000140 85 d6 69 3d a3 3a f0 bc 28 e9 84 3d 68 2d 2d bd
       0.057089347 -0.029324835 0.064897835 -0.04227963
000150 92 3a a7 bd 71 8e f7 bd f8 34 2f bd cb 18 41 be
       -0.08165468 -0.120877154 -0.042775124 -0.18857114
000160 4e 67 dc bd a0 f4 b0 3c cc 34 8e 3e 80 aa 94 bc
       -0.10761891 0.021601021 0.27774656 -0.018147707
000170 64 c3 a7 bc 22 96 03 3d cf 0c 8a 3e a0 30 e1 bb
       -0.020478912 0.0321256 0.26962897 -0.0068722516
000180 ea ef 0c be 7f 02 20 3d d6 a7 36 3d 17 59 8d bd
       -0.13763395 0.03906488 0.044593655 -0.06901758
000190 b0 68 91 3d 1f 0e 04 bd 06 0f c3 bd 68 05 12 3d
       0.07100046 -0.03224003 -0.0952435 0.035649687
0001a0 71 1f 6a 3c be 24 b3 bc 23 d2 9d 3d 80 64 a6 bd
       0.014289723 -0.021868106 0.07706096 -0.081246376
0001b0 f6 2e b7 3c 5f 53 87 bd 55 18 82 bd 3c 09 00 3d
       0.02236126 -0.06607699 -0.06352297 0.031258807
0001c0 93 26 7a 3c 4b f6 63 bd 26 2a 2b 3d 20 4b 8b 3d
       0.015267986 -0.055654805 0.041788243 0.06801438
0001d0 c5 62 ed 3c 40 ff d5 3c 9e f8 d6 bc 06 20 90 3d
       0.028977761 0.02612269 -0.026241597 0.07037358
0001e0 13 e1 14 bd 16 dc 9e 3b 05 0b bb bd 28 34 7e bd
       -0.03634746 0.0048480136 -0.09132961 -0.06206146
0001f0 85 60 59 bd 8a 04 6a bd 3e 9b 58 bd 0c 4d 9e 3c
       -0.053070564 -0.057133235 -0.052882425 0.019323848
000200 59 b7 49 3d 4e a5 14 bd 87 32 2e bd 9a 5e e3 bc
       0.04924712 -0.03629046 -0.042528655 -0.02775507
000210 80 a9 05 bd 66 6f b9 3d a4 07 e0 3c 9b f6 24 bd
       -0.03263235 0.09054451 0.027347393 -0.040274244
000220 fc 59 92 bc fb 8f 3c 3d 6a 43 72 3d cb 8e 8f bd
       -0.017865174 0.046035748 0.059146322 -0.070096575
000230 a8 84 a0 bd 38 50 6f 3c 21 4c 4d bd 6e f8 71 bd
       -0.07837802 0.014606528 -0.05012143 -0.05907481
000240 d5 e2 1d 3d df 7c 21 3d e9 35 56 bd f6 38 f3 3a
       0.038546402 0.039425727 -0.052297506 0.0018556404
000250 6b 07 46 3c 55 e0 9c 3d ba 57 31 3d 81 a2 29 bc
       0.0120867295 0.076599754 0.043296553 -0.010353685
000260 59 43 a0 bd 63 96 24 bd 64 bc b5 bc 14 a4 19 bd
       -0.078253455 -0.040182482 -0.022184558 -0.037509993
000270 87 02 60 bd 03 2d 71 3c 3f c5 4b 3d 48 12 a1 bd
       -0.05468991 0.014720204 0.049748655 -0.07864815
000280 e9 70 0c bd 81 a9 4e 3d 33 1d fc 3c 06 6e 90 3d
       -0.034287367 0.05045462 0.030775642 0.07052235
000290 d3 5b 85 bd 70 44 9c bc 7a f9 21 3d d6 0d c8 3d
       -0.06511655 -0.019075602 0.03954456 0.09768264
0002a0 dd 91 85 bd 19 40 00 bc fa 16 29 3c fb 9f 6e 3d
       -0.06521962 -0.007827782 0.010320419 0.058258038
0002b0 80 8a 09 ba 5a d5 8a 3c 09 02 27 3c 3f 3c a7 3d
       -0.00052467734 0.016947437 0.010193356 0.08165788
0002c0 39 80 ec 3b df e0 3d bd b4 f7 04 3d bf 4a 11 bc
       0.007217434 -0.046357032 0.03246279 -0.0088679185
0002d0 e3 7e 8b 3d ca 1c 03 bd 6a ba a1 bd 50 06 e5 bb
       0.06811311 -0.032009877 -0.07896884 -0.006989278
0002e0 d2 6e a6 3a 1a 62 ad 3d db a9 22 bd b8 72 4e 3c
       0.0012697822 0.08465977 -0.039712768 0.012600593
0002f0 f7 1c 87 bd 97 5b ef 3c 52 e9 78 3d 80 75 a0 3d
       -0.065973215 0.029218478 0.060769387 0.07834911
000300 a1 f1 23 bd 5c 8a e5 bc 6f 9d 0e 3d 6f 76 38 bd
       -0.040025357 -0.028020076 0.03481811 -0.045034822
000310 12 b9 f5 3b 28 82 bc 3c 56 1f 53 3d 9c 63 08 3d
       0.0074988687 0.023011282 0.051543556 0.03329812
000320 89 5d ba 3d eb 52 2b 3d d1 14 7e 3d 82 00 ff 3a
       0.09099872 0.041827124 0.06203157 0.0019455107
000330 9e 41 20 3d e0 c0 6c 3d 69 f8 0e 3d 62 92 7b bd
       0.039125077 0.057801127 0.03490487 -0.0614189
000340 4b 12 04 3d a0 3c cc 3d 3c 83 0b 3c 8e e4 5e 3c
       0.032244008 0.09972501 0.008515175 0.013604296
000350 4c 4b 3f bb 68 d0 c2 3d 3c 8a ba 3d 15 2d 50 bd
       -0.0029189168 0.095124066 0.09108397 -0.050824244
000360 14 66 24 3d 21 a1 bd 3d 91 1e 89 bd 6c 58 81 3c
       0.04013641 0.092592485 -0.06695283 0.015789233
000370 ef 27 ae 3d 5f fd 85 bd 75 d0 b3 3c 73 1a 9c bc
       0.085037105 -0.06542467 0.021949986 -0.01905558
000380 17 b7 1b bd c4 cd ce 3c a7 f6 9e bd 65 c4 96 bd
       -0.038016405 0.025244601 -0.07761889 -0.07361678
000390 2e 82 3f 3d a1 36 2f bd 63 52 1e bc 0b fd 8b bd
       0.04675501 -0.042776708 -0.009663197 -0.068353735
0003a0 20 92 39 3d 10 ae 7b 3c 50 e3 81 3c c6 cd 22 3d
       0.04530537 0.015361324 0.015855461 0.039747022
0003b0 8e 3a 7c bd d1 04 2b 3d 90 df 5d 3d 4d d1 b2 3b
       -0.06157928 0.04175264 0.054168284 0.0054570795
0003c0 58 b6 92 3d 39 63 25 bd 49 8e 44 3d df d1 92 3d
       0.071636856 -0.04037783 0.047987256 0.07168936
0003d0 f2 6d 45 bd c8 e2 a8 bc 4e 7e 33 bd 39 f9 c7 bb
       -0.048200555 -0.02061595 -0.043821625 -0.0061027077
0003e0 44 61 ff 3b cf 61 0b bd 64 b7 3a bd c3 81 81 3b
       0.0077935774 -0.034028824 -0.04558505 0.0039522364
0003f0 f3 cf 58 3d b0 8c 5e 3d ee 3e 89 bc 09 a9 c0 3d
       0.05293269 0.05433339 -0.01675364 0.09407241

fc2.bias f4 [128]
000000 49 60 4f 3d 5d 35 bc 3d 00 84 b8 bc b4 6f ad bd
       0.050628934 0.09189866 -0.02252388 -0.08468571
000010 9f ab 94 bd 70 83 94 bd bd c0 6e 3d 50 c8 1a 3d
       -0.072592966 -0.07251632 0.05828928 0.03778869
000020 79 04 8f 3c 5e 76 70 bd 0a e3 7e bd d4 29 5a 3d
       0.017458187 -0.058706634 -0.06222824 0.053262547
000030 45 35 dc 3a eb ca 8a bd 36 d9 3d bd 3b 0e eb 3c
       0.0016800544 -0.06776985 -0.046349727 0.028693309
000040 37 2c 05 3d 4f 4a ad bd d7 02 aa bd 4d 3a 7a 3d
       0.03251287 -0.08461439 -0.08301323 0.061090756
000050 32 a8 39 bb 5c 16 23 3d 3f 22 43 3d 1e d5 98 3d
       -0.0028329012 0.039816245 0.04764008 0.07462524
000060 d3 a7 ff bc 11 81 98 3d d2 39 b0 3d 5f 3c 27 bc
       -0.031207955 0.074464925 0.08604778 -0.010207265
000070 c4 5d 44 bd c1 0b 6f 3d e1 7c 0a bd 0a 34 08 3d
       -0.047940984 0.05836082 -0.0338105 0.033252753
000080 06 90 91 3d a6 fe 97 bc 66 29 82 bd 68 53 84 bc
       0.071075484 -0.018554043 -0.063555524 -0.016153052
000090 7e 1c a0 bd 8a 70 98 3d aa 95 bb bd 0c 47 20 3d
       -0.078179345 0.0744334 -0.091594055 0.039130256
0000a0 4d a9 8c bd a9 84 de b9 9f e3 c4 bd c8 4b e3 bc
       -0.06868229 -0.0004244198 -0.09613728 -0.027746096
0000b0 da d8 d5 3c e3 f6 5d bc 5f 73 0e 3d e3 45 a0 3c
       0.02610438 -0.013547632 0.034777995 0.019564575
0000c0 2f da e6 bc 05 92 82 bd f2 d8 13 bd f0 32 a0 3c
       -0.02818021 -0.06375507 -0.036095567 0.019555539
0000d0 c4 36 49 3b 4d fe ce bc 13 8e 78 bd ba de ae 3d
       0.003070281 -0.025267744 -0.060682368 0.085385755
0000e0 dd b8 89 bd 97 67 a9 3d 41 aa b0 bd 92 d3 d1 3c
       -0.06724713 0.08271711 -0.08626223 0.02561358
0000f0 69 3e 8b bc 1b 28 4e bd 58 7c 92 3d 5f dc 6e bd
       -0.016997533 -0.050331216 0.07152623 -0.05831563
000100 0e 54 f7 3c 9b ba 4a 3d 79 44 78 3d 3b c1 2e bd
       0.030191448 0.049494367 0.060612176 -0.042664748
000110 41 ad bd bd d3 8b 76 3c 7e 5e 54 3d 53 63 a6 bb
       -0.09261561 0.015047985 0.051847927 -0.0050777583
000120 b8 31 b1 3d 25 92 39 bd 90 8c 82 bc 64 10 c2 bc
       0.08652061 -0.04530539 -0.015936166 -0.023689456
000130 f6 be ac 3c 9e 4d 56 bd 1d a6 a8 3d 09 e8 f8 bc
       0.021087151 -0.052320115 0.082348086 -0.03038408
000140 8c 89 81 3c 98 61 94 3c 9f 1a 8e bd 3e 82 b8 3d
       0.015812658 0.018112943 -0.06938671 0.09009217
000150 46 75 11 3e 4a 0d 99 3d e7 59 f4 bc 0a e7 c4 3d
       0.14204893 0.07473238 -0.029828025 0.0961438
000160 89 f2 8d 3d 1e 3b b2 bd ca 64 72 3c 88 df 5d bd
       0.069310255 -0.08702682 0.014794538 -0.054168254
000170 b5 61 70 3d a8 79 6e 3c e3 71 b6 bb ac 65 35 bd
       0.05868693 0.014555372 -0.0055677756 -0.044286415
000180 2d 52 6f bc 90 5e 03 bd 8e 40 37 3d d7 40 dc bc
       -0.014606995 -0.032072604 0.0447393 -0.026886387
000190 64 0a 69 3d 07 0f 30 bd 3b bd 94 bd 5d a6 29 bc
       0.056894675 -0.04298308 -0.07262655 -0.0103546055
0001a0 80 42 6a bc 3d e3 4e bd e8 d7 5a bc c6 1d 01 bd
       -0.014298081 -0.05050968 -0.01335714 -0.031522535
0001b0 b0 9e ab bc 5d 66 c9 bc a8 14 3d bb 5e b6 24 bd
       -0.020949692 -0.024584943 -0.0028851423 -0.04021298
0001c0 de c6 2e 3d 5d d1 72 bd 38 07 42 bc af 7a 8e 3b
       0.042670123 -0.059281696 -0.011842541 0.004348121
0001d0 0d f4 6c bd aa 34 aa bd e8 f4 77 bb 0a 95 23 bd
       -0.057849932 -0.08310826 -0.0037835184 -0.039937057
0001e0 0a fc 76 bd 62 b4 c1 3c 35 9c c0 3c ad 95 2e 3d
       -0.060298957 0.023645584 0.023511985 0.04262321
0001f0 6c 58 57 3d 4c c6 16 3d 2f 8a 56 3d 53 b5 33 3d
       0.05257456 0.036810204 0.052377876 0.043874096

fc3.weight f4 [64, 128]
000000 42 53 8b 3c c4 13 ad 3c cd c1 00 3d 2a 63 68 3c
       0.017007474 0.021127589 0.031434823 0.014183799
000010 1a 03 d6 3d f5 70 80 bd 2d cd 3c bd bb a2 b8 3d
       0.1044981 -0.06271545 -0.04609411 0.090154134
000020 2f 51 a3 3d 82 67 09 bc 10 7d 50 3d bf 8f b3 3c
       0.07974469 -0.008386495 0.05090052 0.02191913
000030 3e 7e 05 be b2 b1 75 bd ad 94 ea 3c 1b 91 0a bd
       -0.13036439 -0.059983917 0.028635347 -0.03382979
000040 86 9c e2 bc 94 b4 57 be bb d3 e5 ba fa e1 f0 3c
       -0.027662527 -0.21064979 -0.0017534414 0.029404629
000050 ba c2 78 3d 8d 37 95 3d 75 a8 76 bd e6 48 56 3d
       0.06073258 0.07285986 -0.060219247 0.052315615
000060 f3 93 9d bd 5b 35 40 bd b4 97 22 3d 62 5c b3 3d
       -0.07694235 -0.046925884 0.039695457 0.08757855
000070 03 55 5a 3d 6d 9e 57 bd 3d 81 08 bd 1d 74 b7 3d
       0.05330373 -0.05264132 -0.033326376 0.08957694
000080 23 c6 3b 3d 82 c5 19 3d 74 81 51 3d 23 a5 bf 3d
       0.045843255 0.037541874 0.051148847 0.09357669
000090 ec f9 79 bc 49 60 c8 3d 36 d9 86 bd 76 f0 ba 3b
       -0.01525734 0.0978399 -0.065843984 0.0057049347
0000a0 78 83 61 3d 7b 42 ca 3d da c8 5f bd a8 74 81 bd
       0.05505702 0.098759614 -0.054634906 -0.063210785
0000b0 2d e7 d3 bc 9a e1 2f 3d 5d 3f e6 bc 26 df 1b bd
       -0.02586707 0.04293976 -0.028106386 -0.038054608
0000c0 5f 87 73 3c 0c 51 d4 3d 2f 93 cd 3d 3d 88 fc 3d
       0.014863818 0.10367021 0.10037839 0.12330673
0000d0 92 99 cd 3d 9b 23 15 3d 0f 02 35 bc e3 04 0f 3d
       0.10039057 0.03641091 -0.011047854 0.03491677
0000e0 88 bd 79 bd a5 68 44 bd 9d 4a 8e bd 85 a9 10 bd
       -0.060971767 -0.04795136 -0.06947825 -0.035317916
0000f0 41 72 f4 bc a1 7a 88 3c 00 6b 44 3d 35 4d a5 bc
       -0.029839637 0.016660037 0.047953606 -0.020178417
000100 34 b0 06 bd e3 c6 cf 3d 13 89 d9 bc c3 11 76 bc
       -0.032882884 0.101453565 -0.02655462 -0.015018883
000110 2e 29 4f 3c bf 93 53 3d f2 5a 36 3d 9b 13 20 3d
       0.012644095 0.051654574 0.044520326 0.039081197
000120 ed 28 85 3c 96 f8 5c bc 89 d5 91 bd 1f 29 93 bd
       0.016254866 -0.013487002 -0.07120807 -0.071855776
000130 cd 57 c3 3d 7c d3 47 3d bd b0 c2 3d 9e c3 43 bd
       0.09538231 0.04878567 0.095063664 -0.047793977
000140 0a c1 37 bd 16 dd 8f 3d 06 5c 90 3b 18 58 21 bd
       -0.04486183 0.07024591 0.0044055013 -0.039390653
000150 33 dc ab 3b fd 9f fe 3c ac 12 47 bc 73 2c 1b 3c
       0.0052447557 0.031082148 -0.012150448 0.009471047
000160 7c 45 83 bd 04 1e 60 bc 82 e1 9d bd d4 31 63 3d
       -0.064097375 -0.013679031 -0.07709028 0.05546744
000170 93 2b 58 bc 8d df 74 3d 5b 6d 2f ba c7 73 b7 3d
       -0.013193983 0.059783507 -0.00066920154 0.0895763
000180 f6 e5 a9 3d 9e 6b 33 ba 46 24 52 bd 8d 61 7c bd
       0.08295815 -0.00068443443 -0.051304124 -0.06161647
000190 e7 b5 5a bd 76 c4 5d bd 16 44 21 3d b5 62 4d 3d
       -0.05339613 -0.054142438 0.039371572 0.050142962
0001a0 ce 54 bd 3d ee ec 0d bc 02 fe 95 bb 1c 5e 21 bd
       0.09244691 -0.0086624455 -0.004577399 -0.03939639
0001b0 66 ba c8 bc ce 62 75 bb 54 03 84 3d b4 8b 8d 3d
       -0.024502944 -0.0037442925 0.06445947 0.06911412
0001c0 c4 0f ee 3c 9a f4 54 bc 7f 0b 24 bc 7a db 98 3b
       0.029060252 -0.012997771 -0.0100125065 0.0046648355
0001d0 e0 01 4c 3d f4 b0 9c bc 44 df 8b 3a e8 15 54 bd
       0.049806476 -0.019127347 0.0010671397 -0.051778704
0001e0 34 f2 7d 3d ec 20 a7 3c 94 c6 79 bc 0b cd ad 3d
       0.06199856 0.02040144 -0.015245099 0.084863745
0001f0 0d bb 0c 3c d4 44 21 bd e4 12 6d 3d f8 e2 11 3d
       0.008589518 -0.03937228 0.057879344 0.035616845
000200 5a 8d 9c 3d d5 b9 41 bb b4 c7 71 3d 6b 32 23 bd
       0.07644148 -0.0029560227 0.059028342 -0.039843004
000210 fd c8 31 bc ea 77 37 bd dd 7d 93 bd 66 86 05 3c
       -0.010851142 -0.044792093 -0.07201741 0.008149719
000220 30 11 1b 3c 88 83 99 bb 3a b8 bf bd 37 46 9b 3d
       0.009464547 -0.004684869 -0.0936131 0.07581752
000230 a1 25 49 3d 72 87 4a 3d a5 9f 92 bd dc 94 4a 3d
       0.04910815 0.049445577 -0.07159356 0.04945837
000240 d1 ff 45 3d 4b e4 b4 3c fa 38 9b 3c 0d d2 92 bd
       0.04833967 0.022081515 0.018948067 -0.0716897
000250 15 cf e8 b8 f1 6c 6c 3d 1b e5 9c 3d d0 05 78 3d
       -0.00011101194 0.057721082 0.07660886 0.06055242
000260 08 3f 9b bc 30 4a 91 3d 61 f2 75 3d f4 76 9d 3d
       -0.018950954 0.07094228 0.060045604 0.07688704
000270 eb 4b 47 bd 29 e9 f3 bc 9e ce b4 3c 98 b0 6b bd
       -0.048656385 -0.029774265 0.022071179 -0.05754146
000280 7a d5 a0 3d 76 dd 3f ba ff a4 93 bd f9 72 c5 bd
       0.078532174 -0.0007319072 -0.07209205 -0.0964107
000290 46 06 8d 3d ac 03 a6 3b a5 91 db 3c a1 b2 3e bc
       0.06885962 0.0050663557 0.026802847 -0.011639268
0002a0 ff 1d 8d bd 2b e4 ac bd a2 4e 34 bd b4 25 af bd
       -0.06890487 -0.08441957 -0.044020303 -0.08552113
0002b0 51 0f 2e bd de 96 b1 bd 66 b1 c1 bd e6 97 09 3c
       -0.042495076 -0.08671354 -0.09457664 0.008398032
0002c0 9d 2c 49 bc 62 56 a3 bd e1 5c 35 3d 8c f6 33 bd
       -0.012278703 -0.079754606 0.04427803 -0.043936297
0002d0 f2 74 45 3d 0e e6 dc 3c 91 f0 d7 3c 2e a5 4f bd
       0.04820723 0.026965167 0.026359828 -0.050694637
0002e0 b5 4c 29 3d f3 23 61 3c 6b 20 94 3d 47 46 3d bd
       0.04133292 0.013741481 0.07232746 -0.0462096
0002f0 c1 c8 1f bd b7 44 c0 bd 12 89 8a 3b b2 2b 33 3b
       -0.039009813 -0.09388106 0.004227766 0.0027339277
000300 de 7c c9 3c 3b 64 c0 3c 92 f1 85 3d c9 bc 2e bc
       0.024595674 0.023485294 0.065402165 -0.010665127
000310 8c e8 2f bd c7 41 30 bc ef ec 20 3d 63 3d ec 3c
       -0.042946383 -0.01075787 0.039288457 0.028837865
000320 6d 5e 1f 3d 2a c1 c0 bd 0c 35 91 bd 5a 48 b3 bd
       0.03890841 -0.09411843 -0.07090196 -0.08754034
000330 76 eb 45 bd 85 7c d9 3b 0e 4d 42 3d 9b 0d dc 3c
       -0.048320256 0.0066371583 0.047436766 0.026861956
000340 e0 39 59 bd 17 43 02 3d d5 9b 00 bd f4 00 76 3c
       -0.05303371 0.031802263 -0.031398613 0.015014876
000350 79 a9 3a 3d e6 5d 8b bb 72 f6 1c 3d bc e3 80 bb
       0.045571778 -0.004253137 0.038320966 -0.003933398
000360 4b 84 58 3d 76 30 af 3d 3e 15 ee bc 18 5f 91 3d
       0.05286054 0.08554165 -0.029062863 0.07098216
000370 12 3b 3e 3d 9c f6 76 3d 32 b0 66 3d ee e1 f9 bc
       0.046443053 0.06029378 0.056320377 -0.03050324
000380 48 93 48 bd cb c2 1c 3c 36 34 7d bd 41 90 b6 bb
       -0.048968583 0.009567927 -0.06181737 -0.0055713956
000390 0a 5f a9 3b 73 76 22 3d 13 20 07 3d 40 5c ae bd
       0.0051688002 0.039663743 0.032989573 -0.08513689
0003a0 0d 8a 22 bd 1a a0 ea bc 74 0c 23 bd 3d d9 72 bd
       -0.039682437 -0.028640795 -0.039806798 -0.059289206
0003b0 83 ae 4f 3d 5d 0d 1a 3d 0d 45 33 bd a0 32 74 3d
       0.050703537 0.0376104 -0.043767024 0.059618592
0003c0 ba 61 35 bd d9 e2 a1 3d 85 cc 9f bd e0 df 9a 3d
       -0.044282652 0.07904596 -0.07802681 0.07562232
0003d0 5c 11 20 3b 69 16 3a 3d dd 6d e4 bc 55 8e e9 3c
       0.002442441 0.04543153 -0.027884418 0.028510252
0003e0 e2 08 28 3d 88 30 d0 3b 6e 59 15 bd d9 02 e8 3a
       0.041024096 0.0063534416 -0.03646224 0.0017701044
0003f0 15 1d 15 3b b1 4d ee bc 21 ef 0e bc 69 d6 45 3d
       0.002275293 -0.02908978 -0.008724005 0.04830018

fc3.bias f4 [64]
000000 52 e5 5d 3d 23 0d 7e bd 02 d4 f9 bc 56 75 8c bd
       0.054173775 -0.062024247 -0.030496601 -0.068583176
000010 a9 ba e6 bc 3e 2d 0b bd f0 ce cf bc fb 9c 4a 3d
       -0.028165178 -0.033978693 -0.02536723 0.049466114
000020 36 f8 47 bd 13 98 e8 bc 78 d1 dc 3c 2f 2c d0 3d
       -0.048820697 -0.028392827 0.026955351 0.10164677
000030 41 89 28 bd 84 36 42 3d 9c f2 29 bd 69 0c b0 3c
       -0.04114652 0.04741527 -0.041491136 0.021490293
000040 9b 30 2e 3d 95 6f e8 ba 12 6e 99 bd ea 60 93 bd
       0.042526823 -0.0017733449 -0.07491697 -0.07196219
000050 e8 6f 16 bd 86 dc cd 3b 8d a6 19 3d e2 13 0d 3d
       -0.036727816 0.006282392 0.03751235 0.03444279
000060 9c f8 cb bc 53 8f 56 bd 0c d3 32 3d e4 fb 27 3d
       -0.02489882 -0.05238278 0.0436583 0.041011706
000070 a8 d8 ab bc f0 16 96 bc 2c 27 b2 bd 0c 2a 01 3c
       -0.020977333 -0.018321484 -0.08698878 0.00788356
000080 28 da e2 3c c5 da ef bc 6b 60 48 3d 5b 75 b8 bd
       0.027691916 -0.029279122 0.048920076 -0.09006759
000090 db f3 9b bd 80 db 69 bc a6 57 45 3d 73 f4 a9 bd
       -0.07614871 -0.014273524 0.04817929 -0.08298578
0000a0 aa d3 33 3d 24 ef 91 bc 5a 8d 68 bd fb 7a 2e bd
       0.04390303 -0.017814226 -0.05677543 -0.042597752
0000b0 4a 9b 35 bd 99 1f 24 bd 4e 37 da bc 77 d0 98 ba
       -0.04433755 -0.040069196 -0.0266377 -0.0011658807
0000c0 b0 35 a9 bb 4b 0e ca bc 84 17 c0 bd 61 4b 21 bd
       -0.0051638708 -0.024665019 -0.09379485 -0.039378528
0000d0 79 d5 13 bd c0 10 bc 3a 9e 73 b1 bc 8e ab 8d bd
       -0.036092255 0.0014348254 -0.021661576 -0.06917487
0000e0 60 ef 25 3d 70 74 7d bc e9 26 31 bd d4 7d 6a bd
       0.04051149 -0.015469655 -0.04325 -0.057248905
0000f0 c2 d7 ad bd 0b fb 29 3e 4e ac 64 3d 1b 9c 50 bd
       -0.08488418 0.16599672 0.055828385 -0.050930124

fc4.weight f4 [64, 64]
000000 a3 3d 58 3d fd 0a bb 3d 28 ea dc bd d7 cb f1 bd
       0.052793156 0.09132955 -0.10786849 -0.118064575
000010 7f 4a 06 3e d9 c0 94 be dd 3e c3 3d ba bc 70 3d
       0.13114356 -0.2905338 0.095334746 0.058773734
000020 90 6d c7 bc 37 03 02 bd f0 79 c7 bd c3 45 8b 3d
       -0.024344236 -0.031741347 -0.097400546 0.06800415
000030 06 f5 d6 bd b8 34 98 bd e6 09 ab bd 8c 39 c3 3d
       -0.10495953 -0.0743193 -0.08351497 0.095324606
000040 98 b8 06 bc 3a 71 c3 3d 8c e2 61 3c d4 6b b8 3d
       -0.0082227215 0.09543081 0.013786923 0.090049416
000050 e2 f6 10 3e 0b 39 cb 3e c6 31 b0 3d 1a 30 fa bc
       0.14156678 0.39691958 0.086032435 -0.030540515
000060 dd 5f ff bd 2d 24 84 bb 22 64 f7 bd 30 e0 bf bd
       -0.12469456 -0.004032633 -0.12079646 -0.09368932
000070 e9 33 d3 bb 9c fa 0d 3e 2c c2 0e 3d ca 05 ee bd
       -0.006445397 0.13865131 0.034853145 -0.11622198
000080 8c ee d0 3d a2 0f 44 3c 67 9e d6 3d e3 b1 2f bd
       0.10201749 0.011966618 0.104794316 -0.042894255
000090 75 c6 75 bd 7a 7c a4 3d 4e 38 f3 3d 10 1b 45 3c
       -0.060003716 0.080315545 0.11875974 0.012030378
0000a0 ba 06 c0 bd fb 8c d7 3d 56 a8 89 3c 9a 8a a2 3c
       -0.09376283 0.10524937 0.016803902 0.019841481
0000b0 5a 4c fc 3c 2e 3c 2e 3d de 9a 8e bd 24 08 65 bc
       0.030798126 0.04253786 -0.06963132 -0.013978992
0000c0 3e 7b c7 3d b7 11 bb 3c f8 51 03 bc 5e dd bd bd
       0.097403035 0.022835596 -0.008015148 -0.09270738
0000d0 53 0a 54 bd 2e b5 8b bd 55 f0 b1 bd 62 73 b9 bd
       -0.05176766 -0.06821667 -0.08688418 -0.09055211
0000e0 c1 69 dd 3d 88 ac 97 3d cb 68 e3 bd 82 08 9f 3d
       0.108111866 0.074059546 -0.11103972 0.077652946
0000f0 24 28 36 3c 10 66 dc 3d 9e 2e da bd 01 6a 80 bd
       0.011117969 0.107616544 -0.10653423 -0.06270219
000100 c2 44 99 3d 75 7c e8 3d d5 a1 ec 3d ed 8f df bd
       0.07483818 0.11351863 0.115543045 -0.109161235
000110 1b 18 1a 3c 5b 78 ae 3d 88 7d 87 3c 6d d3 8e 3d
       0.009405161 0.0851905 0.01653935 0.0697392
000120 72 27 86 bd 14 ea a4 bd c6 70 b4 bd db 2c 1a be
       -0.06550492 -0.08052459 -0.08810572 -0.15056174
000130 ee 06 8a 3d 8c 23 37 3e 40 49 b2 bd 3c 8a b4 3d
       0.06739603 0.17884654 -0.087053776 0.088154286
000140 4c 95 6c 3b 25 69 a6 bd 29 4a 52 bd 5e b1 c1 ba
       0.003609973 -0.081255235 -0.051340256 -0.0014777591
000150 76 4b bf 3d 67 5e 2c bd c8 68 a8 3d 4b 83 8e 3d
       0.09340565 -0.042082217 0.082231104 0.06958636
000160 38 77 df bd 04 db 8a 3d ed 1f ff bd ba 37 5b bc
       -0.10911411 0.06780055 -0.12457261 -0.0133799855
000170 3d da ce 3d a1 b9 c4 bc 18 29 f0 3d 04 c3 ab bc
       0.101002194 -0.024014296 0.11726588 -0.020967014
000180 d0 7f dc 3c 54 14 a1 3d f3 e6 b7 bd 3a 35 8b 3d
       0.026916414 0.078652054 -0.08979597 0.067972615
000190 cc 36 6d 3d 5c 9f f5 bd 7c 6d 14 3d 60 da 3f bc
       0.057913586 -0.11993286 0.036237225 -0.0117097795
0001a0 5a e9 34 bd 69 a9 1a bc 50 ac ad bd 7c bb c8 3d
       -0.044167854 -0.009439805 -0.084801316 0.09801385
0001b0 09 2e e7 3c 50 14 4d 3c 38 b3 ab bc da 1e d7 3d
       0.028220193 0.01251705 -0.020959482 0.10503931
0001c0 bc a8 83 bd e7 85 e0 3d 3a a3 ad 3d 98 45 6b bd
       -0.06428668 0.1096304 0.084783986 -0.057439417
0001d0 36 21 a5 bc a2 c9 9a 3d b8 ec 69 bd fe 16 45 3b
       -0.020157438 0.0755799 -0.05711052 0.003007352
0001e0 76 61 f3 bd 70 7c a3 bd 05 7c cd 3c 2c d7 9c bd
       -0.118838236 -0.07982719 0.025083551 -0.07658228
0001f0 6a 97 83 3d e0 3d c1 3d a4 2e c0 bd 72 b2 e4 3b
       0.06425364 0.0943563 -0.09383896 0.00697928
000200 23 a9 0a 3e 00 62 a0 b9 9b d3 0a 3d ad 70 13 bd
       0.13541083 -0.00030590594 0.03389321 -0.035996128
000210 20 f9 e4 bd de 54 43 be 24 52 5e 3d 23 e5 9e 3d
       -0.11180329 -0.19075343 0.054277554 0.07758548
000220 84 9f 0a bd 98 2b 3e be 60 8c 15 bc 47 24 3d be
       -0.033843532 -0.18571317 -0.009127706 -0.1847087
000230 f6 c4 8f bd ca 28 0c bf 10 37 21 bd 94 5d d6 bd
       -0.07019989 -0.5474974 -0.039359152 -0.10467067
000240 34 8b c1 3c e6 55 d0 bd e5 87 81 bd 83 c8 bc bb
       0.023625948 -0.10172634 -0.06324748 -0.0057612075
000250 96 56 90 3d 35 8c 83 bd 20 e4 9f bb 5c 7a 2e 3d
       0.07047765 -0.06423227 -0.0048794895 0.04259716
000260 80 c6 a6 3d 57 20 fb bd 88 0e a1 bd a0 f7 b6 bd
       0.081433296 -0.12262028 -0.078641 -0.089339495
000270 b8 79 93 3c c4 5c a8 bd 90 10 d1 3d ae 60 80 be
       0.018002376 -0.08220819 0.10208237 -0.2507376
000280 90 44 d7 bc e4 61 cf be 03 1d 5e 3d c0 ff 81 bc
       -0.02627781 -0.40504372 0.054226886 -0.015869021
000290 00 f4 b3 3d 12 a7 83 bd 84 b4 86 bd 02 3b 80 3d
       0.08786774 -0.064283505 -0.065773994 0.06261255
0002a0 a4 24 87 3c 58 b0 d4 bd 49 61 b1 bd 4a 29 9a 3d
       0.016496964 -0.103851974 -0.08661134 0.075274065
0002b0 83 b0 7b bd f4 9d 10 3d 21 b1 00 3d 76 cf 0a 3e
       -0.06144763 0.035306886 0.031418923 0.13555703
0002c0 74 e4 46 bd 56 0b b9 be 80 f4 41 bc 44 3c d9 bd
       -0.048557714 -0.3614146 -0.0118380785 -0.10607198
0002d0 c8 9f c4 3d 80 f6 ff 3d 39 f2 bc 3d ee 46 fc bd
       0.09600788 0.12498188 0.09225888 -0.12318216
0002e0 e7 d9 4e be 88 b4 7e 3d 1e d5 d5 bd 4e 24 70 bd
       -0.2020031 0.062183887 -0.104410395 -0.058628373
0002f0 90 a6 04 3d 37 c0 fc 3d c0 d9 02 bd 90 86 25 bc
       0.03238541 0.123413496 -0.031945944 -0.010102883
000300 3d d8 ed bc 36 75 e5 3d 1f a5 e9 3c bf 03 ab bd
       -0.029033775 0.11203997 0.028521119 -0.08350324
000310 a1 eb 80 bd c6 95 c5 3d a5 94 92 3c 15 89 ba bd
       -0.06294943 0.09647708 0.017893145 -0.091081776
000320 3a d4 b4 3d 8a 62 72 3d f7 a6 46 3d 22 de b8 bc
       0.088295415 0.059176005 0.048499074 -0.022566859
000330 5a 85 8b 3d de 29 2f 3e c2 f7 da 3d 34 af 38 bd
       0.06812544 0.17105815 0.10691787 -0.04508896
000340 a8 76 f7 3c c9 f6 09 3e 4c da 02 3e 01 3d b1 3b
       0.030207947 0.13473047 0.12778586 0.0054088836
000350 25 f1 c8 3d f4 21 92 3d cf 92 9d 3d d9 20 ea 3d
       0.0981162 0.07135382 0.07694017 0.114320464
000360 f1 f6 b0 bb 85 62 c6 3d ed d1 e7 bd 78 dc be 3d
       -0.0054005315 0.0968676 -0.11319337 0.09319395
000370 c2 4d d4 3d 1f 5f 46 bd e8 5d bd 3d 8c a2 aa 3d
       0.103663936 -0.04843056 0.09246427 0.083317846
000380 72 8a 90 3d bb a5 15 bc 86 15 46 3d 91 f3 eb bd
       0.07057656 -0.0091337515 0.04836037 -0.11521066
000390 9a 95 dc bd c4 c6 5a bd 60 4b fe bc de 1b c5 3d
       -0.10770722 -0.053412214 -0.031041801 0.09624456
0003a0 cf 6a dc bd 45 ed ea bc 5c d5 ea bc c4 f4 55 3c
       -0.107625596 -0.028677592 -0.02866619 0.013058845
0003b0 07 7b 09 be cb 30 d0 bc 22 9b 95 bd 73 38 ce 3d
       -0.13425837 -0.025413891 -0.0730498 0.100693606
0003c0 b4 69 af bd b2 24 82 3d 79 f2 ef 3d b4 81 2f 3d
       -0.08565083 0.06354655 0.1171617 0.042848304
0003d0 37 c0 9b 3d 58 87 a3 bd 13 65 bd bc 99 e1 1f bd
       0.076050214 -0.07984799 -0.023119485 -0.039033506
0003e0 80 22 bb 3d 10 54 b7 bd 52 15 9d 3d 95 7d 38 bd
       0.0913744 -0.089515805 0.07670082 -0.04504164
0003f0 51 22 1e bd 00 2d 27 be e0 5a c9 3d f0 a1 9b bc
       -0.038606945 -0.1632576 0.09831786 -0.018998116

fc4.bias f4 [64]
000000 26 77 c2 3d 0f 59 a6 3c 47 68 b8 3c 95 72 76 3c
       0.09495382 0.020306138 0.02251066 0.015041967
000010 3c 1b e4 3d 8b 4a cc bd e2 45 9e bd 45 fd 42 bd
       0.11138007 -0.099751554 -0.07728173 -0.047604818
000020 a9 7d 70 3d ca 2c 48 bc 10 30 c1 3d ed 9c 34 3e
       0.05871359 -0.01221771 0.09432995 0.17637987
000030 61 ff d3 3c 88 3d 4f 3d 54 82 b1 3c 82 45 2b 3a
       0.02587861 0.05059579 0.02166859 0.000653349
000040 81 79 9a bd 00 79 fa bd 00 ac 7e bb df 35 42 3c
       -0.07542706 -0.1223011 -0.0038859844 0.011853664
000050 a4 79 13 bd c9 ad 4c 3a 2f 4d 43 3d bc fe 00 3e
       -0.036004677 0.00078078784 0.04768103 0.12597173
000060 f0 41 fb 3d 38 fb d2 3d 33 50 a0 bd c1 41 db bd
       0.12268436 0.103018224 -0.07827797 -0.10705901
000070 cb e4 b5 bd 20 c0 d5 3d 5f a2 c8 bc c3 7d eb bd
       -0.088815294 0.104370356 -0.024491487 -0.114985965
000080 2d 80 ab 3c 14 6f a6 3c 8f 3c 8f 3c 6c 44 8d 3d
       0.020935142 0.020316638 0.017484931 0.06897816
000090 4d 40 90 bd 44 1f 93 bc 2d ed c2 3d e6 1e 02 be
       -0.070435144 -0.017959245 0.09517894 -0.127071
0000a0 eb 3c 9c 3d d4 26 1c 3d d5 b9 c6 bb c3 a3 20 bd
       0.07628807 0.038122967 -0.0060646334 -0.039218675
0000b0 56 d0 49 bb 94 12 1f bd 9c e1 0a 3d f5 b6 6b 3d
       -0.0030794344 -0.038836077 0.033906564 0.05754753
0000c0 44 42 b5 3d fd 3c 3b bd c1 1b ec 3d 7e 7a cd bd
       0.0885053 -0.04571246 0.11528731 -0.10033129
0000d0 08 56 d1 bd 37 74 89 bd 7f 6e 1f bd f9 f8 3c bd
       -0.10221487 -0.06711619 -0.038923737 -0.046135876
0000e0 46 3b 95 bd 71 ae 46 3d 84 77 bf 3d ba bf c8 3d
       -0.07286696 0.048506204 0.09348968 0.09802194
0000f0 52 be c0 bd d8 72 35 bd 95 d8 ce bd 8d f1 1b bc
       -0.09411301 -0.044298977 -0.100999035 -0.009518039

fc5.weight f4 [32, 64]
000000 01 39 5a bc 29 23 f0 bd ed 88 11 3d d1 96 63 3d
       -0.013319255 -0.11725456 0.035530973 0.05556375
000010 f1 5e c9 3d 74 5d d7 38 95 c3 c4 bd cb ab 48 3c
       0.09832562 0.00010269406 -0.09607617 0.01224799
000020 a5 72 c8 3d f4 85 e0 3d c2 92 e9 3c be 39 63 3d
       0.09787492 0.109630495 0.028512362 0.05547499
000030 d8 44 5c 3d 51 c5 44 3d 78 c2 c2 bd 91 2f 23 3c
       0.053776592 0.048039738 -0.09509748 0.009960071
000040 c8 1a f6 bd 58 41 27 bb d9 d6 c6 3d 55 05 79 3d
       -0.12016827 -0.0025521126 0.09708948 0.0607961
000050 d2 5e 75 3c 8a 51 5a 3d ad ae 88 3d ad ea 5c bc
       0.01497622 0.053300418 0.06673942 -0.013483685
000060 2a 78 89 bd 24 b2 ea 3d ba 4f c5 bd b4 25 a5 3b
       -0.067123726 0.11459759 -0.09634347 0.005039895
000070 cb bf b1 bd 15 7b 5c 3d db 0c d8 3d 44 b8 3e bd
       -0.0867916 0.053828318 0.10549327 -0.04656245
000080 a1 5d 22 3c 54 6c d5 3c 21 74 b7 bd 14 ba 13 3e
       0.009910018 0.026052631 -0.08957697 0.14426452
000090 e6 76 e2 bd 77 59 df bd a2 99 26 3c 30 f1 1f 3d
       -0.11057834 -0.10905736 0.010168465 0.039048374
0000a0 b2 1e e0 3d 36 95 4a bd d8 6b 04 be 49 40 93 bc
       0.10943355 -0.049458705 -0.12931764 -0.01797499
0000b0 6b 05 02 3e 9d e6 c1 bc 3c f1 03 bc 26 9e c8 bc
       0.1269738 -0.023669535 -0.00805312 -0.024489474
0000c0 bd 47 af bc cb c1 80 3d 78 9b f7 3d 86 d7 34 bd
       -0.021396512 0.06286963 0.120902 -0.04415085
0000d0 d9 2c 9c bd 44 d8 cf 3d 80 f1 84 3c 29 91 ff 39
       -0.076257415 0.10148671 0.016228437 0.00048745543
0000e0 76 2f a9 3d 48 31 bb bc 61 36 af ba a5 ee 23 3d
       0.082610056 -0.022850648 -0.0013367647 0.04002251
0000f0 07 77 12 3c 9b 50 0b be c2 cb 0f 3c a8 2f c1 3d
       0.008939511 -0.13604967 0.008776607 0.09432918
000100 92 0e 30 bd c1 9c 73 bb cb fc 03 bd 91 c0 9c 3d
       -0.042982645 -0.003717229 -0.032223504 0.076539166
000110 43 fd 07 3d 91 23 c6 3d c8 60 d1 bd 4c b6 cc bd
       0.033200514 0.096747525 -0.10223538 -0.09995708
000120 5a 10 52 bd 46 b2 1f 3c fc 04 ab bd dc 12 81 3c
       -0.051285125 0.009747094 -0.0835056 0.015756063
000130 b7 a5 7b bd ff 1d 8f 3d d2 9c f4 3c c9 03 22 3e
       -0.061437335 0.06988143 0.029859934 0.15821756
000140 1e 85 19 bb 9f 2a 47 3c 87 02 16 3d da 8d 8f bd
       -0.0023425291 0.012156158 0.036623504 -0.07009478
000150 62 f9 8d bd de 4f 00 be 4a 34 a1 bd f8 68 a9 3b
       -0.069323316 -0.12530467 -0.078713015 0.005169984
000160 85 3c a3 bd a5 89 4c bd 0a f6 65 3d ac 5a 94 3d
       -0.079705276 -0.049935956 0.056142844 0.07243857
000170 31 a6 d8 3d 0a 31 d7 bd 11 3e 22 bc 52 c6 c6 bd
       0.105785735 -0.105074 -0.009902493 -0.09705795
000180 0d fe 4d bd 36 7e 73 bd fc 02 32 bd 55 ee 8f bc
       -0.05029111 -0.059446536 -0.043459877 -0.0175697
000190 5f fb f4 bd e4 40 d4 3d f3 7a 20 bd cb b4 10 3d
       -0.11962008 0.103639394 -0.039179754 0.035328668
0001a0 e9 61 1d bd 33 72 a0 3c 31 68 9d 3d 69 81 a0 3d
       -0.038423453 0.019585704 0.076858886 0.07837183
0001b0 9a da 6f 3a 05 7c a0 3d 3c 48 f0 3d dd 2b 90 3d
       0.00091497006 0.07836155 0.117325276 0.07039616
0001c0 34 9d ba bd df c4 34 3d 2c 34 8d 3c fb 9b c5 3c
       -0.09112015 0.044133063 0.017236792 0.024122229
0001d0 d9 35 e9 3c 39 74 ac 3d a5 f7 c2 3d f7 11 56 bc
       0.02846806 0.08420605 0.09519891 -0.013065807
0001e0 aa 55 c5 3d 12 b1 92 3c cb 8a 6e 3d 66 af 03 be
       0.0963548 0.0179067 0.058237832 -0.12859878
0001f0 d5 4d d4 bd 88 14 73 3d 29 c3 be 3d 9f 28 e0 3d
       -0.10366408 0.059345752 0.093145676 0.10945248
000200 69 c5 bf bd 99 c3 ae 3d 21 50 2b 3e d0 a9 d4 3d
       -0.09363825 0.08533401 0.16729786 0.10383952
000210 c1 39 50 bd 2d 18 10 3f 32 ee c7 bd 11 bd d3 3d
       -0.05083633 0.5628689 -0.09762229 0.10338796
000220 d2 05 ac bd 85 c0 88 3d 9e d9 7f bd 8d 6f 0d bd
       -0.08399548 0.06677345 -0.062463395 -0.03453021
000230 c6 57 eb 3c ba c7 d6 bc 29 a4 3d bd 67 f4 d5 3e
       0.028728377 -0.026218284 -0.046299133 0.41788027
000240 00 89 8a bd f2 54 a4 3d 10 44 e5 3d 27 1c 6e bd
       -0.06764412 0.080240145 0.111946225 -0.058132317
000250 d7 fb a4 3d fe 75 3f be 5c 65 24 bd f7 8b fd 3d
       0.08055847 -0.18697354 -0.040135726 0.12380212
000260 41 37 ac bd 0c 21 25 3d bb 7d 33 bd 76 6f af bd
       -0.08408976 0.04031472 -0.043821078 -0.08566181
000270 9a a3 a9 bd 4b 16 c1 3d 11 79 05 bd 09 f5 20 bd
       -0.08283158 0.0942808 -0.03258616 -0.039296184
000280 ed 87 81 3d eb df 9f 3c 2e bd 91 bd cc ce ec bd
       0.06324754 0.019515952 -0.07116161 -0.11562881
000290 59 b8 a8 3c e8 38 f8 36 35 26 bd bd d8 68 11 3e
       0.020595716 7.3976007e-06 -0.09235803 0.14200151
0002a0 ea 08 e7 bd 53 2f ab bd 15 3f 17 bd 50 32 9e bc
       -0.11280997 -0.08358636 -0.036925394 -0.0193111
0002b0 4f 8a 05 3d 0d b7 86 bd 73 fc db bd a4 6f 27 bc
       0.032602604 -0.06577883 -0.1074151 -0.010219488
0002c0 15 33 03 3e 57 f9 be bc 64 13 45 3d e1 43 67 3c
       0.12812455 -0.023312254 0.048114195 0.014115305
0002d0 e2 cd 64 bd 38 99 96 3d f3 ad 8c 3d 64 04 04 bb
       -0.055860408 0.07353443 0.06869116 -0.0020144219
0002e0 d3 a6 b3 3c f6 73 d3 3d d3 28 d0 ba ca 69 04 bd
       0.021930134 0.10324852 -0.0015881307 -0.03232745
0002f0 6d 00 1e 3d 51 d5 df bd cd 70 d3 bb 7c d3 f6 bd
       0.038574625 -0.10929359 -0.006452656 -0.12052056
000300 73 b6 b4 ba 53 bb 6f bd 60 8b dd 3a ca 30 02 3e
       -0.0013787284 -0.058528256 0.0016902499 0.12713924
000310 c4 74 f9 bc d0 be 29 3e b3 a4 27 3e a6 57 f0 3a
       -0.030451186 0.16576695 0.16371422 0.0018336668
000320 cb 09 53 bd 8f 3a bc bd e8 b0 48 bd 2c 87 a5 3d
       -0.05152301 -0.09190857 -0.048996836 0.080824226
000330 02 1e 9e bc 2a e8 99 bc da f8 e6 3d 17 59 bf 3d
       -0.019301418 -0.018787462 0.112779334 0.093431644
000340 41 7a 9a 3c dd d7 97 bd 1f 7d 5a bd 9d 64 ad bd
       0.018857123 -0.074142195 -0.05334198 -0.08466456
000350 97 0b 07 3d ae d2 2a 3e c4 44 17 3c e6 b0 3d bd
       0.032970037 0.1668193 0.009232704 -0.04631128
000360 0c 75 8f bc ae 64 9d bc 69 da b5 bd 74 b2 9f 3d
       -0.017511867 -0.019213047 -0.08879549 0.07797709
000370 70 9e 9a bd 7f 81 c6 bd f0 6f be bd 76 4e e2 bc
       -0.07549751 -0.09692668 -0.09298694 -0.027625304
000380 4d ce 0d 3e 9d 45 1a bd 73 c8 04 3e 12 b8 9d 3d
       0.13848229 -0.037664045 0.1296709 0.07701124
000390 21 ff b6 bb 47 cc 86 bd 33 07 f8 3c 1d 32 f6 3d
       -0.005584613 -0.065819316 0.03027687 0.12021277
0003a0 c4 c8 ad 3d e4 cb 9b 3c 73 9a ac 3d 81 75 93 3d
       0.08485559 0.019018121 0.08427896 0.072001465
0003b0 ca b2 bf bd 67 9e a3 3d ad f0 02 3e 0b 81 b1 3d
       -0.09360273 0.07989197 0.12787123 0.08667191
0003c0 2d 53 3b 3e b5 5b c6 3d dc 66 93 3d 63 6a d2 bd
       0.18293448 0.096854605 0.07197353 -0.10274198
0003d0 98 be 09 3e 35 05 65 bd 91 f2 cd 3d 1f b0 21 3d
       0.13451612 -0.05591317 0.100560315 0.039474603
0003e0 60 fa 75 3d 5d 7b e4 bc 68 67 da bd 80 f9 a3 3d
       0.06005323 -0.027890855 -0.106642544 0.08006573
0003f0 c0 2f cb bd 50 0b c4 bd c9 4f c0 bd fe 52 ad 3d
       -0.09921217 -0.0957247 -0.09390218 0.08463095

fc5.bias f4 [32]
000000 06 b3 cb bd 61 2b ce 3d 8c 16 15 bd bb 74 c6 3b
       -0.099462554 0.100668676 -0.036398456 0.006056396
000010 39 f3 d6 3b c0 0f a0 bd 89 4c 59 bd b8 cc c9 3c
       0.006559756 -0.07815504 -0.053051505 0.02463375
000020 1a 21 19 3d c3 7c 8d bd be 41 fa bd 15 9a 9a bd
       0.037385084 -0.06908562 -0.122195706 -0.0754892
000030 c3 62 76 bc 37 63 7f 3d 8b 2d 3e 3d 45 1d 0d bd
       -0.015038195 0.062350478 0.046430152 -0.03445174
000040 60 29 85 bd a2 34 d2 3d e2 cf e5 bd 40 e1 de bd
       -0.06502032 0.10263945 -0.11221291 -0.10882807
000050 1e 51 d6 bd fc f2 99 bd c2 0d b7 bd ee 71 d2 bd
       -0.104646906 -0.07517049 -0.08938171 -0.102756366
000060 f5 d6 c1 3d 57 cf be 3c b3 10 89 bb 79 e5 27 bd
       0.09464828 0.023292227 -0.004182899 -0.040990327
000070 22 95 87 bd 47 ee 39 3d 95 51 ff bd b4 a6 da bc
       -0.06620242 0.045393255 -0.124667324 -0.026690818
