model/trained_model.pth (torch, 206107 bytes, 14 tensors)

fc1.weight f4 [128, 141]
-0.0053291502 -0.011862684 -0.041304298 0.0115294345 -0.059567805 -0.0023675628 -0.2532407 -0.070548266
-0.04021001 -0.07652778 0.005532774 0.057690986 -0.06601212 0.011628503 -0.016468074 -0.06649774
-0.014539425 -0.10313735 -0.089178495 0.014701907 -0.04507101 0.045843888 -0.048439424 -0.057836894
0.013533634 0.016243134 0.047005806 -0.090413444 0.071560785 0.062414546 0.012004565 0.012505733
-0.057022512 -0.06566885 0.0646447 0.060199 0.031115783 0.0044890014 0.030264135 0.02047037
-0.044272143 0.058211636 -0.06162756 0.04414754 0.0036614633 0.02793883 -0.063880906 0.0104972925
0.07137478 -0.018883297 0.04913002 0.018247558 0.012995455 0.026223822 0.014569154 0.021035446
-0.08447804 -0.009744462 0.15320437 0.0840742 0.0106560355 -0.028122924 -0.0522858 -0.112326704
0.011112896 -0.058977857 0.00466047 0.19015236 -0.041352168 -0.049485866 -0.013709821 0.047351405
0.07402779 0.09027951 -0.092190355 -0.053333268 -0.05528389 -0.014736079 -0.067134544 -0.037925646
0.13529 -0.057125278 -0.031024707 0.013071197 -0.07415197 -0.066952616 -0.101255305 0.030583492
0.049434073 0.1245754 0.19022162 0.06928632 0.03348488 -0.05855374 -0.05474168 0.026967851
-0.092415504 -0.08929315 -0.02138864 -0.01962858 0.0012037007 -0.051630404 0.0023191797 0.036736242
-0.21277611 -0.21508741 -0.13668555 -0.20088097 -0.014882445 -0.035143703 -0.13900276 -0.104213886
-0.018833792 -0.086218394 0.035279866 -0.04694015 0.049940266 0.05074546 0.05875795 0.058995575
-0.0046577533 -0.101249754 -0.081493475 -0.018761057 0.022291454 0.0009270373 -0.04043369 -0.399523
0.0447293 0.2099078 0.29114163 0.2844009 0.3060135 0.08145106 -0.01591244 -0.05765659
0.021431299 -0.049076904 -0.05165942 0.008670408 0.08409618 -0.051175326 -0.09276623 -0.069115296
-0.1157327 -0.02688952 0.045793325 0.101932146 -0.032678977 -0.07656544 0.011267358 0.02801395
0.08627371 -0.039938588 -0.037165973 0.01825086 0.047370642 0.025269184 0.044164773 0.027924271
0.041133016 0.053343847 0.077194825 -0.03955023 0.031428147 0.062571056 -0.0040909545 -0.11402758
0.0054597147 0.01672649 -0.022270985 -0.005109503 0.08297587 -0.0023460044 -0.06564506 0.08017336
0.07726598 0.048065968 0.003199582 0.004365298 -0.033737525 -0.02778296 0.047836192 0.022357007
0.04146359 -0.07875402 -0.060602203 -0.03768317 0.06487724 -0.00089006894 0.029772948 0.06817865
0.027518583 0.012137836 -0.06743528 0.03745252 0.04686342 -0.08053509 -0.07918482 0.063404426
0.18765832 -0.03147429 0.023308912 0.016196597 0.02715092 0.052911904 0.039323524 -0.021969674
-0.057922836 -0.030832136 -0.1294435 0.015444487 -0.0036916991 -0.03242836 -0.043012414 -0.18781164
0.00057578477 -0.038717613 0.03839397 0.007752356 -0.04269404 -0.1843389 0.013856792 0.041648973
-0.080774784 -0.04070902 -0.026799262 -0.037050225 0.032870263 0.05000286 0.04269564 -0.044300497
0.9514669 0.116108716 0.054333635 -0.048937794 -0.038582712 0.11305719 0.014498122 -0.02729528
0.025121376 0.0076971874 -0.04473767 -0.11633457 0.20368744 -0.0294497 0.04351192 0.070743285
-0.019485991 0.037630364 0.015721537 -0.12515017 0.05628271 0.053756714 0.0030166213 0.011404346
00000000: 27a0 aebb b45b 42bc b22e 29bd f4e5 3c3c
00000010: 5ffd 73bd 1d29 1bbb c4a8 81be 9c7b 90bd
00000020: 40b3 24bd 99ba 9cbd 464c b53b 624d 6c3d
00000030: 5d31 87bd 7a85 3e3c 0ee8 86bc f82f 88bd
00000040: c536 6ebc ad39 d3bd 37a3 b6bd 44e0 703c
00000050: 619c 38bd cdc6 3b3d 6b68 46bd 61e6 6cbd
00000060: 2dbc 5d3c 5210 853c 2989 403d af2a b9bd
00000070: 768e 923d 65a6 7f3d ccae 443c d9e4 4c3c
00000080: 7090 69bd 647d 86bd 7164 843d 3a93 763d
00000090: 87e6 fe3c 7918 933b 7eec f73c 7ab1 a73c
000000a0: b556 35bd 536f 6e3d 2e6d 7cbd 0dd4 343d
000000b0: 29f5 6f3b f9df e43c fed3 82bd d6fc 2b3c
000000c0: f12c 923d 25b1 9abc 8f3c 493d e77b 953c
000000d0: e4ea 543c 57d3 d63c 76b3 6e3c 8752 ac3c
000000e0: d302 adbd 3ca7 1fbc 9be1 1c3e 182f ac3d
000000f0: a796 2e3c 0c62 e6bc a329 56bd 8b0b e6bd
00000100: dd12 363c c492 71bd dbb6 983b 4db7 423e
00000110: e460 29bd b1b1 4abd 289f 60bc 8cf3 413d
00000120: e29b 973d 77e4 b83d 4cce bcbd fc73 5abd
00000130: 5c71 62bd 986f 71bc d67d 89bd ec57 1bbd
00000140: 7689 0a3e 32fc 69bd 8727 febc 9328 563c
00000150: fddc 97bd 741e 89bd f15e cfbd 3b8a fa3c
00000160: 627b 4a3d 6321 ff3d 75c9 423e fce5 8d3d
00000170: 7127 093d 0cd6 6fbd d038 60bd afeb dc3c
00000180: 5744 bdbd 54df b6bd 3b37 afbc 1ecc a0bc
00000190: 7ec5 9d3a 677a 53bd 61fd 173b be78 163d
000001a0: fbe1 59be e03f 5cbe 4cf7 0bbe beb3 4dbe
000001b0: 80d5 73bc d8f2 0fbd bd56 0ebe 176e d5bd
000001c0: 5349 9abc 4593 b0bd 9f81 103d 5144 40bd
000001d0: 2a8e 4c3d 79da 4f3d 2dac 703d 58a5 713d
000001e0: 11a0 98bb 085c cfbd 0de6 a6bd cab0 99bc
000001f0: 919c b63c 6c04 733a cc9d 25bd 478e ccbe
00000200: 1236 373d 12f2 563e 8410 953e ff9c 913e
00000210: cdad 9c3e d0cf a63d ce5a 82bc 5129 6cbd
00000220: b190 af3c dd04 49bd d498 53bd 540e 0e3c
00000230: 9e3a ac3d 389d 51bd 39fc bdbd 528c 8dbd
00000240: 4405 edbd 6947 dcbc c891 3b3d cdc1 d03d
00000250: 64da 05bd 57ce 9cbd ba9a 383c 837d e53c
00000260: 45b0 b03d a596 23bd 593b 18bd d482 953c
00000270: b807 423d 5201 cf3c 1fe6 343d 71c1 e43c
00000280: 187b 283d 147f 5a3d 5218 9e3d 6cff 21bd
00000290: cdba 003d 4125 803d 6a0d 86bb 4b87 e9bd
000002a0: 68e7 b23b fe05 893c a471 b6bc 9e6d a7bb
000002b0: 41ef a93d 6cbf 19bb eb70 86bd ee31 a43d
000002c0: a03d 9e3d d2e0 443d 14b0 513b c60a 8f3b
000002d0: 5c30 0abd 1799 e3bc e2ef 433d 0b26 b73c
000002e0: bad5 293d ca49 a1bd 043a 78bd ab59 1abd
000002f0: 5cde 843d 8453 69ba 66e6 f33c 40a1 8b3d
00000300: a76e e13c c6dd 463c 821b 8abd d067 193d
00000310: dcf3 3f3d 95ef a4bd a72b a2bd 2eda 813d
00000320: 8129 403e 2feb 00bd 55f2 be3c baae 843c
00000330: 9b6b de3c 27ba 583d b411 213d bff9 b3bc
00000340: 7f40 6dbd ad93 fcbc d68c 04be e00a 7d3c
00000350: 6ff0 71bb 9ad3 04bd c92d 30bd b251 40be
00000360: 43f0 163a 5c96 1ebd ff42 1d3d 7a07 fe3b
00000370: f2df 2ebd 56c3 3cbe 9907 633c 1d98 2a3d
00000380: 406d a5bd 80be 26bd 208a dbbc fac1 17bd
00000390: f8a2 063d cdcf 4c3d a0e1 2e3d 7074 35bd
000003a0: 5693 733f 68ca ed3d f28c 5e3d ff72 48bd
000003b0: e808 1ebd 878a e73d 8889 6d3c 5a9a dfbc
000003c0: 58cb cd3c b038 fc3b d93e 37bd d240 eebd
000003d0: 7193 503e 7f40 f1bc 8e39 323d dbe1 903d
000003e0: 16a1 9fbc 4c22 1a3d 74ca 803c 5e27 00be
000003f0: b388 663d 0030 5c3d 82b2 453b 4bd9 3a3c

fc1.bias f4 [128]
0.024606902 -0.003333949 0.064736396 0.06609881 0.07755954 -0.0050741592 0.078390196 -0.07474695
-0.08295581 0.041282907 0.025782067 0.056789175 -0.021865156 -0.0046042027 0.020685874 0.009580461
-0.07713808 0.061668042 -0.028494343 0.04535052 -0.0586835 -0.08465307 -0.03161608 0.047489803
0.024295308 0.07056685 -0.0060345503 -0.033307556 -0.08602934 0.08633561 -0.07699115 0.0073973923
0.0012809716 -0.057236936 -0.015870703 0.04598324 -0.075113624 -0.05511732 -0.034729816 0.012082894
0.013162278 0.025613839 0.044100672 0.014366282 -0.006731063 -0.04323859 0.052715927 -0.013466799
-0.04320791 -0.010831709 -0.06658542 -0.004025973 0.043250546 0.046266638 -0.0042442377 -0.025684029
0.04093782 0.0090021845 0.05087665 0.022788081 -0.045796674 -0.06317736 0.068665236 0.020010738
0.014257579 0.037389293 -0.045475848 0.039966978 -0.027531113 0.032515943 0.018382503 -0.011980198
0.05412444 0.043577008 -0.018058166 -0.041091118 0.028229276 0.0443331 0.018809587 0.08251042
0.038695373 -0.07364828 0.06341045 0.030924793 0.06251108 -0.07582654 0.0687557 -0.09754646
-0.040196158 -0.028998626 -0.07168427 0.066624455 0.02538261 0.004121537 0.06823671 0.020007195
-0.012329084 -0.002004914 0.09281328 -0.017282987 0.08387104 -0.07312459 0.07363706 0.038284384
-0.07928001 0.019543765 0.04366666 -0.031478006 -0.009741765 -0.045881927 -0.08514658 -0.0048288032
0.027445026 0.07224626 0.011724316 0.026148146 0.006049947 0.0699026 -0.06551732 0.016605876
0.054559834 0.054864906 -0.013214797 0.071906194 0.031960674 -0.04213635 0.06632589 0.062075224
00000000: 6a94 c93c 627e 5abb 8494 843d d05e 873d
00000010: 89d7 9e3d 2245 a6bb 0a8b a03d ee14 99bd
00000020: bce4 a9bd 4418 293d ea34 d33c c49b 683d
00000030: 8e1e b3bc dade 96bb 6c75 a93c 5ef7 1c3c
00000040: 92fa 9dbd a197 7c3d f86c e9bc 78c1 393d
00000050: 1c5e 70bd 975e adbd dd7f 01bd ab84 423d
00000060: f406 c73c 5a85 903d 7abd c5bb 816d 08bd
00000070: 2730 b0bd b9d0 b03d 89ad 9dbd d365 f23b
00000080: 46e6 a73a 4771 6abd 4703 82bc ec58 3c3d
00000090: 2cd5 99bd b3c2 61bd da40 0ebd 55f7 453c
000000a0: 98a6 573c 1dd4 d13c e8a2 343d 8e60 6b3c
000000b0: 4090 dcbb f31a 31bd a8ec 573d d9a3 5cbc
000000c0: c7fa 30bd 7b77 31bc f05d 88bd 4fec 83bb
000000d0: 7c27 313d 1682 3d3d 3f13 8bbb 5067 d2bc
000000e0: 6aae 273d e67d 133c 0964 503d 12ae ba3c
000000f0: 4b95 3bbd 2263 81bd 5ca0 8c3d 8fed a33c
00000100: 9f98 693c 8425 193d e244 3abd 6ab4 233d
00000110: ee88 e1bc 702f 053d e796 963c 9848 44bc
00000120: 97b1 5d3d ce7d 323d b8ee 93bc 294f 28bd
00000130: 1541 e73c a096 353d 9016 9a3c 39fb a83d
00000140: 0a7f 1e3d e9d4 96bd 57dd 813d fe55 fd3c
00000150: cf05 803d f24a 9bbd cacf 8c3d 70c6 c7bd
00000160: baa4 24bd 878e edbc 34cf 92bd 6772 883d
00000170: 31ef cf3c f50d 873b b0bf 8b3d 21e6 a33c
00000180: edff 49bc e064 03bb e414 be3d 0d95 8dbc
00000190: 94c4 ab3d 58c2 95bd 07cf 963d 16d0 1c3d
000001a0: 8f5d a2bd 3f1a a03c d0db 323d 15ef 00bd
000001b0: ed9b 1fbc b0ee 3bbd 5561 aebd f03a 9ebb
000001c0: 64d4 e03c d9f5 933d 5817 403c a334 d63c
000001d0: a23e c63b 1829 8f3d f22d 86bd 0c09 883c
000001e0: 227a 5f3d 06ba 603d e082 58bc 8e43 933d
000001f0: 32e9 023d 2a97 2cbd ded5 873d 9742 7e3d

fc2.weight f4 [128, 128]
-0.042290747 -0.029842567 0.06089831 0.003619576 -0.015526195 0.010765602 0.0748996 0.04072032
0.02859297 0.0460257 0.0041836635 -0.035454288 0.07856746 0.06767991 -0.04829384 -0.008857939
-0.062033728 -0.019620333 -0.06338577 -0.096333675 -0.07331105 0.572188 -0.0944046 0.052597728
0.04838364 0.061610214 -0.075027324 0.0314745 0.035149585 -0.063732974 0.015721057 0.08680443
0.054908235 0.023595722 0.04897724 0.045441292 0.04326444 0.0029199058 0.012583904 0.053616963
-0.031243775 -0.120969966 0.052473895 0.0070128767 0.0827165 0.034379136 -0.053098388 -0.046850063
0.040069733 -0.068142995 -0.07755225 0.04778154 -0.08500188 -0.026207434 0.02678638 -0.059012406
0.007678359 -0.045384638 0.03015448 0.056089852 0.046898354 -0.07866986 -0.005178509 -0.090772524
-0.058551155 -0.06876806 0.061604835 0.04999668 -0.05972737 0.027741397 0.033032198 0.08789886
-0.07017378 -0.07492225 -0.003908014 -0.00719812 0.03425237 -0.090127826 -0.028206782 0.070563085
-0.05791472 0.09100704 -0.031443667 -0.053005498 -0.023144366 0.05614046 -0.03896436 -0.059871987
-0.06468101 -0.010491151 0.043329217 0.01969296 0.033255637 -0.051128875 0.03421231 0.105227575
-0.04658042 -0.039943084 -0.00060455326 -0.06655294 0.05756373 -0.028677654 -0.028154844 -0.034422502
-0.0323959 -0.024447612 0.07544409 -0.0052439957 0.06705501 -0.12058856 -0.008301961 0.025745496
-0.04721116 -0.084055565 -0.065450296 -0.053901114 0.021717707 0.028715692 0.07458699 0.059624225
0.046067946 -0.050299272 -0.039219875 -0.031328578 -0.04876657 0.021959076 0.015605781 0.046375006
0.046730258 -0.021814002 0.0656685 -0.020059943 -0.051901747 0.029280318 0.08588365 0.05627966
0.039834358 0.06944861 -0.048991367 0.023214146 0.055464655 0.043841727 0.049790565 0.071172915
-0.07526056 0.059588652 0.022041952 0.017811125 0.06476982 0.4518081 0.013621664 0.012214501
-0.05171892 -0.076822326 -0.018524736 -0.051854596 0.052080546 0.045222506 -0.07420844 -0.07343735
0.096447155 -0.040184673 0.067737624 -0.08443075 0.08256983 -0.07516073 -0.047467668 -0.04233745
-0.017383479 -0.050120804 -0.010792215 -0.008465025 -0.07820481 0.09497189 0.035169344 0.020023754
-0.02726282 0.05114181 0.06948066 -0.0745485 0.010682027 0.05640239 -0.046937056 0.022637948
0.047599886 -0.016907306 0.0223751 0.04265499 0.0522584 -0.036013782 0.0890291 0.0395033
-0.0023767876 -0.03810126 -0.0454214 0.035928756 0.05826058 0.07511748 -0.03117733 -0.05513004
-0.021670932 -0.02795144 -0.07367287 -0.048261486 0.010409481 0.03615643 -0.065119594 -0.058857583
-0.05182995 0.07662693 0.072017826 -0.021737322 -0.016327355 0.091161415 0.057882614 0.20137288
-0.06930926 -0.059279956 -0.0110941455 -0.08049701 0.062373713 0.05885038 -0.07610548 -0.098981954
0.083857015 0.011610195 0.015916077 0.057925068 -0.027525537 0.07983167 -0.020412076 -0.029494513
-0.05042589 -0.0061461837 -0.062212296 0.08154442 0.07017283 -0.017551294 -0.06278164 -0.08445039
0.069626905 -0.056585737 0.080665015 -0.089591235 0.12246851 -0.044843107 0.034337983 0.06263374
-0.036003172 0.062830105 -0.03865358 0.045928635 -0.009274043 -0.081900336 -0.15127864 -0.00817951
00000000: 1039 2dbd 6678 f4bc 8270 793d 6936 6d3b
00000010: 9561 7ebc 3562 303c f664 993d 5aca 263d
00000020: ce3b ea3c 7285 3c3d 1d17 893b 8438 11bd
00000030: fae7 a03d c49b 8a3d c3cf 45bd e420 11bc
00000040: 1417 7ebd d2ba a0bc 66d0 81bd 974a c5bd
00000050: 1b24 96bd ea7a 123f 3357 c1bd b770 573d
00000060: ec2d 463d fe5a 7c3d eda7 99bd 68eb 003d
00000070: 03f9 0f3d 6f86 82bd 72c9 803c 85c6 b13d
00000080: 75e7 603d d14b c13c 5c9c 483d a620 3a3d
00000090: 0e36 313d e45b 3f3b b82c 4e3c 769d 5b3d
000000a0: f2f2 ffbc 1abf f7bd deee 563d 46cc e53b
000000b0: 4567 a93d 23d1 0c3d b27d 59bd dae5 3fbd
000000c0: 2920 243d 8e8e 8bbd b7d3 9ebd 93b6 433d
000000d0: 7715 aebd f9b0 d6bc 1c6f db3c feb6 71bd
000000e0: be9a fb3b 3ee5 39bd 8706 f73c 79be 653d
000000f0: 7d18 403d aa1d a1bd 7bb0 a9bb f2e6 b9bd
00000100: 56d3 6fbd 45d6 8cbd 5a55 7c3d 52c9 4c3d
00000110: b0a4 74bd ed41 e33c c54c 073d 5104 b43d
00000120: 45b7 8fbd d670 99bd cc0e 80bb 35de ebbb
00000130: 374c 0c3d f094 b8bd e911 e7bc 6183 903d
00000140: fc37 6dbd e661 ba3d 13cb 00bd 4b1c 59bd
00000150: 4199 bdbc 8af3 653d 1899 1fbd 543c 75bd
00000160: 7a77 84bd 14e3 2bbc fa79 313d 2153 a13c
00000170: 1037 083d 836c 51bd 3522 0c3d 8e81 d73d
00000180: 1ccb 3ebd 5c9b 23bd e27a 1eba e84c 88bd
00000190: f2c7 6b3d 66ed eabc fda4 e6bc 9cfe 0cbd
000001a0: 90b1 04bd 5c46 c8bc 6e82 9a3d d3d5 abbb
000001b0: 2354 893d 23f7 f6bd f304 08bc 38e8 d23c
000001c0: 7d60 41bd 5325 acbd ce0a 86bd 6ac7 5cbd
000001d0: 55e9 b13c 2c3d eb3c 10c1 983d 8838 743d
000001e0: beb1 3c3d 9c06 4ebd 05a5 20bd 6552 00bd
000001f0: 74bf 47bd 85e3 b33c 64af 7f3c b8f3 3d3d
00000200: 3a68 3f3d 47b3 b2bc 357d 863d c054 a4bc
00000210: ed96 54bd 47dd ef3c c4e3 af3d 8085 663d
00000220: 5a29 233d 133b 8e3d 2cab 48bd 982b be3c
00000230: e82e 633d 6293 333d 31f1 4b3d 1bc3 913d
00000240: 3522 9abd 3b13 743d 5391 b43c a3e8 913c
00000250: 0aa6 843d 6453 e73e 662d 5f3c 551f 483c
00000260: 38d7 53bd 0655 9dbd 30c1 97bc 7c65 54bd
00000270: 6952 553d 3c3b 393d 98fa 97bd 5266 96bd
00000280: 1686 c53d af98 24bd 06ba 8a3d 07ea acbd
00000290: 5f1a a93d deed 99bd 756d 42bd 096a 2dbd
000002a0: cc67 8ebc 794b 4dbd d5d1 30bc e3b0 0abc
000002b0: d829 a0bd 9f80 c23d bb0d 103d db08 a43c
000002c0: 4756 dfbc 137a 513d e04b 8e3d e2ac 98bd
000002d0: ab03 2f3c 3106 673d 1241 40bd 3873 b93c
000002e0: 19f8 423d 3181 8abc fc4b b73c 00b7 2e3d
000002f0: e70c 563d 3083 13bd e454 b63d 36ce 213d
00000300: e1c3 1bbb 1110 1cbd ca0b 3abd 082a 133d
00000310: a5a2 6e3d 31d7 993d 9a67 ffbc 09d0 61bd
00000320: 3d87 b1bc 6bfa e4bc cde1 96bd d6ad 45bd
00000330: 878c 2a3c c418 143d 6c5d 85bd a614 71bd
00000340: a44b 54bd 94ee 9c3d 157e 933d 7812 b2bc
00000350: f2c0 85bc d6b2 ba3d 5216 6d3d b134 4e3e
00000360: 03f2 8dbd 8acf 72bd 38c4 35bc 9edb a4bd
00000370: 947b 7f3d 190d 713d 31dd 9bbd 0db7 cabd
00000380: 3abd ab3d b038 3e3c 6f62 823c d642 6d3d
00000390: 3c7d e1bc c97e a33d 3a37 a7bc 7a9e f1bc
000003a0: 618b 4ebd ed65 c9bb 52d2 7ebd c300 a73d
000003b0: c6b6 8f3d bbc7 8fbc a993 80bd 53f4 acbd
000003c0: 8d98 8e3d 72c6 67bd b333 a53d 9c7b b7bd
000003d0: c5d0 fa3d 68ad 37bd fca5 0c3d 1e46 803d
000003e0: 1078 13bd 12ad 803d 3753 1ebd aa1f 3c3d
000003f0: 28f2 17bc 5dbb a7bd cae8 1abe 5a03 06bc

fc2.bias f4 [128]
-0.03886247 -0.026893726 0.068571314 -0.08407974 0.08575503 -0.06835524 -0.039955363 -0.015783852
0.053752307 0.0063438173 0.023783982 -0.09547103 -0.035010252 0.021794798 -0.08030994 -0.022378737
-0.037561476 0.0597958 -0.07565803 -0.116704226 0.04557346 0.0013907542 -0.06649775 -0.058541317
-0.021578893 -0.026724359 0.0014479561 -0.0034342047 0.0055388906 0.0041676615 -0.08385645 0.048110146
0.09603997 -0.036721263 -0.030381205 -0.021834366 0.11335264 -0.064342394 -0.009880827 -0.013116771
-0.0253623 0.05878717 0.07703298 -0.05320774 0.040293086 0.044333875 0.057702444 -0.024595458
0.06987072 -0.027414918 -0.008722278 -0.048511714 -0.028881768 0.042271998 -0.0726014 -0.014256464
-0.055064265 0.039957367 0.084642 0.02409645 -0.061043415 -0.04545129 0.03189801 -0.057269294
-0.059752427 0.053232227 -0.03666353 0.06872373 -0.024334133 -0.075658634 -0.025417281 -0.019684881
0.09508618 -0.013774115 -0.0051408396 0.09563518 -0.061043184 -0.045389883 -0.009137435 -0.0033982745
0.042923212 0.06789886 -0.046715613 0.04934049 -0.043979067 -0.063904874 -0.0871668 -0.040240854
-0.0033435214 0.06351333 0.04894044 -0.025908662 0.017495435 -0.0053417804 -0.06492397 0.11762053
0.08445258 0.0764766 -0.03321264 -0.048480038 0.038704976 0.009713486 0.06274759 0.00243266
-0.063597664 0.015224114 0.020061702 0.0074513373 -0.13570303 -0.004948618 0.094107784 0.08101411
-0.03155193 0.08838025 0.009819087 -0.034484986 0.021279503 0.055465575 -0.0123662315 -0.07503866
-0.025640769 -0.030902619 -0.008006907 -0.061098963 -0.004999792 -0.07512498 0.045296412 -0.043660183
00000000: 412e 1fbd 3b50 dcbc 1e6f 8c3d 0032 acbd
00000010: 55a0 af3d d5fd 8bbd 3ca8 23bd 234d 81bc
00000020: 612b 5c3d ccdf cf3b a0d6 c23c 5186 c3bd
00000030: e966 0fbd 018b b23c 8a79 a4bd 9d53 b7bc
00000040: 10da 19bd 71ec 743d 99f2 9abd a002 efbd
00000050: 3dab 3a3d f849 b63a f92f 88bd 05c9 6fbd
00000060: 38c6 b0bc 0bed dabc 58c9 bd3a 6510 61bb
00000070: 957f b53b e190 883b eebc abbd 250f 453d
00000080: 9bb0 c43d 0969 16bd 01e2 f8bc fcdd b2bc
00000090: 6e25 e83d f2c5 83bd 31e3 21bc bae7 56bc
000000a0: 99c4 cfbc d1ca 703d 78c3 9d3d 5cf0 59bd
000000b0: 5d0a 253d 7097 353d 6659 6c3d 6a7c c9bc
000000c0: 6118 8f3d 4095 e0bc e3e7 0ebc 38b4 46bd
000000d0: 7599 ecbc 6725 2d3d 0bb0 94bd f293 69bc
000000e0: 118b 61bd 56aa 233d c958 ad3d eb65 c53c
000000f0: a908 7abd 222b 3abd 7da7 023d 3593 6abd
00000100: f6be 74bd 090a 5a3d 7f2c 16bd 07bf 8c3d
00000110: 6058 c7bc eaf2 9abd e737 d0bc 3042 a1bc
00000120: 8bbc c23d d3ac 61bc 7d74 a8bb 61dc c33d
00000130: 6b08 7abd beea 39bd 2eb5 15bc 96b5 5ebb
00000140: 40d0 2f3d 8f0e 8b3d df58 3fbd 4119 4a3d
00000150: 6523 34bd 8fe0 82bd 8284 b2bd 98d3 24bd
00000160: fb1e 5bbb 4713 823d c575 483d 673e d4bc
00000170: 9652 8f3c 1a0a afbb dcf6 84bd 08e3 f03d
00000180: 79f5 ac3d c39f 9c3d fa09 08bd 0193 46bd
00000190: 1c89 1e3d 5025 1f3c cf81 803d 436d 1f3b
000001a0: 7e3f 82bd 906e 793c 7058 a43c 592a f43b
000001b0: bcf5 0abe 0428 a2bb 95bb c03d baea a53d
000001c0: 993c 01bd b400 b53d 3ce0 203c 2140 0dbd
000001d0: 5a52 ae3c df2f 633d bc9b 4abc dead 99bd
000001e0: 970c d2bc 7d27 fdbc 672f 03bc e842 7abd
000001f0: 4cd5 a3bb 20db 99bd bb88 393d 05d5 32bd

fc3.weight f4 [64, 128]
-0.07684605 -0.062280618 0.0663295 0.028471347 0.019974023 0.0944909 -0.0026394788 -0.034674592
-0.009985711 -0.0057964902 -0.039685864 -0.05294192 -0.05003886 0.038868014 0.07520052 0.04628284
-0.012849403 -0.099379115 -0.030562606 0.021729346 0.09324434 0.02808438 0.036992025 -0.03131861
-0.030295748 0.0013652454 0.044995133 -0.07159886 -0.0731694 0.008231528 -0.055889532 0.09489458
-0.08105583 -0.07024135 0.08196492 -0.07113427 -0.17080435 0.06955517 -0.037542485 -0.07578687
0.056887023 -0.05171586 -0.009041086 0.051416 0.052686915 0.083303496 0.008150047 0.08151409
0.050961558 0.016746448 0.0101464465 0.0020792896 0.055390272 0.058978613 0.03521192 0.0023123482
-0.04324417 -0.006649566 0.02062642 0.021250403 -0.066919476 -0.079239525 -0.071666956 -0.03026052
-0.021105776 -0.013489456 0.0853085 0.09376011 0.008579288 0.05716845 -0.056520063 -0.10233697
-0.009221398 0.05053683 0.04234762 0.06607468 -0.06427053 0.018906118 0.05866295 0.045313746
0.031094523 -0.049092524 -0.06796782 -0.055359654 -0.015178464 -0.030600868 0.035083577 -0.07311608
-0.07812991 -0.009741913 0.07678011 0.058599826 0.07297354 -0.037168026 0.012961927 0.049923338
0.023201229 -0.050615203 0.021505376 0.052549552 -0.04775833 -0.0647896 0.040358063 0.02043764
-0.000201207 0.031604838 -0.06753074 0.026049046 0.044944502 -0.03802212 0.06268477 0.037885554
0.030835316 0.063433155 0.0128796715 -0.05516808 -0.080436036 0.076900974 0.0502101 -0.061721634
-0.05752252 0.043949638 0.026783355 -0.007513811 -0.06434213 0.06257364 -0.06325897 0.064698
0.00859414 0.024094965 -0.02187912 -0.112119086 0.0515083 0.071547545 0.033526935 0.0156204095
-0.016820073 -0.0071901954 -0.078220144 -0.048807096 -0.064459264 -0.0041629174 -0.072573915 0.03632411
0.062386073 -0.0042462796 -0.08315569 0.01358399 -0.022582192 -0.08474528 -0.06703428 -0.021179032
-0.06716258 0.117557526 0.08369842 0.022103172 0.0427431 -0.07417252 0.0040042303 -0.014588127
0.092875324 0.016545583 0.0061256303 -0.003392376 -0.092499614 -0.010209596 0.086320296 0.022240108
-0.043681093 -0.007133014 -0.07166205 0.06750155 -0.05289433 0.0741733 0.0381865 0.084128976
0.0372031 -0.053501 -0.002646586 -0.043240976 -0.07995714 0.02829354 0.093423 -0.0021794087
0.04367239 0.023551755 0.042846758 -0.02608525 0.004387651 -0.015843188 -0.0023999787 0.07445466
0.029190598 -0.029855942 0.047832876 -0.0408702 -0.014766312 -0.07259193 0.077021 0.06827864
-0.041807864 -0.0005710935 0.020641541 -0.05153422 0.03606585 -0.08508623 -0.068817206 0.0048628976
0.063814335 -0.017677233 0.11252 0.042509694 0.08737036 0.06149831 0.052929766 0.023878034
-0.04100477 0.0609467 -0.085756764 -0.0477309 -0.021287203 -0.062424894 -0.06429869 0.034831483
0.036510095 -0.047755264 -0.02851346 -0.074578285 -0.03690701 -0.041516867 0.018388864 -0.05881078
-0.006622626 0.0074816253 0.05378402 0.06804448 0.080166586 -0.06411701 0.059684753 0.076569
0.1155882 0.036256786 0.0049583465 0.059791423 0.10481061 -0.04602264 0.05086968 -0.016264226
0.05625011 -0.039179187 0.0062504713 0.01897661 0.009391137 -0.039362185 0.024111 -0.02869846
00000000: 7661 9dbd f619 7fbd c3d7 873d be3c e93c
00000010: 90a0 a33c 7284 c13d 1bfb 2cbb f206 0ebd
00000020: 1c9b 23bc 7cf0 bdbb a58d 22bd a0d9 58bd
00000030: 8cf5 4cbd 1134 1f3d bb02 9a3d 1393 3d3d
00000040: 4d86 52bc 4787 cbbd 6e5e fabc be01 b23c
00000050: e3f6 be3d 3711 e63c f384 173d f147 00bd
00000060: ca2e f8bc 09f2 b23a d14c 383d 6ca2 92bd
00000070: d7d9 95bd 88dd 063c 6cec 64bd 1758 c23d
00000080: 9900 a6bd b2da 8fbd 39dd a73d d8ae 91bd
00000090: 56e7 2ebe f172 8e3d 26c6 19bd 2636 9bbd
000000a0: 5e02 693d 02d4 53bd 1021 14bc 9599 523d
000000b0: 3cce 573d 069b aa3d c687 053c dcf0 a63d
000000c0: 11bd 503d d92f 893c 483d 263c b144 083b
000000d0: e9e0 623d 8f93 713d 603a 103d c48a 173b
000000e0: cc20 31bd 9ae4 d9bb bdf8 a83c 5315 ae3c
000000f0: 140d 89bd 5548 a2bd 20c6 92bd e9e4 f7bc
00000100: 05e6 acbc e102 5dbc 39b6 ae3d 4d05 c03d
00000110: 2490 0c3c 7729 6a3d 9581 67bd 0c96 d1bd
00000120: 5915 17bc b5ff 4e3d b374 2d3d 2952 873d
00000130: 45a0 83bd 01e1 9a3c 9048 703d e89a 393d
00000140: f1b9 fe3c 3e15 49bd b632 8bbd cec0 62bd
00000150: 18af 78bc acae fabc ccb3 0f3d e2bd 95bd
00000160: 9302 a0bd 8b9c 1fbc e43e 9d3d 5f06 703d
00000170: 2773 953d 803d 18bd 435e 543c 6a7c 4c3d
00000180: 8110 be3c e351 4fbd 0b2c b03c 333e 573d
00000190: 3d9e 43bd 69b0 84bd 7f4e 253d d66c a73c
000001a0: 18fb 52b9 1374 013d 8e4d 8abd cf64 d53c
000001b0: ba17 383d 15bd 1bbd df60 803d e22d 1b3d
000001c0: 589a fc3c 3ee9 813d 4205 533c edf7 61bd
000001d0: a6bb a4bd 427e 9d3d 1ba9 4d3d d3cf 7cbd
000001e0: bc9c 6bbd 8904 343d c468 db3c 6a36 f6bb
000001f0: cfc5 83bd 9c26 803d eb8d 81bd 6380 843d
00000200: 70ce 0c3c ce62 c53c d73b b3bc b19e e5bd
00000210: 5efa 523d 8587 923d 8a53 093d bfec 7f3c
00000220: 40ca 89bc bb9b ebbb e231 a0bd f3e9 47bd
00000230: 3803 84bd 1569 88bb a2a1 94bd 97c8 143d
00000240: 8a88 7f3d 6024 8bbb 884d aabd 628f 5e3c
00000250: 4afe b8bc ef8e adbd 4549 89bd a67f adbc
00000260: 898c 89bd 00c2 f03d 146a ab3d b611 b53c
00000270: 6413 2f3d c3e7 97bd eb35 833b 0a03 6fbc
00000280: 6b35 be3d 9a8a 873c 83b9 c83b a052 5ebb
00000290: 7070 bdbd 2646 27bc b2c8 b03d e330 b63c
000002a0: f2ea 32bd 0fbc e9bb 8ec3 92bd 413e 8a3d
000002b0: baa7 58bd 2ce8 973d 7369 1c3d d04b ac3d
000002c0: 4762 183d dd23 5bbd 5872 2dbb 731d 31bd
000002d0: 92c0 a3bd dbc7 e73c 8f54 bf3d 69d4 0ebb
000002e0: d2e1 323d 9cef c03c 1580 2f3d bcb0 d5bc
000002f0: 49c6 8f3b 93c9 81bc f648 1dbb af7b 983d
00000300: 1f21 ef3c 7394 f4bc 68ec 433d 8367 27bd
00000310: 67ee 71bc 14ab 94bd 30bd 9d3d acd5 8b3d
00000320: b93e 2bbd 70b5 15ba 7318 a93c 8c15 53bd
00000330: c9b9 133d b041 aebd 09f0 8cbd f158 9f3b
00000340: 17b1 823d d8cf 90bc e370 e63d a51e 2e3d
00000350: 3bef b23d a7e5 7b3d e2cc 583d de9b c33c
00000360: 9ef4 27bd 3fa3 793d 3ea1 afbd 7a81 43bd
00000370: 8062 aebc 3fb1 7fbd 08af 83bd 75ab 0e3d
00000380: 9c8b 153d 069b 43bd 0f95 e9bc 80bc 98bd
00000390: ce2b 17bd 970d 2abd 3ea4 963c 93e3 70bd
000003a0: 9d02 d9bb 6c28 f53b a24c 5c3d e85a 8b3d
000003b0: 612e a43d c74f 83bd 0078 743d 35d0 9c3d
000003c0: 82b9 ec3d ff81 143d a079 a23b dae7 743d
000003d0: f2a6 d63d 3c82 3cbd ba5c 503d 8e3c 85bc
000003e0: 8466 663d 5b7a 20bd c1d0 cc3b d674 9b3c
000003f0: 49dd 193c 3e3a 21bd 6f84 c53c 0819 ebbc

fc3.bias f4 [64]
-0.02415128 0.00015529411 0.066278696 -0.026722431 0.023127593 0.051717453 0.02447335 -0.07286596
0.07874642 0.07093377 -0.076045394 -0.07282587 -0.057770222 -0.007871687 0.08368712 -0.06143777
-0.09297292 -0.06649113 0.06606429 -0.010235444 -0.014751223 0.008044261 0.029966526 -0.04985646
-0.051271725 -0.055708043 -0.02779266 -0.08808769 0.057754703 0.028899226 -0.06490248 -0.07576142
0.05016986 0.0033148655 0.08002461 -0.09313396 0.10885152 -0.07036146 -0.057411574 0.0038090115
0.047722317 0.08212288 -0.009556504 0.0704988 -0.03078003 0.082145505 0.08359352 0.03643226
0.02017448 0.034926943 -0.06547467 0.025797915 0.0780834 -0.039550588 -0.08071058 0.0153090125
-0.07236872 -0.036659647 -0.06174148 -0.014431442 0.0053845034 -0.06877005 0.0223392 -0.07740227
00000000: e8d8 c5bc 72d6 2239 20bd 873d 00e9 dabc
00000010: 1476 bd3c aed5 533d 567c c83c c03a 95bd
00000020: ce45 a13d b945 913d b0bd 9bbd bb25 95bd
00000030: 78a0 6cbd 40f8 00bc 2764 ab3d 2ca6 7bbd
00000040: 9668 bebd 802c 88bd b74c 873d 90b2 27bc
00000050: 1daf 71bc 13cc 033c 5c7c f53c 4a36 4cbd
00000060: 4d02 52bd 1e2e 64bd 6fad e3bc 5267 b4bd
00000070: 3290 6c3d 12be ec3c 97eb 84bd ce28 9bbd
00000080: e97e 4d3d 373e 593b f1e3 a33d 05bd bebd
00000090: 8ced de3d ab19 90bd 6628 6bbd 9ca0 793b
000000a0: 7a78 433d 0a30 a83d e292 1cbc ad61 903d
000000b0: 6726 fcbc e73b a83d 1433 ab3d fe39 153d
000000c0: f344 a53c 8e0f 0f3d 9517 86bd 2656 d33c
000000d0: 31ea 9f3d ccff 21bd 974b a5bd a7d2 7a3c
000000e0: 0d36 94bd 6d28 16bd a2e4 7cbd db71 6cbc
000000f0: 7d70 b03b 50d7 8cbd b300 b73c 1585 9ebd

fc4.weight f4 [64, 64]
-0.060541376 0.10531206 0.07200531 -0.025159806 0.012766665 -0.07411465 -0.0077899806 -0.13260596
-0.09035434 -0.012427047 -0.018736616 0.057391673 -0.057956077 -0.09606187 -0.096810356 -0.009418608
0.07594679 -0.11628224 0.035434976 -0.071205944 -0.07550219 0.0751275 0.012464152 -0.057520777
0.055693205 -0.017829638 0.056290325 0.011573362 0.04840415 0.044314325 0.04640028 -0.021952659
0.06605095 -0.07611507 0.07893753 0.078050986 0.10597732 -0.08876237 -0.080895424 0.026245857
0.08348332 -0.06918349 0.03319861 0.0649866 0.03727926 -0.050142467 0.091319695 0.045183837
-0.0049101114 0.09294529 -0.103009924 0.05483493 -0.14019679 0.07035127 0.11376272 -0.087168545
0.08913 -0.12415743 -0.061918736 0.010537031 0.10087907 -0.056953326 0.009378329 0.06252467
0.08571713 0.1224329 0.06693453 0.11335575 0.045105692 -0.040075824 0.060359016 -0.01470721
0.0026403235 -0.107591204 -0.031427205 0.0711948 0.0013578113 -0.11691785 0.09432462 0.03207181
-0.018178202 0.06630874 0.059067562 -0.058361217 -0.019799277 -0.022344025 0.047112554 0.04606179
0.042167865 0.051435493 0.08279987 -0.05361944 -0.1012599 0.035288915 -0.10898417 0.10198307
0.10543709 -0.10606095 -0.05214332 -0.11241332 0.041344885 -0.0974417 -0.049946636 -0.055883765
0.05327508 -0.089624375 -0.08189015 -0.038957432 0.047210876 0.03646639 -0.07413187 0.12144223
-0.11674791 0.11217458 -0.101302594 0.010134832 -0.08310285 -0.05996101 0.06269169 0.028669162
0.07558859 0.12097251 -0.04907838 -0.008448572 0.11024544 0.03417268 0.050706964 0.062370077
0.12388268 0.011898289 0.056245256 0.011729161 0.031592082 0.016058967 0.028543556 0.07613675
0.03163166 -0.09314795 -0.098313496 0.05459941 -0.10894674 -0.041778952 -0.14023955 0.0025064524
0.018595742 0.09013889 -0.092065476 -0.11268425 0.117290266 -0.16253768 -0.114099994 0.16160096
0.013010281 0.025040302 -0.04162176 0.024968073 0.05115607 0.017116088 -0.0015161801 -0.048376676
-0.10671778 0.03517283 0.03878507 -0.07876283 0.0434444 0.04041158 0.07538879 0.13031831
0.19607627 -0.10132958 -0.16151567 0.0373362 -0.092562504 0.03473723 0.085846715 0.05381082
-0.07763509 -0.06761565 0.084608406 -0.099210195 0.18510053 -0.23218966 -0.097952515 -0.056300737
-0.03293355 0.024782578 0.019917548 0.041445173 0.048687413 0.10498299 0.07334979 0.003200385
0.10293037 -0.022826461 -0.09956117 0.10177948 0.073652215 -0.03174123 0.048261594 -0.08458006
0.096403405 -0.1106239 0.043589123 0.07771825 -0.09550722 -0.10532142 -0.002944495 0.012918629
0.03674908 0.113499306 -0.0904109 -0.11024064 -0.124184415 -0.05892727 -0.083670825 0.11198433
-0.053758103 -0.11853855 0.07695396 -0.061808605 0.0051535107 0.027980104 0.015145647 0.047578227
-0.04419803 -0.06765262 0.11544807 0.030006537 0.018656911 0.10597605 -0.03282152 -0.067551166
-0.039720643 -0.00020914704 0.07546685 -0.07541649 0.007534786 -0.07647316 0.006510593 0.061792165
0.044713587 -0.031969927 0.04211743 0.04706575 0.047232 0.021325797 0.010616466 0.09383581
-0.027003948 0.060570065 0.10995321 -0.1237065 -0.047058687 0.09732753 -0.12536336 0.029634418
00000000: 3cfa 77bd d9ad d73d 8577 933d f01b cebc
00000010: 462b 513c 6cc9 97bd 1843 ffbb dbc9 07be
00000020: b20b b9bd d09a 4bbc 887d 99bc 8813 6b3d
00000030: 5a63 6dbd 16bc c4bd 8244 c6bd 8150 1abc
00000040: fe89 9b3d 6225 eebd 4424 113d 6cd4 91bd
00000050: e4a0 9abd 72dc 993d 7136 4c3c e89a 6bbd
00000060: 8f1e 643d 760f 92bc af90 663d 339e 3d3c
00000070: 6e43 463d f082 353d 380e 3e3d 10d6 b3bc
00000080: b845 873d 38e2 9bbd 00aa a13d 32d9 9f3d
00000090: a30a d93d 0cc9 b5bd 80ac a5bd 8d01 d73c
000000a0: 4ef9 aa3d 13b0 8dbd 44fb 073d b217 853d
000000b0: 23b2 183d 3062 4dbd d205 bb3d b012 393d
000000c0: 00e5 a0bb 1a5a be3d def6 d2bd 979a 603d
000000d0: bf8f 0fbe 5414 903d 6efc e83d 6c85 b2bd
000000e0: ca89 b63d 4046 febd 809e 7dbd 83a3 2c3c
000000f0: b099 ce3d e447 69bd 90a7 193c ef0c 803d
00000100: 768c af3d 1abe fa3d f914 893d 0f27 e83d
00000110: bfc0 383d 8c26 24bd 043b 773d 82f6 70bc
00000120: 4709 2d3b c758 dcbd d0b9 00bd 94ce 913d
00000130: 96f8 b13a a072 efbd 442d c13d bb5d 033d
00000140: 74ea 94bc e0cc 873d d4f0 713d 2c0c 6fbd
00000150: 1832 a2bc d10a b7bc 18f9 403d 4aab 3c3d
00000160: 36b8 2c3d 06ae 523d fa92 a93d 0fa0 5bbd
00000170: 5a61 cfbd 1c8b 103d 1833 dfbd 80dc d03d
00000180: 67ef d73d 7c36 d9bd 3c94 55bd f438 e6bd
00000190: 4159 293d 848f c7bd d894 4cbd 60e6 64bd
000001a0: f836 5a3d fc8c b7bd 06b6 a7bd d491 1fbd
000001b0: 3160 413d c85d 153d 73d2 97bd b4b6 f83d
000001c0: 8719 efbd c9bb e53d bc77 cfbd 910c 263c
000001d0: d431 aabd ad99 75bd 8064 803d 97db ea3c
000001e0: 31ce 9a3d 6fc0 f73d 6906 49bd e16b 0abc
000001f0: 5cc8 e13d a7f8 0b3d 1bb2 4f3d c477 7f3d
00000200: 34b6 fd3d 0bf1 423c 6d61 663d ab2b 403c
00000210: b366 013d 188e 833c 2dd4 e93c 96ed 9b3d
00000220: 3390 013d 5ac4 bebd 9658 c9bd a2a3 5f3d
00000230: 781f dfbd 6820 2bbd f59a 0fbe 4b43 243b
00000240: 1956 983c bd9a b83d d38c bcbd 00c7 e6bd
00000250: e135 f03d 4770 26be 42ad e9bd b97a 253e
00000260: 1329 553c 5221 cd3c 947b 2abd d889 cc3c
00000270: 0789 513d 0a37 8c3c 90ba c6ba 9f26 46bd
00000280: da8e dabd 6311 103d 18dd 1e3d 684e a1bd
00000290: c1f2 313d 9d86 253d 7065 9a3d 2a72 053e
000002a0: 38c8 483e e285 cfbd 5d64 25be d8ed 183d
000002b0: 6991 bdbd a048 0e3d 67d0 af3d bc68 5c3d
000002c0: 25ff 9ebd 137a 8abd 2c47 ad3d b72e cbbd
000002d0: fe8a 3d3e 20c3 6dbe 549b c8bd 9a9b 66bd
000002e0: 55e5 06bd d504 cb3c 202a a33c 6ac2 293d
000002f0: 746c 473d 5201 d73d 6a38 963d 8dbd 513b
00000300: 28cd d23d 8ffe babc bae6 cbbd c371 d03d
00000310: f9d6 963d 1803 02bd f3ad 453d 4f38 adbd
00000320: 266f c53d c98e e2bd 828a 323d bf2a 9f3d
00000330: 4a99 c3bd c2b2 d7bd 6ef8 40bb a8a8 533c
00000340: 3486 163d 5372 e83d 5a29 b9bd d8c5 e1bd
00000350: 6654 febd b95d 71bd 9c5b abbd 0a58 e53d
00000360: 7531 5cbd 57c4 f2bd 0a9a 9d3d 052b 7dbd
00000370: c8de a83b 8836 e53c 7325 783c 63e1 423d
00000380: fe08 35bd 758d 8abd 0a70 ec3d 45d0 f53c
00000390: 61d6 983c f909 d93d dc6f 06bd 4458 8abd
000003a0: 1db2 22bd 7b4e 5bb9 5d8e 9a3d f673 9abd
000003b0: 5ee6 f63b f69d 9cbd d056 d53b c819 7d3d
000003c0: 9825 373d e6f2 02bd 5483 2c3d 04c8 403d
000003d0: 5776 413d 70b3 ae3c b0f0 2d3c fd2c c03d
000003e0: 6237 ddbc 5118 783d 262f e13d d559 fdbd
000003f0: 9cc0 40bd a853 c73d 415f 00be e1c3 f23c

fc4.bias f4 [64]
-0.06891188 0.061965868 -0.13134998 0.027137522 -0.09470244 0.0258218 -0.06256852 0.021865886
0.04341843 -0.010345055 0.04361754 0.08089659 -0.09198305 -0.12326123 0.06318113 -0.027797481
0.009793421 -0.15027966 -0.11715494 -0.011969227 -0.01348617 -0.06571206 0.018418372 -0.010209638
0.09152475 0.037097715 -0.006177921 0.05929099 -0.041121483 0.027186593 -0.038159575 0.09475491
-0.07718656 -0.03508016 0.122289665 0.059427284 0.06557372 -0.12767008 -0.056052793 -0.10402675
-0.089241825 0.00020203562 0.023259006 0.108469665 -0.015579901 -0.09102501 -0.062054664 0.06329298
0.059723545 -0.05648276 -0.088062994 -0.07528217 -0.07128166 0.028550902 0.009865359 0.11291568
0.08968611 0.018475305 0.014325723 0.0061261533 0.071408585 -0.101548165 0.05709214 0.013916142
00000000: ac21 8dbd eccf 7d3d 9c80 06be 824f de3c
00000010: 5af3 c1bd 3d88 d33c ed23 80bd 1620 b33c
00000020: 86d7 313d 4e7e 29bc 4ea8 323d 1dad a53d
00000030: 9c61 bcbd 6270 fcbd 1c65 813d 8bb7 e3bc
00000040: 9674 203c e9e2 19be eeee efbd 941a 44bc
00000050: 19f5 5cbc 0b94 86bd 20e2 963c 5346 27bc
00000060: 5471 bb3d c6f3 173d 2870 cabb 1cdb 723d
00000070: 006f 28bd 6bb6 de3c 374d 1cbd dd0e c23d
00000080: fd13 9ebd 37b0 0fbd 0173 fa3d 066a 733d
00000090: 844b 863d f2bb 02be 9d97 65bd fa0b d5bd
000000a0: 6bc4 b6bd 86d9 5339 ac89 be3c 5825 de3d
000000b0: d742 7fbc 526b babd 082d 7ebd c09f 813d
000000c0: ada0 743d 775a 67bd 5f5a b4bd 8a2d 9abd
000000d0: 1efc 91bd 95e3 e93c 51a2 213c 5640 e73d
000000e0: 5aad b73d 8659 973c 70b6 6a3c e6bd c83b
000000f0: aa3e 923d 7cf8 cfbd 73d9 693d 8800 643c

fc5.weight f4 [32, 64]
-0.050813906 -0.09773836 -0.06209548 0.053249475 0.05607253 0.057678346 0.033143662 -0.012028644
-0.022752488 -0.085220896 -0.023691762 0.11115014 -0.06677681 0.02492998 -0.06978759 -0.0059366673
-0.028794829 -0.119532764 0.08844191 -0.10407209 0.083551355 -0.042295694 -0.119814605 -0.0028730424
0.006050889 0.10171347 0.08612948 0.031826127 0.03894763 -0.03214109 0.092702605 0.10376229
-0.09086656 0.0655173 -0.050511196 0.09664184 -0.067357585 0.040328074 -0.03524041 0.023754934
0.022030266 -0.0651227 0.06995166 0.083455525 0.09689701 -0.017026912 -0.1176153 -0.064799935
-0.12904544 0.059821516 -0.07402779 -0.08265997 0.050234642 -0.12580611 -0.041550867 0.08050158
0.012862562 0.07312532 0.01772803 -0.05142457 -0.061175555 0.08025375 0.06494116 -0.1306141
-0.038862713 -0.0146205295 0.11416661 0.02251295 -0.0074068694 -0.0685733 -0.080936424 -0.05322374
-0.06418079 0.08572344 -0.050257996 0.04444386 -0.043246012 -0.011447305 -0.026814539 0.09117513
-0.120662615 0.022292912 -0.054647937 -0.111841545 -0.006947462 -0.06375837 -0.017049767 -0.015795274
-0.017284434 0.10158915 -0.09430445 -0.06226289 0.051288377 -0.03818241 0.045451134 -0.093174174
0.076050565 -0.07327017 -0.086760156 0.0339932 -0.084293425 -0.02955681 -0.09399854 0.06564599
-0.012376774 -0.0994109 -0.09827595 0.02782672 -0.035730846 0.09813654 0.005078037 0.0059789475
-0.08793329 -0.12594347 -0.018444225 0.07024744 -0.023804983 -0.02692813 -0.1136476 0.06516613
-0.10734663 -0.12749541 0.020887211 0.047678854 0.05840413 0.044110063 0.031682145 -0.024179386
-0.013397672 -0.07263283 -0.003817932 -0.03663637 -0.10901136 0.07263751 -0.10299631 0.024320532
-0.004658761 -0.086990304 0.029695367 0.1056834 0.07592132 -0.03417628 -0.11396652 0.07220359
-0.09346456 0.08729205 -0.013241664 0.054145757 -0.0615522 -0.1382632 -0.058989353 -0.05370113
-0.027974844 0.034041557 -0.13064928 -0.0007572228 -0.11489973 0.1083138 -0.06306547 -0.010230889
-0.12070755 0.004221308 0.047472317 0.014786418 0.014511796 -0.102941476 0.07431246 -0.121905215
0.034732863 0.10755063 0.020220941 -0.09153695 -0.088358745 -0.03293867 -0.0771503 0.08762477
0.08616685 0.08213408 0.07422407 -0.064043686 0.010604903 -0.0358056 0.10415205 -0.09186935
-0.056961186 0.032419838 0.023735527 0.07238918 0.07270374 0.013107824 0.093371384 0.10460294
-0.01029554 0.12449846 0.013977364 0.005308941 -0.03468053 -0.08354612 -0.0933187 0.075926006
-0.012812674 -0.098945424 -0.023673877 -0.10995479 0.021443129 -0.06103632 -0.047534227 0.081892386
0.09111205 -0.11907032 -0.04922594 -0.036904767 0.120081335 0.0030524582 -0.002777025 0.018769965
-0.003861785 -0.03178361 0.12310757 -0.11386633 0.07745227 -0.07563099 -0.021121755 -0.049770102
-0.054049045 -0.033181056 0.07311076 -0.104811296 -0.0040489435 0.042323977 0.10529533 0.0518443
-0.12016752 -0.0860538 -0.03347853 -0.0045832545 -0.118120044 -0.107442945 -0.12104285 -0.07994197
-0.057543322 -0.033211485 -0.021014929 -0.065580085 -0.1205488 -0.018976793 0.047612473 -0.0057473034
-0.08387828 0.11444548 -0.08341114 0.043789655 0.096378475 0.009136409 -0.086670995 -0.015192568
00000000: 3e22 50bd 0d2b c8bd d457 7ebd 1f1c 5a3d
00000010: 4fac 653d 2140 6c3d a6c1 073d ca13 45bc
00000020: 6d63 babc 4b88 aebd 3a15 c2bc afa2 e33d
00000030: 48c2 88bd f539 cc3c ccec 8ebd 6088 c2bb
00000040: 22e3 ebbc 98cd f4bd 0821 b53d bf23 d5bd
00000050: f91c ab3d 403e 2dbd 5c61 f5bd a749 3cbb
00000060: 8946 c63b 274f d03d a764 b03d 1d5c 023d
00000070: 8d87 1f3d 60a6 03bd ddda bd3d 5381 d43d
00000080: 3f18 babd ef2d 863d d4e4 4ebd 28ec c53d
00000090: c6f2 89bd 0d2f 253d 4058 10bd b599 c23c
000000a0: d178 b43c 0d5f 85bd d142 8f3d bbea aa3d
000000b0: f171 c63d 067c 8bbc 4ae0 f0bd d4b5 84bd
000000c0: 7d24 04be 6807 753d e29b 97bd a149 a9bd
000000d0: d7c2 4d3d 51d3 00be 3e31 2abd 03de a43d
000000e0: 7fbd 523c bac2 953d 603a 913c 92a2 52bd
000000f0: 3893 7abd 145c a43d dfff 843d b4bf 05be
00000100: 822e 1fbd f28a 6fbc 2fd0 e93d 146d b83c
00000110: 53b5 f2bb 2970 8cbd ffc1 a5bd 2301 5abd
00000120: 3871 83bd c58f af3d 54db 4dbd c40a 363d
00000130: bb22 31bd 7a8d 3bbc 2aaa dbbc 07ba ba3d
00000140: f61d f7bd a09f b63c 84d6 5fbd 2e0d e5bd
00000150: 89a7 e3bb c093 82bd f4ab 8bbc 1765 81bc
00000160: 1698 8dbc f90d d03d b122 c1bd 5f07 7fbd
00000170: c313 523d 2965 1cbd f82a 3a3d 1ad2 bebd
00000180: 66c0 9b3d ac0e 96bd 4faf b1bd 743c 0b3d
00000190: 08a2 acbd 2021 f2bc 4e82 c0bd 6871 863d
000001a0: f4c7 4abc f197 cbbd e744 c9bd ddf4 e33c
000001b0: 825a 12bd cffb c83d a965 a63b 0ceb c33b
000001c0: 5e16 b4bd 53f7 00be 5818 97bc e4dd 8f3d
000001d0: ab02 c3bc 6298 dcbc 13c0 e8bd d275 853d
000001e0: 8dd8 dbbd 288e 02be a81b ab3c e74a 433d
000001f0: 2b39 6f3d c1ac 343d 23c5 013d d913 c6bc
00000200: e981 5bbc 85c0 94bd 4536 7abb 0510 16bd
00000210: 5941 dfbd fac2 943d bbef d2bd da3b c73c
00000220: 85a8 98bb f927 b2bd b343 f33c 8a70 d83d
00000230: a37c 9b3d 6dfc 0bbd 4767 e9bd 7adf 933d
00000240: 596a bfbd 2dc6 b23d 90f3 58bc f1c7 5d3d
00000250: 291e 7cbd de94 0dbe d29e 71bd b7f5 5bbd
00000260: 802b e5bc 296f 0b3d edc8 05be 5d80 46ba
00000270: 8d50 ebbd a0d3 dd3d 7828 81bd 759f 27bc
00000280: 8535 f7bd e652 8a3b 5572 423d bb42 723c
00000290: e2c2 6d3c fbd2 d2bd 2231 983d 71a9 f9bd
000002a0: 0c44 0e3d 8143 dc3d 63a6 a53c b977 bbbd
000002b0: 6ef5 b4bd b3ea 06bd fa00 9ebd 9e74 b33d
000002c0: 3f78 b03d ea35 a83d ca02 983d 5629 83bd
000002d0: 30c0 2d3c e5a8 12bd ac4d d53d ff25 bcbd
000002e0: 2250 69bd aaca 043d 0271 c23c c740 943d
000002f0: b3e5 943d 33c2 563c 7f39 bf3d 113a d63d
00000300: a0ae 28bc 0cf9 fe3d 5001 653c a0f6 ad3b
00000310: 2c0d 0ebd 3a1a abbd e01d bfbd 187f 9b3d
00000320: 40ec 51bc e6a3 cabd b8ef c1bc fa2f e1bd
00000330: 80a9 af3c 3801 7abd 40b3 42bd 32b7 a73d
00000340: f498 ba3d 24db f3bd 24a1 49bd 7429 17bd
00000350: 34ed f53d c00b 483b c0fe 35bb 78c3 993c
00000360: 0016 7dbb 882f 02bd d21f fc3d c032 e9bd
00000370: 4c9f 9e3d 6ce4 9abd 8807 adbc bcdb 4bbd
00000380: 8862 5dbd dce8 07bd 18bb 953d 4ea7 d6bd
00000390: 00ad 84bb e85b 2d3d 14a5 d73d b05a 543d
000003a0: 641a f6bd fa3c b0bd c820 09bd 202f 96bb
000003b0: ece8 f1bd 0c0b dcbd 50e5 f7bd 9eb8 a3bd
000003c0: 8cb2 6bbd c408 08bd 8027 acbc da4e 86bd
000003d0: 4ae2 f6bd 3875 9bbc 4c05 433d e053 bcbb
000003e0: 60c8 abbd 6462 ea3d 76d3 aabd c85c 333d
000003f0: 1462 c53d e0b0 153c 9080 b1bd 40ea 78bc

fc5.bias f4 [32]
0.038152773 0.066704884 0.05020312 0.00028795004 0.06646668 -0.10223425 -0.120306686 0.090976775
-0.0674209 0.051625982 -0.025627615 -0.14574485 -0.039238017 0.09758705 -0.047914613 0.13094161
0.07216978 -0.081049055 0.09445413 0.09133797 0.094792545 -0.10804305 -0.0038665952 -0.07568643
0.08942352 0.027565662 0.009511083 -0.10501802 -0.084492005 0.09570353 0.05767486 -0.00018858106
00000000: 1546 1c3d 929c 883d c9a1 4d3d 00f8 9639
00000010: af1f 883d 3160 d1bd 5a63 f6bd 0852 ba3d
00000020: f813 8abd c475 533d 01f1 d1bc 233e 15be
00000030: 0bb8 20bd b8db c73d 1d42 44bd 8f15 063e
00000040: c0cd 933d 0cfd a5bd 2b71 c13d 670f bb3d
00000050: 9822 c23d ad45 ddbd b466 7dbb 7d01 9bbd
00000060: ae23 b73d 62d1 e13c 60d4 1b3c b013 d7bd
00000070: 250a adbd 3600 c43d 793c 6c3d d8bd 45b9

fc6.weight f4 [32, 32]
0.15139703 -0.14261718 0.08883807 -0.051560342 -0.12247289 -0.18354787 0.1633411 -0.03605815
-0.00961786 -0.08307928 0.034555588 -0.087540776 0.13208416 -0.12825312 0.008901946 -0.045230012
0.16511093 -0.09994033 -0.14634179 -0.07414266 -0.02627676 -0.11065201 0.09819844 -0.0025262972
0.15681362 -0.09470683 0.025482744 0.10386567 0.16981147 -0.056535102 -0.13153327 -0.022536978
0.09463409 0.085536666 0.112426296 -0.070724286 -0.1524518 -0.11299791 -0.07338735 -0.05506774
-0.027862126 -0.035243746 -0.0058466676 0.0509704 -0.15140222 0.0849445 0.0743342 0.1215549
0.08160027 0.15228681 -0.0671502 -0.11090402 0.0330275 -0.13715166 0.15558033 -0.02941943
0.06951226 0.113540895 -0.115899384 -0.008407138 0.032885857 0.151117 0.14540271 -0.02501732
-0.07797404 -0.060599085 0.13577068 0.17127569 0.13414401 -0.05502386 -0.09897972 0.027980482
-0.06556515 -0.09332073 0.07843248 0.12399931 0.075930096 0.11565397 0.13241215 -0.057332236
0.1190906 0.100089625 -0.15359211 0.14616244 -0.13786912 -0.10809162 -0.15796413 0.05470291
0.1483384 -0.06865979 0.06416099 -0.17945224 -0.010062801 0.031347066 0.14052603 0.17049555
-0.07663825 0.009403676 -0.10899792 -0.13513824 -0.024077322 0.09213088 -0.09182754 0.09432093
-0.04243279 -0.082043715 -0.031703874 0.14883682 -0.13018513 0.0250037 0.111689396 0.11286368
0.05103146 -0.13250536 -0.071544446 -0.010585545 -0.22043628 -0.14314003 0.029343527 -0.038829762
0.0612955 -0.049934402 -0.101570636 -0.012191392 -0.044505462 0.11212383 0.10225947 -0.022186488
0.079840966 0.090539195 -0.09492859 -0.004372403 -0.09635971 0.118751794 0.03469749 -0.2353925
-0.0676176 -0.21887818 0.09860151 0.0016177979 0.06851969 -0.116617754 0.13764946 0.10968439
-0.16873817 0.011637166 0.101087816 -0.02002516 0.038110446 -0.027974531 -0.041303016 0.15138805
-0.18730636 0.09570764 -0.0857363 -0.10974708 -0.16514134 -0.12226994 -0.04482323 0.0065965415
0.045720484 0.09688484 -0.16535012 -0.14835024 -0.052084994 0.07722505 -0.04952452 -0.0971177
0.13010465 -0.120684706 -0.021904064 -0.16957927 0.0074450476 0.023902524 0.1335587 -0.073263995
0.12544672 0.09815632 -0.111276306 0.11707803 0.01048645 -0.03427289 0.14880893 0.17292805
0.1115827 0.08625975 0.013514489 0.10751085 -0.10969818 -0.15313005 -0.027622955 0.104201786
-0.17853317 0.10458128 -0.08128808 0.01771143 0.0013581136 0.16261321 -0.118365794 0.039070945
-0.0055632284 0.0033553676 0.16257574 0.14114332 -0.04499709 0.07858393 0.15869738 0.051087372
0.13504188 0.024573505 0.12863538 0.072459124 0.15318035 0.13470289 -0.12963663 -0.11833915
0.0712282 0.031111367 -0.17288049 0.12082177 -0.03399069 -0.032029442 0.053999186 -0.052513454
-0.084781095 -0.091368094 0.10258806 0.023612976 0.1536277 0.06575763 0.1073641 0.024614628
0.08289178 0.10579373 0.110378884 -0.07657028 -0.027237572 -0.018447423 -0.14152344 0.13622604
-0.11593996 -0.11616963 0.00038323246 -0.1303939 0.07883602 -0.10712668 0.033906937 -0.060577944
0.0077506835 0.15344386 -0.096052796 0.03513415 -0.07655481 0.0022351458 -0.042504136 -0.10855721
00000000: d307 1b3e 3d0a 12be bcf0 b53d f030 53bd
00000010: 11d3 fabd f9f3 3bbe e442 273e b6b1 13bd
00000020: 3b94 1dbc 7825 aabd 298a 0d3d 9448 b3bd
00000030: 1241 073e c954 03be 78d9 113c 1b43 39bd
00000040: d712 293e 84ad ccbd 9fda 15be 1bd8 97bd
00000050: 5c42 d7bc 859d e2bd 441c c93d 3c90 25bb
00000060: c093 203e a8f5 c1bd 30c1 d03c 86b7 d43d
00000070: 0fe3 2d3e 5a91 67bd a8b0 06be 789f b8bc
00000080: 85cf c13d d92d af3d c23f e63d e5d7 90bd
00000090: 531c 1cbe 736b e7bd 1b4c 96bd b68e 61bd
000000a0: 1d3f e4bc bf5b 10bd 6795 bfbb 57c6 503d
000000b0: 2f09 1bbe 62f7 ad3d 873c 983d c7f1 f83d
000000c0: 0b1e a73d 13f1 1b3e 0b86 89bd a621 e3bd
000000d0: d847 073d 7c71 0cbe 7350 1f3e 0401 f1bc
000000e0: 725c 8e3d 2188 e83d a85c edbd 18be 09bc
000000f0: 52b3 063d 6abe 1a3e 73e4 143e 1ff1 ccbc
00000100: dab0 9fbd bf36 78bd 7807 0b3e e562 2f3e
00000110: 0c5d 093e b360 61bd e1b5 cabd 5337 e53c
00000120: 0547 86bd f01e bfbd 35a1 a03d 5af3 fd3d
00000130: 3d81 9b3d fddb ec3d 0d97 073e 35d5 6abd
00000140: c6e5 f33d cafb cc3d 4047 1dbe 9bab 153e
00000150: 902d 0dbe 245f ddbd 59c1 21be 2910 603d
00000160: 06e6 173e 819d 8cbd d666 833d 54c2 37be
00000170: 72de 24bc c865 003d 0ee6 0f3e 6396 2e3e
00000180: 84f4 9cbd e011 1a3c 4d3a dfbd ae61 0abe
00000190: ce3d c5bc 1daf bc3d 1410 bcbd 552b c13d
000001a0: 01ce 2dbd 8906 a8bd ecdb 01bd ae68 183e
000001b0: 404f 05be 8fd4 cc3c 69bd e43d 1325 e73d
000001c0: 5d06 513d 7caf 07be e585 92bd fe6e 2dbc
000001d0: 0cba 61be 4d93 12be d661 f03c f50b 1fbd
000001e0: fd10 7b3d 0488 4cbd 4404 d0bd 67be 47bc
000001f0: 5c4b 36bd 2ea1 e53d 6a6d d13d 70c0 b5bc
00000200: a983 a33d 9d6c b93d ec69 c2bd 6046 8fbb
00000210: 3d58 c5bd 2434 f33d f51e 0e3d bb0a 71be
00000220: 197b 8abd 9a21 60be 97ef c93d 4a0c d43a
00000230: 0d54 8c3d 4ad5 eebd fbf3 0c3e 36a2 e03d
00000240: b3c9 2cbe d0a9 3e3c 2107 cf3d ce0b a4bc
00000250: b319 1c3d d82a e5bc 5a2d 29bd 7805 1b3e
00000260: 3dcd 3fbe 5e02 c43d 8396 afbd 14c3 e0bd
00000270: d01a 29be aa68 fabd 9098 37bd cd27 d83b
00000280: 6745 3b3d 8f6b c63d 8b51 29be 20e9 17be
00000290: 1357 55bd 2b28 9e3d 39da 4abd a5e5 c6bd
000002a0: 273a 053e 8b29 f7bd 2770 b3bc 30a6 2dbe
000002b0: 96f5 f33b 3acf c33c 9dc3 083e 6f0b 96bd
000002c0: 1b75 003e 2e06 c93d d5e4 e3bd 9bc6 ef3d
000002d0: 5ccf 2b3c bb61 0cbd 5e61 183e 0d14 313e
000002e0: 7885 e43d f4a8 b03d e06b 5d3c a62e dc3d
000002f0: 70a9 e0bd 20ce 1cbe 8949 e2bc bf67 d53d
00000300: 66d1 36be b62e d63d 5d7a a6bd 9017 913c
00000310: bb02 b23a 1484 263e c469 f2bd db08 203d
00000320: be4b b6bb bae5 5b3b 417a 263e e087 103e
00000330: de4e 38bd 9df0 a03d 9181 223e fe40 513d
00000340: 6b48 0a3e 604e c93c feb8 033e 7365 943d
00000350: 4fdb 1c3e 8eef 093e 77bf 04be cc5b f2bd
00000360: 17e0 913d 44dd fe3c 9507 31be 6771 f73d
00000370: d239 0bbd 4e31 03bd 402e 5d3d 5918 57bd
00000380: b6a1 adbd 321f bbbd b019 d23d 0070 c13c
00000390: 9450 1d3e f0ab 863d b6e1 db3d 9ea4 c93c
000003a0: 2ac3 a93d 62aa d83d 530e e23d e1d0 9cbd
000003b0: 5421 dfbc 0d1f 97bc 85eb 10be d77e 0b3e
000003c0: ee71 edbd 58ea edbd 97ec c839 fb85 05be
000003d0: c774 a13d 3c65 dbbd 00e2 0a3d 9420 78bd
000003e0: 72f9 fd3b 6320 1d3e 54b7 c4bd d4e8 0f3d
000003f0: c5c8 9cbd 867b 123b d118 2ebd 3e53 debd

fc6.bias f4 [32]
0.071125895 0.084840395 0.06743783 0.16244969 -0.16790468 -0.17189477 0.07653362 0.048764024
0.14402707 -0.035841856 0.013677749 0.14926188 -0.1264604 0.04325737 -0.14782941 0.023256911
0.06066293 -0.050091747 -0.12941542 -0.0069718515 0.021794187 -0.04989381 0.15308939 0.06382047
-0.032583322 -0.16633163 0.092283405 -0.10158741 -0.12902126 0.1408974 -0.13330965 0.06546727
00000000: 74aa 913d cdc0 ad3d d81c 8a3d 3659 263e
00000010: 34ef 2bbe 2f05 30be a9bd 9c3d c9bc 473d
00000020: d57b 133e e9ce 12bd a318 603c 1bd8 183e
00000030: d67e 01be a42e 313d 9860 17be 4785 be3c
00000040: b179 783d 012d 4dbd 7a85 04be 2174 e4bb
00000050: b989 b23c 745d 4cbd 77c3 1c3e 4eb4 823d
00000060: 1776 05bd d752 2abe 15ff bc3d 0f0d d0bd
00000070: 261e 04be 6847 103e 5382 08be b413 863d
