model/trained_model.pth (torch, 206107 bytes, 14 tensors)

fc1.weight f4 [128, 141]
0.033538595 -0.07789628 0.013710297 0.003125702 -0.03545539 -0.050496005 0.124958344 0.014223966
-0.03011986 0.061476506 0.07844427 -0.0014731744 0.008741849 -0.066029884 0.0696463 0.06860355
-0.04175212 0.107187904 -0.054129492 -0.038996737 0.018291764 0.10614467 0.06628799 0.05344126
-0.016775733 0.041230343 -0.055903345 -0.0277303 0.012501071 -0.0727408 -0.011232635 0.049973365
0.027569387 0.055021565 0.10645083 0.04306636 0.047314372 -0.08133404 -0.099337846 0.01981696
-0.04400042 -0.023901148 0.008096368 0.009449737 -0.045781005 0.014597407 -0.09830375 0.06943707
0.0020800964 0.06740683 0.059943695 0.02996971 0.0032724338 0.041968256 0.08236011 0.06769008
0.01839413 0.0123645235 -0.0630537 -0.037990555 -0.060014416 0.065717444 -0.06258735 0.04746624
0.106283836 0.07376198 0.16000031 0.2669868 0.14918905 -0.05022009 -0.06430439 0.088742845
-0.042947527 -0.086893536 -0.1258912 -0.13338739 -0.022781042 -0.045352466 -0.08203745 -0.091201924
-0.09515649 -0.037564393 0.037038587 0.036580656 -0.018824205 -0.03616359 -0.03576492 -0.081560865
-0.1159233 -0.04309706 -0.11586773 0.45066988 0.061854996 0.044457924 -0.082288206 -0.09007127
0.027000584 0.37900978 -0.10954104 0.07406416 0.12104254 0.09606913 0.09599623 0.027170053
-0.0029195438 0.050255507 -0.19800024 -0.13870667 -0.12723619 -0.06376364 -0.11177827 0.07006374
0.037144557 -0.04004611 -0.063833594 0.03581164 -0.07879844 0.14409748 -0.038584467 0.045893732
0.13538049 0.1764009 0.21029796 0.16248544 0.012101475 0.074169666 0.16026668 0.7237943
0.04892548 -0.41730243 -0.36258537 -0.50440425 -0.30924565 0.012290519 -0.27793348 0.060573705
0.05898774 -0.06629455 0.06272296 -0.038988173 -0.077558644 0.03796831 0.014722399 -0.040498793
-0.037611555 0.048551384 -0.027567888 -0.18752763 -0.018518437 -0.053791862 -0.053105507 0.064833514
-0.03812541 -0.05517451 -0.06533446 0.0029619029 0.06597914 -0.063816965 -0.009624125 0.030434469
0.07632289 0.071284294 0.06377329 0.04932356 0.088107586 0.036622398 0.0518576 0.0783147
0.05113612 -0.0072123427 0.0032091113 0.02474898 -0.027587472 0.061626438 0.017020138 0.0095203165
0.05796883 0.0025282926 -0.037132766 -0.020068185 0.057597846 -0.018348193 -0.05854021 -0.016149111
-0.04410541 0.0057343543 0.0043646963 0.02762891 0.05101246 0.043195095 0.007936031 -0.077446
-0.07180868 -0.06879717 -0.0804985 0.064194836 -0.0037747943 -0.056064833 -0.07271489 0.124197744
0.13417703 -0.031173518 -0.032919914 0.0205326 0.030787226 -0.015284458 -0.057741087 -0.0027412467
-0.041603792 0.0094700325 0.14558853 0.034995344 -0.015948894 0.0851587 0.10851775 0.12375564
-0.08496363 -0.038369387 -0.06364855 -0.07999979 0.0909653 -0.11021352 0.07710939 -0.06816913
-0.037449244 -0.060879186 -0.004889199 0.02847078 0.07740193 0.009363138 0.07702696 0.091241516
-0.35226673 0.057902776 -0.03766463 -0.016846044 -0.01634527 -0.1218614 -0.08346898 -0.042891182
-0.01293239 0.046487883 -0.039066438 -0.0033112545 -0.4940237 -0.104682386 -0.07146465 0.018897926
-0.104484074 -0.055432867 0.018487848 0.05390977 -0.10875624 -0.019845985 -0.034266785 -0.057743773
00000000: c45f 093d 1688 9fbd 27a1 603c 94d8 4c3b
00000010: ac39 11bd e6d4 4ebd 29ea ff3d a30b 693c
00000020: edbd f6bc cace 7b3d 64a7 a03d 8817 c1ba
00000030: f939 0f3c ad3a 87bd b8a2 8e3d 0580 8c3d
00000040: 4504 2bbd 5585 db3d e3b6 5dbd 0bbb 1fbd
00000050: 9cd8 953c 6062 d93d ffc1 873d 39e5 5a3d
00000060: 436d 89bc 26e1 283d e8fa 64bd a72a e3bc
00000070: 4bd1 4c3c 21f9 94bd 1609 38bc dfb0 4c3d
00000080: 32d9 e13c 4b5e 613d e502 da3d 5a66 303d
00000090: b7cc 413d 7692 a6bd a471 cbbd 2d57 a23c
000000a0: c939 34bd 57cc c3bc a1a6 043c 12d3 1a3c
000000b0: dd84 3bbd f629 6f3c 7a53 c9bd 0635 8e3d
000000c0: 3a52 083b 980c 8a3d 8587 753d 0a83 f53c
000000d0: 5476 563b e8e6 2b3d 6bac a83d 19a1 8a3d
000000e0: 49af 963c 9294 4a3c 4c22 81bd fc9b 1bbd
000000f0: add1 75bd de96 863d cc2d 80bd f66b 423d
00000100: 57ab d93d 8510 973d 1fd7 233e 7eb2 883e
00000110: 04c5 183e 95b3 4dbd 05b2 83bd cfbe b53d
00000120: bfe9 2fbd 3df5 b1bd 9fe9 00be b496 08be
00000130: 4f9f babc 82c3 39bd 4003 a8bd 13c8 babd
00000140: 68e1 c2bd 1fdd 19bd c6b5 173d 99d5 153d
00000150: 3835 9abc 4620 14bd 3d7e 12bd 6209 a7bd
00000160: 3269 edbd 8b86 30bd 0f4c edbd 34be e63e
00000170: aa5b 7d3d 8319 363d b886 a8bd 4977 b8bd
00000180: 5430 dd3c 920d c23e 0e57 e0bd f3ae 973d
00000190: 27e5 f73d e4bf c43d ac99 c43d bb93 de3c
000001a0: d155 3fbb b8d8 4d3d 93c0 4abe 1f09 0ebe
000001b0: 344a 02be 8396 82bd 01ec e4bd 947d 8f3d
000001c0: e424 183d 6407 24bd 30bb 82bd 3aaf 123d
000001d0: 1461 a1bd 4a8e 133e bf0a 1ebd 11fb 3b3d
000001e0: 2fa1 0a3e 70a2 343e 5958 573e 9562 263e
000001f0: 4445 463c 44e6 973d f31c 243e 954a 393f
00000200: 1666 483d aaa8 d5be caa4 b9be a320 01bf
00000210: 7255 9ebe 2c5e 493c 4c4d 8ebe 221c 783d
00000220: 219d 713d 70c5 87bd e574 803d 10b2 1fbd
00000230: 11d7 9ebd a984 1b3d 3836 713c 10e2 25bd
00000240: 930e 1abd d1dd 463d 0dd6 e1bc 3e07 40be
00000250: fab3 97bc db54 5cbd 2985 59bd 6fc7 843d
00000260: 6429 1cbd abfe 61bd 13ce 85bd 7c1c 423b
00000270: 1220 873d 78b2 82bd 82ae 1dbc b551 f93c
00000280: 2d4f 9c3d 80fd 913d 929b 823d 8007 4a3d
00000290: c071 b43d 5e01 163d a368 543d 7563 a03d
000002a0: 1c74 513d 8455 ecbb f44f 523b 5fbe ca3c
000002b0: 1fff e1bc 016c 7c3d d16d 8b3c 1afb 1b3c
000002c0: b970 6d3d b6b1 253b 8718 18bd 0966 a4bc
000002d0: b8eb 6b3d f34e 96bc dcc7 6fbd 244b 84bc
000002e0: e0a7 34bd 40e7 bb3b ba05 8f3b 0656 e23c
000002f0: 71f2 503d 57ed 303d 2006 023c 029c 9ebd
00000300: 6e10 93bd 88e5 8cbd 66dc a4bd 9578 833d
00000310: 8a62 77bb 3da4 65bd 8beb 94bd 635b fe3d
00000320: b465 093e 9b5f ffbc 08d7 06bd fc33 a83c
00000330: 7e35 fc3c aa6b 7abc eb81 6cbd 7da6 33bb
00000340: bd68 2abd 3228 1b3c 2915 153e 4757 0f3d
00000350: 41a7 82bc af67 ae3d 8e3e de3d 9973 fd3d
00000360: 6901 aebd 3829 1dbd 2c5a 82bd eed6 a3bd
00000370: 044c ba3d a0b7 e1bd 87eb 9d3d 429c 8bbd
00000380: 6164 19bd 745c 79bd 9335 a0bb 8e3b e93c
00000390: e784 9e3d d967 193c 50c0 9d3d d5dc ba3d
000003a0: 4e5c b4be 762b 6d3d 3a46 1abd b700 8abc
000003b0: 84e6 85bc 7892 f9bd c9f1 aabd aaae 2fbd
000003c0: 60e2 53bc 146a 3e3d 2104 20bd a201 59bb
000003d0: adf0 fcbe b863 d6bd 0f5c 92bd d3cf 9a3c
000003e0: bffb d5bd 930d 63bd d473 973c 7ed0 5c3d
000003f0: 97bb debd 0c94 a2bc 545b 0cbd bc84 6cbd

fc1.bias f4 [128]
-0.011651101 0.07144032 0.023287946 0.040482778 0.06909031 0.017621454 -0.078526616 0.009964332
0.048477277 -0.0603405 -0.05303042 -0.022952046 -0.09935366 -0.044061165 0.03544649 0.065174825
-0.019183971 0.067422375 0.062757716 0.00016212795 0.07129568 -0.064150654 0.040861715 -0.052003693
-0.04283325 -0.05162999 -0.0033969511 0.04528882 0.0922057 -0.026456766 -0.019548928 0.04582587
-0.086145155 -0.03814223 0.0726567 -0.056216408 -0.087579474 0.010591765 0.0014657751 0.09604808
0.075040735 -0.008407854 -0.019355038 0.0069332123 -0.013275998 -0.009534001 -0.08640153 -0.0944302
0.056034043 0.03690064 0.053891666 0.053383682 -0.027687738 -0.050465625 -0.023771988 0.024961324
-0.053670824 0.051167425 0.020133764 0.035030305 -0.06733688 -0.0704314 -0.008588051 0.105310164
0.034907777 -0.060030654 -0.042322263 -0.06890917 0.01578264 -0.08580248 0.07067435 -0.054135174
0.044127222 -0.07031814 0.026865529 0.0078083575 -0.0062096864 -0.023721404 0.009359546 -0.021122864
-0.03763588 -0.017261975 -0.001808688 -0.08274123 0.011078131 0.036573783 0.020456066 0.0634119
0.07932872 0.03767833 -0.03601519 -0.045775667 0.065521255 0.028925413 -0.07324417 -0.07837477
0.01384624 -0.06877265 0.07885466 -0.0005733878 0.02003336 -0.06694406 -0.08050405 0.0053284457
0.04786006 -0.07550566 -0.051396478 -0.006006489 0.07446761 0.06360968 -0.080459096 0.0025772268
0.06984566 0.026519584 0.021800062 -0.053314306 -0.073183715 -0.022276457 0.030812286 -0.063086405
0.031171978 0.055883627 0.017589964 -0.054172654 -0.07230771 -0.040927853 -0.035504308 -0.08093124
00000000: 42e4 3ebc 4d4f 923d 5dc6 be3c 45d1 253d
00000010: 387f 8d3d de5a 903c 90d2 a0bd 7041 233c
00000020: 1c90 463d 9a27 77bd 6d36 59bd ee05 bcbc
00000030: ef79 cbbd 7b79 34bd 5730 113d 617a 853d
00000040: b427 9dbc be14 8a3d 1e87 803d e400 2a39
00000050: 7803 923d 6b61 83bd 9d5e 273d d301 55bd
00000060: eb71 2fbd f879 53bd 629f 5ebb c580 393d
00000070: 58d6 bc3d dcbb d8bc 1325 a0bc e8b3 3b3d
00000080: df6c b0bd 073b 1cbd 09cd 943d 2d43 66bd
00000090: de5c b3bd 1589 2d3c 401f c03a dbb4 c43d
000000a0: f5ae 993d 18c1 09bc 758e 9ebc 0030 e33b
000000b0: 9283 59bc 8034 1cbc 49f3 b0bd 9f64 c1bd
000000c0: f483 653d 2025 173d 82bd 5c3d d9a8 5a3d
000000d0: 65d1 e2bc 0bb5 4ebd 79bd c2bc b17b cc3c
000000e0: f0d5 5bbd ef94 513d 90ef a43c f07b 0f3d
000000f0: ebe7 89bd 563e 90bd e6b4 0cbc dbac d73d
00000100: 75fb 0e3d b4e2 75bd 1c5a 2dbd 4020 8dbd
00000110: 984a 813c 36b9 afbd b7bd 903d d8bc 5dbd
00000120: bfbe 343d f502 90bd 1915 dc3c 40dd ff3b
00000130: a07a cbbb 6453 c2bc c858 193c db09 adbc
00000140: 1528 1abd fc68 8dbc 8011 edba 3c74 a9bd
00000150: 0d81 353c 64ce 153d 7b93 a73c 19de 813d
00000160: 1977 a23d 9854 1a3d aa84 13bd 447f 3bbd
00000170: 0230 863d fdf4 ec3c 0a01 96bd f482 a0bd
00000180: 57db 623c add8 8cbd 8d7e a13d 674f 16ba
00000190: 001d a43c f819 89bd 4fdf a4bd 3e9a ae3b
000001a0: e908 443d b6a2 9abd 1d85 52bd 15d2 c4bb
000001b0: 7982 983d cb45 823d bdc7 a4bd b1e6 283b
000001c0: 3e0b 8f3d 993f d93c 0b96 b23c 1a60 5abd
000001d0: 58e1 95bd 1e7d b6bc 0c6a fc3c 7233 81bd
000001e0: 605c ff3c 3be6 643d d418 903c 25e4 5dbd
000001f0: 1116 94bd f7a3 27bd f76c 11bd 47bf a5bd

fc2.weight f4 [128, 128]
0.10265392 -0.005887615 0.073576085 -0.006608064 0.019471696 0.108579494 0.05803489 -0.026782066
-0.04572758 0.017201334 -0.015362754 0.022549883 -0.02796158 -0.15983206 0.037318774 -0.012761212
0.050730176 -0.051067922 -0.052397024 -0.004864845 0.102155104 0.004894036 0.022506109 -0.061121367
-0.08670561 -0.04117924 -0.016854076 0.027379777 0.037941106 0.06723671 0.03996718 0.010967782
-0.0063616615 -0.012677843 -0.08847562 0.0130540095 0.07885741 -0.055222776 0.027147345 -0.021369372
-0.024832835 0.047464713 0.042121384 -0.045905367 0.0056570238 -0.011612438 0.03895274 0.074127495
-0.0013125762 0.010898121 0.048216205 -0.003167202 0.09633471 0.037975956 -0.023946377 -0.00667601
0.058342256 0.083373606 0.08095526 0.07378974 -0.07245125 -0.059838094 0.068959065 -0.019171001
-0.102577165 0.026174653 -0.035440035 -0.013242287 0.068898685 0.068887316 0.012628382 0.028815344
0.028103271 -0.07699449 0.1481718 0.06337657 0.058554463 0.040740576 -0.038696054 -0.051019616
-0.04962567 -0.017879415 0.055345543 -0.06593133 -0.051419985 0.012174538 0.019286199 0.017099338
-0.0016027016 0.00025201123 0.076991566 0.06366809 0.059655156 -0.041249678 0.018266795 0.09029194
0.034372937 -0.0017433675 -0.00829337 0.07979654 0.090437286 -0.05023869 0.08968749 -0.065164655
0.025712965 -0.06249074 -0.05588925 0.044829216 -0.09085891 -0.06485564 -0.043190554 -0.039836
0.0032931818 -0.06820734 0.048023213 0.01235706 -0.05051661 0.04099887 -0.08254558 0.005662751
0.06501647 -0.07208861 0.08439822 0.03567048 -0.0094845 0.023713464 0.01617004 -0.072601415
-0.0151354605 0.02141323 0.06731651 -0.046623014 0.06128625 -0.009711434 -0.021356411 -0.022382803
0.05142259 -0.070206635 0.029246228 0.08760775 0.06458129 0.03453725 -0.047819547 -0.068358384
0.08421446 0.054419965 0.045251183 0.036792763 -0.06342074 -0.056009475 -0.07537461 -0.043844763
-0.0062993946 0.08287095 0.04549002 -0.017734237 -0.059602223 -0.09111435 -0.034280155 -0.0091754
0.06681997 0.0066226767 -0.041159756 0.0034581851 -0.011687435 -0.026882652 -0.0319561 0.06502871
0.0007329421 -0.08222114 0.024349015 -0.04229919 -0.026556015 -0.06588356 0.057331648 0.030100157
-0.048694223 -0.051247966 -0.017778696 0.08081785 0.028140351 0.051955614 0.077912375 -0.0608276
-0.093996786 -0.008044037 0.07371084 -0.039953463 0.004038711 -0.034607008 0.003349137 -0.06413764
0.043806054 -0.030584702 0.07524268 0.029672988 -0.070596606 -0.09340015 -0.029302353 -0.07628902
-0.032112867 -0.023896722 0.026152022 0.07103052 -0.07548369 -0.017099142 0.04301334 -0.017369159
0.050475366 0.024126675 -0.04464071 0.025778465 -0.08631709 -0.051183708 -0.051380027 0.02421311
0.0513783 -0.042398278 0.02217138 -0.0677973 0.03950511 0.06329127 0.0014704118 0.015206854
0.047125425 -0.06476951 0.04580718 -0.017274186 -0.009848147 -0.08581874 0.02252666 0.06905329
-0.09467381 0.07833492 0.07823887 -0.01526519 0.04306127 -0.09476862 -0.03919488 0.027172707
-0.05305524 0.0520366 -0.010510357 0.013102513 0.04483645 0.05119046 0.058276556 0.04636014
-0.03362543 0.006159255 0.017966155 -0.004118426 0.012057519 0.02758064 0.030570002 0.028623054
00000000: 383c d23d e5ec c0bb 0faf 963d 7588 d8bb
00000010: 1b83 9f3c ed5e de3d feb5 6d3d 1066 dbbc
00000020: d84c 3bbd d0e9 8c3c 10b4 7bbc 88ba b83c
00000030: af0f e5bc 04ab 23be 92db 183d 6714 51bc
00000040: 72ca 4f3d 992c 51bd 439e 56bd 4769 9fbb
00000050: b236 d13d 265e a03b bb5e b83c 665a 7abd
00000060: b692 b1bd 90ab 28bd 8f11 8abc 8e4b e03c
00000070: 2268 1b3d 66b3 893d a0b4 233d 36b2 333c
00000080: 7c75 d0bb bab6 4fbc b532 b5bd 7ce0 553c
00000090: fe7f a13d 4731 62bd 1c64 de3c d20e afbc
000000a0: 3b6e cbbc 5c6a 423d 7987 2c3d 4407 3cbd
000000b0: 8e5e b93b 1842 3ebc e98c 1f3d 28d0 973d
000000c0: c00a acba 088e 323c 5b7e 453d d590 4fbb
000000d0: 224b c53d ad8c 1b3d 312b c4bc 6ec2 dabb
000000e0: 4af8 6e3d c8bf aa3d dfcb a53d 131f 973d
000000f0: 5261 94bd ca18 75bd 693a 8d3d 810c 9dbc
00000100: fa13 d2bd 3a6c d63c 9229 11bd 2df6 58bc
00000110: c11a 8d3d cb14 8d3d 46e7 4e3c 280e ec3c
00000120: d538 e63c 4aaf 9dbd 59ba 173e 93cb 813d
00000130: ced6 6f3d 97df 263d c17f 1ebd f2f9 50bd
00000140: 4944 4bbd da77 92bc 02b2 623d 0107 87bd
00000150: c39d 52bd b777 473c 17fe 9d3c e913 8c3c
00000160: be11 d2ba 6020 8439 c1ad 9d3d 6a64 823d
00000170: f758 743d 6cf5 28bd 3fa4 953c fbea b83d
00000180: a3ca 0c3d b581 e4ba eae0 07bc 5e6c a33d
00000190: 2f37 b93d 16c7 4dbd 13ae b73d 0c75 85bd
000001a0: ffa3 d23c 4af6 7fbd 20ec 64bd d79e 373d
000001b0: 3c14 babd 09d3 84bd 94e8 30bd 132b 23bd
000001c0: 6cd2 573b 4ab0 8bbd fdb3 443d 4475 4a3c
000001d0: 81ea 4ebd 6eee 273d a80d a9bd 998e b93b
000001e0: 5b27 853d 31a3 93bd f9d8 ac3d 361b 123d
000001f0: e064 1bbc bd42 c23c 0877 843c 0db0 94bd
00000200: b9fa 77bc cc6a af3c 3ddd 893d c6f7 3ebd
00000210: 4a07 7b3d b51c 1fbc a4f3 aebc 245c b7bc
00000220: 7ea0 523d 7fc8 8fbd c995 ef3c b16b b33d
00000230: 3243 843d ee76 0d3d 6ede 43bd 7bff 8bbd
00000240: a178 ac3d 78e7 5e3d 4e59 393d 02b4 163d
00000250: bce2 81bd 316a 65bd 015e 9abd 9196 33bd
00000260: 276b cebb 3fb8 a93d be53 3a3d 6447 91bc
00000270: 7621 74bd 299a babd 5969 0cbd 6b54 16bc
00000280: e9d8 883d 0a03 d93b 2297 28bd b8a2 623b
00000290: a87c 3fbc 0239 dcbc 66e4 02bd c62d 853d
000002a0: e922 403a 8f63 a8bd 9677 c73c ea41 2dbd
000002b0: 008c d9bc f6ed 86bd 97d4 6a3d 9b94 f63c
000002c0: 9873 47bd 63e9 51bd a1a4 91bc d483 a53d
000002d0: 9886 e63c 69cf 543d 8690 9f3d 5d26 79bd
000002e0: 6381 c0bd 23cb 03bc b5f5 963d 3ea6 23bd
000002f0: 2a57 843b 14c0 0dbd 327d 5b3b 985a 83bd
00000300: fa6d 333d c58c fabc d618 9a3d c414 f33c
00000310: f494 90bd 9448 bfbd 7d0b f0bc 6b3d 9cbd
00000320: c888 03bd 0fc3 c3bc c43c d63c 7378 913d
00000330: 3197 9abd 8013 8cbc c22e 303d c449 8ebc
00000340: 42bf 4e3d 4ea5 c53c 2dd9 36bd 5c2d d33c
00000350: 04c7 b0bd 02a6 51bd dd73 52bd 925a c63c
00000360: 0d72 523d d1a9 2dbd c1a0 b53c 50d9 8abd
00000370: 1cd0 213d da9e 813d d5ba c03a 2b26 793c
00000380: 9706 413d e0a5 84bd 4fa0 3b3d 9882 8dbc
00000390: 1f5a 21bc bcc1 afbd d489 b83c d06b 8d3d
000003a0: 58e4 c1bd 0f6e a03d b33b a03d d91a 7abc
000003b0: 0461 303d 0d16 c2bd cf8a 20bd 4c99 de3c
000003c0: 7450 59bd 5424 553d a233 2cbc ecab 563c
000003d0: 6da6 373d 16ad 513d 66b3 6e3d 21e4 3d3d
000003e0: d2ba 09bd 93d3 c93b c22d 933c dcf3 86bb
000003f0: e68c 453c cbf0 e13c f16d fa3c e57a ea3c

fc2.bias f4 [128]
-0.007370113 -0.085975535 -0.01059553 0.078870095 0.07074807 0.044227432 0.049545478 -0.033712476
-0.027052164 0.08170172 0.012318265 -0.08740735 -0.0067449682 -0.03352408 -0.061946947 0.018423634
0.073517375 0.007884078 0.07818781 -0.0214974 -0.013114383 0.013841579 0.016165536 -0.0842081
0.052869853 0.08019362 0.066378415 -0.05430013 -0.064576805 -0.048988122 -0.07282592 0.05971003
-0.06493747 -0.039970733 0.040547766 -0.05679039 0.07110904 0.016127806 -0.06962817 0.08691449
-0.079884455 0.055668883 -0.052222416 -0.008764121 0.04319562 0.06073971 -0.08083832 0.022699103
-0.071733736 -0.064549245 -0.09864154 0.006152579 0.0038918576 -0.028290164 0.06796682 -0.059106637
-0.0499618 0.052006967 0.057365686 0.082069136 0.047365725 0.064417586 -0.02520471 0.024172427
0.05785337 0.07731061 0.027755642 0.015192682 -0.008982055 0.012499807 -0.057476103 -0.0061208005
0.053276043 0.038771696 0.004485765 0.03734862 0.03833894 0.01254499 0.076069176 0.024010435
-0.017773438 0.06521584 0.016667148 -0.08578279 -0.042320482 0.050567776 -0.017452952 -0.03963438
0.09705453 0.04120297 -0.05121747 0.06822562 0.03847135 -0.06525882 0.026361274 -0.028284056
-0.074937716 -0.0056874305 -0.031611443 -0.02705964 -0.038683046 0.086927384 0.0051650587 0.066443786
-0.07921375 -0.053359516 0.021065194 0.07440657 -0.03126268 -0.040118575 -0.03901608 0.04406791
-0.043823358 -0.053372867 0.010838745 -0.053685803 -0.04612416 -0.050892346 0.01764451 -0.0046045682
0.019356407 -0.06275148 0.1438596 -0.05787328 -0.07304155 0.013875777 -0.03745347 0.04113225
00000000: fd80 f1bb f113 b0bd e098 2dbc a586 a13d
00000010: 5de4 903d d327 353d 33f0 4a3d 1816 0abd
00000020: 809c ddbc 3b53 a73d 8cd2 493c a002 b3bd
00000030: e504 ddbb 8c50 09bd 15bc 7dbd 29ed 963c
00000040: 4790 963d 382c 013c ee20 a03d 511b b0bc
00000050: b6dd 56bc cac7 623c 966d 843c 4c75 acbd
00000060: 0f8e 583d 8d3c a43d 68f1 873d d069 5ebd
00000070: d840 84bd c5a7 48bd c225 95bd 8192 743d
00000080: f0fd 84bd 5ab8 23bd 6a15 263d 0a9d 68bd
00000090: 9ea1 913d 761e 843c 3799 8ebd 3900 b23d
000000a0: 769a a3bd 0e05 643d 2ce7 55bd 6397 0fbc
000000b0: e4ed 303d 34ca 783d 908e a5bd 78f3 b93c
000000c0: 23e9 92bd 6532 84bd 9304 cabd 939b c93b
000000d0: 890e 7f3b c6c0 e7bc 3032 8b3d cd19 72bd
000000e0: bfa4 4cbd 4205 553d 48f8 6a3d dd13 a83d
000000f0: 9002 423d 5eed 833d 1c7a cebc 4105 c63c
00000100: a8f7 6c3d 0655 9e3d cd5f e33c baea 783c
00000110: 7829 13bc fecb 4c3c 106c 6bbd ff90 c8bb
00000120: fb37 5a3d 12cf 1e3d 53fd 923b defa 183d
00000130: 4b09 1d3d 8089 4d3c 28ca 9b3d 88b1 c43c
00000140: 9a99 91bc e28f 853d 8b89 883c e3ae afbd
00000150: 3e58 2dbd 2820 4f3d 7ef9 8ebc a957 22bd
00000160: 87c4 c63d 72c4 283d 69c9 51bd e0b9 8b3d
00000170: 2294 1d3d 6ba6 85bd 99f3 d73c f7b3 e7bc
00000180: f278 99bd a05d babb 007b 01bd 2eac ddbc
00000190: 1d72 1ebd fc06 b23d a73f a93b ae13 883d
000001a0: d23a a2bd 828f 5abd ea90 ac3c 7962 983d
000001b0: 4c0d 00bd 6053 24bd 53cf 1fbd 8e80 343d
000001c0: 1f80 33bd 829d 5abd fe94 313c a5e5 5bbd
000001d0: b0ec 3cbd 7e74 50bd 388b 903c ebe1 96bb
000001e0: 5491 9e3c d983 80bd ee4f 133e 880c 6dbd
000001f0: cf96 95bd 3a57 633c cf68 19bd 4a7a 283d

fc3.weight f4 [64, 128]
-0.011142111 -0.06799733 0.03266411 0.07732784 0.05849471 0.06019415 -0.06705781 0.06759848
0.061775245 -0.03960694 -0.08494518 0.066343576 -0.011229725 -0.008808766 0.02799331 -0.041299343
-0.09684098 0.048179857 0.0081513515 -0.08338253 0.0044607623 -0.091114365 0.010387807 -0.0513502
-0.04709286 -0.06929411 -0.009978353 0.0055655595 -0.054698735 0.008466221 -0.009432642 -0.051941164
0.059066746 0.06609516 -0.007312697 -0.065383635 0.038741983 0.05187591 -0.0075728768 0.067043304
0.023955915 -0.08761847 -0.020265732 0.033397026 0.036556233 0.023099575 0.08057032 -0.05569827
0.01167436 0.0688286 -0.066159375 -0.07105537 -0.07630926 -0.07708802 0.026047666 -0.027018132
-0.016246606 -0.05356574 0.017535826 -0.03327274 0.02225189 -0.058532324 0.002150706 -0.0861743
-0.057157733 0.056111056 -0.017786859 -0.06359537 -0.09764425 0.025216166 0.05018141 0.0055501168
0.062671974 -0.0662724 0.052383527 0.06383911 -0.043380413 -0.02601133 -0.045023974 -0.09610929
-0.021582747 -0.033980764 0.06348128 0.0687593 0.03041067 0.07506121 -0.09527601 -0.03485598
-0.0890457 0.032790508 -0.07565112 0.022283563 -0.040356304 -0.032021973 0.031249816 0.016959757
-0.063682966 -0.04665526 0.06860171 -0.0039885123 0.023351843 -0.032825287 0.057938218 0.07687842
-0.018289508 0.062299587 0.00434772 -0.012938774 -0.02709515 -0.031829707 -0.043844566 0.07960331
-0.05975542 0.06551501 -0.0961994 0.041574817 -0.075375035 0.027794978 0.03485038 -0.00076347636
-0.016543914 -0.01694172 0.07985357 0.062735684 -0.020595118 0.039655145 -0.094508246 0.059753433
0.09668908 0.043457355 -0.017180081 0.0863815 -0.014781268 0.031898726 0.013139727 -0.08548018
-0.056427192 0.08337339 0.07736642 -0.012439146 -0.038671564 0.059987206 -0.06301081 -0.036050044
-0.07567513 0.051882505 0.0014113632 -0.08020903 0.05278646 0.07479841 0.0025830322 0.04789721
-0.042943977 -0.016216027 0.009590557 -0.0354839 -0.034492932 0.057078622 0.027222425 -0.009677655
0.05838613 0.03420506 -0.07141938 0.07240072 0.09087755 0.05899966 -0.059791524 0.012147059
0.061227452 -0.06382909 -0.06519165 -0.11775118 -0.018494422 0.03164698 -0.025977487 0.054904476
-0.020581895 0.0067467373 0.013851318 -0.056451444 0.03228575 -0.031661157 0.07185532 0.046533994
-0.077830486 -0.02385988 0.071627736 0.032989617 0.06683739 -0.04229214 -0.09183889 -0.01855912
-0.066570416 0.025992807 -0.06762633 -0.09683106 -0.044702478 0.076465875 0.009033657 -0.023530992
0.08827907 -0.017844867 -0.017126897 -0.004990673 0.043560192 0.09780385 -0.08109557 -0.052700702
0.06110474 -0.052860964 -0.12605642 -0.08500813 0.10337344 0.041497745 -0.09791881 -0.058192074
-0.0564337 -0.07093237 0.028515222 0.0023585812 -0.07912806 -0.09933112 -0.01198015 0.02131118
0.07861455 -0.0169963 0.06133733 -0.02312112 0.06941771 0.076272994 -0.019419719 -0.08724197
-0.005365095 0.02224029 0.009614995 -0.03324401 -0.053611264 -0.03313605 -0.0066982904 0.05676806
-0.012834922 -0.03182971 -0.06067126 0.009649015 0.059058513 0.0043188753 0.0076720337 -0.07508415
-0.010132926 -0.006995775 -0.09121274 -0.0063067838 0.008776967 0.036298603 0.04540454 0.015802259
00000000: 678d 36bc 2f42 8bbd cdca 053d 0f5e 9e3d
00000010: 2698 6f3d 248e 763d 9b55 89bd 1271 8a3d
00000020: 0a08 7d3d e33a 22bd bdf7 adbd 24df 873d
00000030: e1fc 37bc a452 10bc 3a52 e53c 8029 29bd
00000040: 9054 c6bd 3e58 453d 3f8d 053c 76c4 aabd
00000050: 962b 923b 2b9a babd 9f31 2a3c 9654 52bd
00000060: 71e4 40bd 12ea 8dbd 3f7c 23bc 4c5f b63b
00000070: c80b 60bd e8b5 0a3c 5e8b 1abc 42c0 54bd
00000080: f9ef 713d e65c 873d 599f efbb dbe7 85bd
00000090: eaaf 1e3d d67b 543d e525 f8bb 004e 893d
000000a0: 323f c43c 5071 b3bd 5204 a6bc 52cb 083d
000000b0: fdbb 153d 523b bd3c 0d02 a53d df23 64bd
000000c0: d145 3f3c 02f6 8c3d 917e 87bd 7a85 91bd
000000d0: 0848 9cbd 53e0 9dbd ea61 d53c 2155 ddbc
000000e0: 9a17 85bc c067 5bbd 4ba7 8f3c ff48 08bd
000000f0: 9849 b63c 97bf 6fbd dcf2 0c3b 277c b0bd
00000100: 3a1e 6abd b5d4 653d bfb5 91bc 4a3e 82bd
00000110: b5f9 c7bd 2292 ce3c 068b 4d3d c1dd b53b
00000120: 2a5a 803d d3b9 87bd 1c90 563d 14be 823d
00000130: a9af 31bd b615 d5bc 0f6b 38bd f3d4 c4bd
00000140: 4dce b0bc 6a2f 0bbd 7902 823d add1 8c3d
00000150: cc1f f93c b1b9 993d 1220 c3bd 25c5 0ebd
00000160: 985d b6bd 574f 063d f9ee 9abd 058c b63c
00000170: a74c 25bd 7929 03bd 9dff ff3c 30ef 8a3c
00000180: 376c 82bd 9619 3fbd 0e7f 8c3d 11b2 82bb
00000190: 5d4c bf3c cf73 06bd a050 6d3d 6f72 9d3d
000001a0: e1d3 95bc da2d 7f3d 5277 8e3b 27fd 53bc
000001b0: a6f6 ddbc de5f 02bd 5c96 33bd 0f07 a33d
000001c0: 19c2 74bd bc2c 863d 3104 c5bd 5b4a 2a3d
000001d0: 3a5e 9abd 4bb2 e33c 46bf 0e3d 0824 48ba
000001e0: 1a87 87bc 5dc9 8abc 458a a33d 917b 803d
000001f0: 18b7 a8bc 6f6d 223d 8a8d c1bd 04c0 743d
00000200: ed04 c63d 5700 323d 3ebd 8cbc c9e8 b03d
00000210: 222d 72bc 3da8 023d 0248 573c 3c10 afbd
00000220: 3320 67bd abbf aa3d 4972 9e3d 8fcd 4bbc
00000230: 1366 1ebd 25b5 753d d00b 81bd 36a9 13bd
00000240: 90fb 9abd c082 543d 7efd b83a a244 a4bd
00000250: 9d36 583d e92f 993d 1748 293b dd2f 443d
00000260: 06e6 2fbd 79d7 84bc b621 1d3c 9157 11bd
00000270: 7648 0dbd 46cb 693d 9001 df3c 078f 1ebc
00000280: 4b26 6f3d 9b1a 0c3d 5344 92bd d446 943d
00000290: 021e ba3d a1a9 713d f5e7 74bd 7504 473c
000002a0: a3c9 7a3d d3b8 82bd 3383 85bd 8827 f1bd
000002b0: 9d81 97bc 44a0 013d bdce d4bc 84e3 603d
000002c0: 5d9b a8bc bc13 dd3b a3f0 623c a139 67bd
000002d0: 103e 043d 21af 01bd e228 933d 6e9a 3e3d
000002e0: 9765 9fbd cc75 c3bc 90b1 923d 1f20 073d
000002f0: 0be2 883d 863a 2dbd 0716 bcbd 4c09 98bc
00000300: 1256 88bd deee d43c ac7f 8abd 5d4f c6bd
00000310: f219 37bd 249a 9c3d e701 143c 11c4 c0bc
00000320: a8cb b43d 662f 92bc b54d 8cbc cd88 a3bb
00000330: 2c6c 323d 634d c83d 6f15 a6bd b1dc 57bd
00000340: f748 7a3d bd84 58bd ef14 01be be18 aebd
00000350: 74b5 d33d 8af9 293d a889 c8bd d05a 6ebd
00000360: 0627 67bd fe44 91bd c198 e93c 6d92 1a3b
00000370: e40d a2bd 1d6e cbbd 6448 44bc c994 ae3c
00000380: aa00 a13d d33b 8bbc da3c 7b3d 8168 bdbc
00000390: df2a 8e3d 0435 9c3d 1a16 9fbc ebab b2bd
000003a0: aecd afbb 4531 b63c 3688 1d3c df2a 08bd
000003b0: 7c97 5bbd abb9 07bd 557d dbbb a085 683d
000003c0: 9149 52bc df5f 02bd 6d82 78bd e716 1e3c
000003d0: 57e7 713d 5a85 8d3b af65 fb3b b8c5 99bd
000003e0: 9204 26bc d03c e5bb bfcd babd 23a9 cebb
000003f0: 45cd 0f3c d8ad 143d 1cfa 393d bd73 813c

fc3.bias f4 [64]
-0.0318631 -0.025982017 0.015814716 0.07651444 -0.04381662 -0.07104068 -0.045866903 0.08092227
0.06767723 -0.029352592 0.09804259 -0.080184594 0.047393605 0.015013966 0.054528534 0.033202183
0.05506825 0.050196722 -0.035387266 -0.005819857 0.040520024 -0.07797175 -0.052398108 -0.070442446
-0.036249932 0.05289891 -0.038199164 0.011994356 -0.0019193364 -0.07132491 -0.07015028 0.005616991
0.020973127 -0.08147666 0.041948315 0.04578547 0.0946838 0.07765996 0.06970144 -0.0042567253
-0.017552292 0.035700507 -0.03717097 0.008939564 -0.013855497 0.08402891 -0.03374866 -0.046160035
0.074045576 -0.058445558 -0.08835768 -0.035891823 -0.086989775 -0.044667825 0.06426728 -0.038830943
0.07257221 0.07930765 0.042209525 0.046517316 0.018804658 0.055458177 -0.015169996 -0.09237806
00000000: e282 02bd 3dd8 d4bc dd8d 813c 9ab3 9c3d
00000010: 0e79 33bd c77d 91bd efde 3bbd 93ba a53d
00000020: 5c9a 8a3d d974 f0bc 8eca c83d d237 a4bd
00000030: cc1f 423d 23fd 753c 5059 5f3d 03ff 073d
00000040: 3f8f 613d 149b 4d3d 3df2 10bd 80b4 bebb
00000050: 53f8 253d a7af 9fbd 669f 56bd 2144 90bd
00000060: cf7a 14bd 87ac 583d ba76 1cbd fa83 443c
00000070: 3e92 fbba cb12 92bd f3aa 8fbd bc0e b83b
00000080: d6cf ab3c 3cdd a6bd ffd1 2b3d 8c89 3b3d
00000090: 95e9 c13d 2f0c 9f3d a1bf 8e3d 007c 8bbb
000000a0: d3c9 8fbc b23a 123d 9640 18bd 4077 123c
000000b0: 2b02 63bc 5917 ac3d 093c 0abd 4e12 3dbd
000000c0: 35a5 973d 9c64 6fbd dff4 b4bd 4e03 13bd
000000d0: b227 b2bd 9cf5 36bd 909e 833d 320d 1fbd
000000e0: bda0 943d 0d6c a23d e5e3 2c3d f188 3e3d
000000f0: 3a0c 9a3c 1d28 633d 938b 78bc b530 bdbd

fc4.weight f4 [64, 64]
0.088131435 -0.11614974 -0.07725441 0.013206738 -0.056089364 0.023634434 0.06622951 0.04565844
0.1795847 0.115897626 -0.06408768 -0.06531071 -0.05536121 0.013585649 0.111610524 -0.07136652
0.0057759713 0.08916301 -0.06188762 -0.11118874 -0.1157963 -0.009401511 0.0014927554 0.05550452
-0.012128239 -0.07219134 -0.1089664 0.114830054 -0.03708214 0.07648212 -0.11247896 -0.06797939
-0.11266314 -0.039907176 -0.015149062 0.097038075 0.006340884 -0.04719617 -0.056923583 -0.082331166
0.0056533376 -0.032332234 -0.12093026 0.034034222 -0.04173125 0.030923532 -0.053282402 0.071563534
-0.017424865 -0.10439451 -0.036363646 -0.12490555 0.016664373 0.10813463 -0.07751686 0.10267885
-0.12604555 -0.088545464 -0.045932837 0.080121174 0.09321558 0.028461233 0.0419862 -0.014447548
0.06257276 0.13667397 0.11879182 0.077285275 0.0111596845 -0.11167632 -0.06489839 0.06357081
0.018453648 -0.07291383 0.12154446 0.06465317 -0.10438744 0.045842953 -0.037963253 0.079069175
0.074206024 0.12368744 0.03416096 0.058470845 0.027606655 0.20164876 -0.022057088 -0.074852966
-0.101826 -0.014098305 0.019890081 0.0067151072 -0.053333946 -0.013757929 0.14853218 -0.027993495
-0.06326758 -0.15049723 0.12746057 0.12294267 0.0031508224 0.07209494 0.009440199 -0.09055937
0.07674714 -0.0329759 0.10447294 -0.011408165 0.04335987 -0.02836676 -0.059398327 -0.0894917
0.10261396 -0.010236035 0.033480763 -0.10676155 0.09355992 -0.10298902 0.041333497 -0.01380805
0.05456454 -0.032729685 0.07408129 -0.0014147457 -0.034297153 0.015854241 -0.0018693082 0.085315116
-0.10037464 0.101254396 -0.07437503 0.026631486 -0.085187666 -0.072668955 -0.10349605 -0.03557458
0.036792073 -0.0973833 0.030699668 -0.035000972 -0.09906802 -0.09235023 0.012837902 -0.015809203
-0.05273753 0.060492925 -0.042538114 0.0058290362 -0.008815994 0.01288277 0.12783131 0.0691963
-0.10684934 -0.08138263 -0.0863877 0.11537398 0.10016911 0.089359365 0.027659757 -0.11136698
0.0795497 -0.10651256 0.012775964 -0.114545576 -0.067018755 0.07811457 -0.117601365 0.051113486
0.04271264 -0.052473683 0.045347124 -0.11793108 0.01801605 -0.10941344 -0.067247346 0.035077598
0.111906566 -0.0173194 0.08162895 0.11702004 0.061409958 -0.11825334 0.11022884 0.038330257
0.12839027 0.14355211 0.03643315 0.03667979 0.11780882 0.12758125 0.07007275 0.031582262
0.03679 -0.082926 0.13037623 -0.52449924 0.047524907 -0.028327137 0.008793113 -0.109104864
0.021193974 0.0811171 0.030336274 -0.12900214 -0.06642861 -0.04711044 0.0017259017 0.025365543
0.10612679 0.109302126 -0.025576586 0.060317457 0.07212922 -0.09830007 0.056685954 0.10014311
-0.15560457 0.08349691 -0.11663466 0.09296026 -0.016004544 -0.018999498 -0.09528283 0.084129564
-0.09570165 -0.105341285 0.05330074 -0.1258147 -0.049646676 0.11398314 0.05135022 0.05194107
-0.121703506 -0.026522167 0.057434443 0.109064594 0.0071441694 0.10297117 -0.12980282 0.11805553
0.026549602 -0.11483467 0.09673279 0.035939403 -0.13300608 -0.105067015 0.054047864 -0.06743046
-0.107410565 -0.011188931 -0.09749158 -0.08350563 -0.13707902 0.058604255 -0.026866974 -0.09026165
00000000: 417e b43d eadf edbd 8f37 9ebd 1361 583c
00000010: f6bd 65bd 009d c13c 56a3 873d 5804 3b3d
00000020: 0de5 373e bc5b ed3d 6740 83bd 9fc1 85bd
00000030: 70c2 62bd 5896 5e3c 0f94 e43d 9c28 92bd
00000040: 5c44 bd3b 199b b63d df7d 7dbd ecb6 e3bd
00000050: 9c26 edbd cc08 1abc 8fa8 c33a b558 633d
00000060: 85b5 46bc 0ed9 93bd c729 dfbd 052c eb3d
00000070: 71e3 17bd a8a2 9c3d 5e5b e6bd c738 8bbd
00000080: efbb e6bd b575 23bd c533 78bc e6bb c63d
00000090: 31c7 cf3b c550 41bd b428 69bd 3e9d a8bd
000000a0: a23f b93b ce6e 04bd 49aa f7bd 7867 0b3d
000000b0: 63ee 2abd 5953 fd3c a63e 5abd e78f 923d
000000c0: 97be 8ebc cacc d5bd 0cf2 14bd 7bce ffbd
000000d0: b983 883c b075 dd3d 29c1 9ebd 4a49 d23d
000000e0: 1612 01be 5357 b5bd 1224 3cbd 9216 a43d
000000f0: cfe7 be3d 8827 e93c b9f9 2b3d 69b5 6cbc
00000100: 2626 803d 43f4 0b3e 2049 f33d be47 9e3d
00000110: 1cd7 363c 8eb6 e4bd 72e9 84bd 6a31 823d
00000120: 1b2c 973c d953 95bd 4dec f83d e268 843d
00000130: 15c9 d5bd d2c5 3b3d 5b7f 1bbd 05ef a13d
00000140: 54f9 973d d74f fd3d 5dec 0b3d 207f 6f3d
00000150: 5a27 e23c 037d 4e3e 11b1 b4bc 834c 99bd
00000160: 268a d0bd 94fc 66bc 86f0 a23c 670a dc3b
00000170: b274 5abd f068 61bc d218 183e 9d52 e5bc
00000180: 6f92 81bd f21b 1abe 0685 023e 5ec9 fb3d
00000190: 077e 4e3b 83a6 933d 10ab 1a3c 3177 b9bd
000001a0: 9b2d 9d3d bd11 07bd e9f5 d53d 50e9 3abc
000001b0: 1e9a 313d 6861 e8bc a94b 73bd 6d47 b7bd
000001c0: 4527 d23d 0bb5 27bc 2023 093d cda5 dabd
000001d0: 589c bf3d e8eb d2bd 504d 293d 293b 62bc
000001e0: 117f 5f3d 900f 06bd eeb7 973d fd6e b9ba
000001f0: 2c7b 0cbd c1e0 813c 9303 f5ba b1b9 ae3d
00000200: 3891 cdbd 775e cf3d f051 98bd 462a da3c
00000210: df76 aebd 76d3 94bd bdf5 d3bd a7b6 11bd
00000220: 49b3 163d e570 c7bd df7d fb3c 2e5d 0fbd
00000230: 2de4 cabd 1e22 bdbd 1056 523c 4d82 81bc
00000240: 4f03 58bd 6ec7 773d 723c 2ebd 8001 bf3b
00000250: f570 10bc 4112 533c 36e6 023e cab6 8d3d
00000260: d4d3 dabd f0ab a6bd 09ec b0bd 3149 ec3d
00000270: 7625 cd3d 0b02 b73d b796 e23c 5f14 e4bd
00000280: f4ea a23d 4223 dabd 4752 513c df96 eabd
00000290: 2141 89bd 88fa 9f3d fcd8 f0bd 605c 513d
000002a0: 73f3 2e3d a5ee 56bd e8bd 393d da85 f1bd
000002b0: 6596 933c 2714 e0bd fab8 89bd 87ad 0f3d
000002c0: 452f e53d 6ae1 8dbc 142d a73d 34a8 ef3d
000002d0: 0289 7b3d cf2e f2bd a8bf e13d 3000 1d3d
000002e0: bd78 033e 53ff 123e ed3a 153d 8c3d 163d
000002f0: c045 f13d a9a4 023e 4d82 8f3d 675c 013d
00000300: 1cb1 163d 1bd5 a9bd 5981 053e 9545 06bf
00000310: 7aa9 423d 500e e8bc fd10 103c 5f72 dfbd
00000320: fc9e ad3c b920 a63d c783 f83c 2319 04be
00000330: b90b 88bd e0f6 40bd a737 e23a 66cb cf3c
00000340: 0159 d93d cbd9 df3d fd85 d1bc 700f 773d
00000350: 7cb8 933d 8c51 c9bd 882f 683d d517 cd3d
00000360: ce56 1fbe 6e00 ab3d 27de eebd f361 be3d
00000370: f61b 83bc d6a4 9bbc a523 c3bd 1f4c ac3d
00000380: 3aff c3bd 2cbd d7bd e051 5a3d 92d5 00be
00000390: 505a 4bbd fe6f e93d 9c54 523d 29c0 543d
000003a0: b03f f9bd 0445 d9bc 6140 6b3d 425d df3d
000003b0: a319 ea3b 8ce2 d23d 08eb 04be 19c7 f13d
000003c0: 8d7e d93c 712e ebbd d71b c63d 3235 133d
000003d0: bf32 08be 602d d7bd 4b61 5d3d fb18 8abd
000003e0: 12fa dbbd c751 37bc aaa9 c7bd 0005 abbd
000003f0: 715e 0cbe 040b 703d 2118 dcbc 1adb b8bd

fc4.bias f4 [64]
-0.105796844 -0.10617981 0.098872244 0.06529375 -0.084420145 0.045798205 -0.027890513 0.016629618
-0.059398603 0.020873018 -0.07115125 -0.10421104 0.12815912 0.028275035 0.09646528 -0.048294332
-0.01983821 -0.032246113 0.1316627 -0.065716594 0.03464351 0.007692367 -0.020414945 -0.10349284
0.010286437 -0.025058784 -0.037539225 -0.046804134 0.055441093 0.072169825 -0.07430867 -0.044707626
0.0044703837 0.07738184 -0.11442214 0.07994926 -0.023115857 0.07464222 0.06104857 0.052739248
0.09013645 0.0053567574 -0.046288036 -0.0927713 -0.062141795 -0.018295707 -0.020460008 0.018208552
0.12699933 0.045804873 0.06446017 -0.03182697 -0.032615006 0.091603495 0.08819315 0.063903034
0.059977647 -0.12315927 -0.0031978427 0.10538693 -0.007931667 0.011653129 -0.022202626 -0.07241904
00000000: 04ac d8bd cd74 d9bd 887d ca3d bbb8 853d
00000010: 78e4 acbd e696 3b3d a57a e4bc d63a 883c
00000020: f34b 73bd e4fd aa3c bfb7 91bd 996c d5bd
00000030: 253c 033e 0ca1 e73c 978f c53d 47d0 45bd
00000040: be83 a2bc 8014 04bd 96d2 063e 6c96 86bd
00000050: 5ae6 0d3d 4010 fc3b 3e3d a7bc 0ef4 d3bd
00000060: 7288 283c 1448 cdbc bbc2 19bd b1b5 3fbd
00000070: 3316 633d c6cd 933d 252f 98bd 581f 37bd
00000080: 4c7c 923b 5f7a 9e3d 2856 eabd 70bc a33d
00000090: 775d bdbc 05de 983d 110e 7a3d 1c05 583d
000000a0: 7699 b83d bd87 af3b 8698 3dbd e1fe bdbd
000000b0: 6588 7ebd e1e0 95bc bf9b a7bc 1a2a 953c
000000c0: 1d0c 023e e49d 3b3d b203 843d ff5c 02bd
000000d0: 5097 05bd 9d9a bb3d 9c9e b43d 98df 823d
000000e0: 1fab 753d ed3a fcbd e692 51bb 1ad5 d73d
000000f0: d3f3 01bc c4ec 3e3c 48e2 b5bc 6f50 94bd

fc5.weight f4 [32, 64]
-0.021073759 -0.117821485 -0.08937617 -0.123312816 -0.04783131 -0.08881453 -0.0059319763 -0.0055292714
0.032469574 0.028083371 -0.029156284 0.09119939 -0.016880982 -0.11269975 0.09158544 0.0063552866
-0.10767978 -0.121085055 -0.13359424 -0.11777995 -0.07119241 0.019098073 -0.12695353 0.12076304
-0.05177673 0.023797011 0.019305177 -0.020605505 0.08869543 0.008478768 0.070645995 0.042039853
-0.096713364 0.053652618 -0.010523506 0.053058304 -0.111534595 -0.092690565 0.11429207 -0.120883875
-0.08440652 0.09127113 -0.037966497 0.11456239 -0.10925848 0.03783416 0.0033558263 0.04908447
-0.021681447 -0.010250896 0.11386085 -0.0563794 0.00065536046 -0.00459011 0.096871056 -0.12842822
-0.06665698 0.031039335 -0.12033285 -0.08101202 -0.09570823 0.081091374 0.09691133 -0.08568831
-0.028360162 0.020513624 -0.08813343 -0.111930266 -0.050805192 0.016427761 0.09286894 0.030310905
-0.03488093 0.04634682 0.025649715 -0.055201888 -0.06015256 -0.09269689 -0.0077294447 -0.006245658
0.0891974 -0.07957262 -0.028013406 -0.08516733 -0.011164082 -0.08261419 0.041833866 -0.028526565
-0.09287302 0.091118425 0.0813316 0.030992052 -0.09558749 -0.04182393 0.013095194 -0.064592406
0.072808415 0.10557361 -0.13501069 0.05457817 -0.019514473 -0.035940852 0.019377947 -0.12751274
-0.010301421 -0.08499143 0.0001904679 0.085919626 0.022687536 0.02453852 0.10114285 -0.0008635023
0.10001071 0.009941143 0.09369598 0.06693813 0.02166554 0.023566015 -0.07706012 -0.09342776
0.064644694 -0.0124103315 0.10456128 -0.048323967 -0.0796475 -0.039703332 -0.059373546 -0.092249356
-0.018928329 0.039494812 0.018536609 -0.13852973 0.053799868 0.086943805 -0.011260392 -0.026821792
0.069949396 0.026272487 0.041814066 -0.07322517 0.10701109 -0.024273816 -0.06927528 -0.03424218
0.050217863 -0.005835563 0.027480407 -0.023388615 0.021854617 0.083757095 0.08178396 -0.11208082
-0.07946405 -0.029300602 -0.013968004 0.05870497 0.11928425 -0.009567273 -0.06498615 0.11132602
0.05347526 -0.011996648 0.044949748 0.093661055 0.058925036 0.097405896 0.002395183 -0.01769676
-0.022632938 0.057022635 -0.05435616 -0.10273207 -0.05134905 -0.07606652 -0.041493997 0.09831891
-0.07688616 -0.09182452 0.0931031 -0.10193428 -0.048625078 0.091303155 -0.0302191 -0.025201192
-0.032989047 0.079922974 0.06755166 0.109539576 0.10439133 0.026282396 0.105393745 -0.049852096
-0.014169411 0.028812315 0.010064676 0.11567533 -0.015484522 -0.009711215 -0.017081441 -0.04478831
0.04990799 -0.07428422 0.04981131 -0.1002058 -0.05278139 0.08726516 0.08868041 0.06710261
-0.04688025 0.10053198 -0.05974815 0.17653605 -0.095066555 0.041394424 0.09618017 -0.0382049
-0.087053284 0.08770909 -0.06720247 -0.0880156 -0.11251163 0.07399064 0.061662327 0.08667953
-0.12136492 -0.03454176 -0.0036885438 0.03023507 0.012408604 0.10030607 -0.046613503 0.056023665
0.06823875 0.009488366 -0.04278875 -0.07970675 0.088587075 0.06502454 0.022765728 -0.05340947
-0.10384959 0.014248508 0.04895747 0.04858118 0.026829636 -0.34332368 -0.060318943 -0.046149656
0.014085822 0.116547845 0.020311965 0.103167444 0.061470393 0.09853729 -0.08013819 0.02963807
00000000: e0a2 acbc 644c f1bd da0a b7bd 6e8b fcbd
00000010: c4ea 43bd 64e4 b5bd 0661 c2bb e42e b5bb
00000020: d1fe 043d 190f e63c 29d9 eebc bfc6 ba3d
00000030: fc49 8abc 20cf e6bd 2691 bb3d 0240 d03b
00000040: 3787 dcbd 71fb f7bd eecc 08be 9d36 f1bd
00000050: 54cd 91bd 9073 9c3c 1b00 02be 9d52 f73d
00000060: d613 54bd f3f1 c23c e425 9e3c e0cc a8bc
00000070: f3a5 b53d 88ea 0a3c d9ae 903d fb31 2c3d
00000080: a811 c6bd d9c2 5b3d c96a 2cbc aa53 593d
00000090: 406c e4bd 8dd4 bdbd f611 ea3d f791 f7bd
000000a0: 53dd acbd 5cec ba3d c282 1bbd b09f ea3d
000000b0: e9c2 dfbd fef7 1a3d 6ced 5b3b cc0c 493d
000000c0: 4a9d b1bc 60f3 27bc e12f e93d 16ee 66bd
000000d0: 7fcc 2b3a a268 96bb 5564 c63d b082 03be
000000e0: 7483 88bd 3446 fe3c 1271 f6bd a1e9 a5bd
000000f0: ad02 c4bd 3c13 a63d 7379 c63d 5a7d afbd
00000100: 9253 e8bc 300c a83c 4d7f b4bd b23b e5bd
00000110: 1b19 50bd 8393 863c 1232 be3d 934e f83c
00000120: 4edf 0ebd 2ad6 3d3d 5a1f d23c 601b 62bd
00000130: 8862 76bd ded7 bdbd 4847 fdbb 60a8 ccbb
00000140: 20ad b63d f8f6 a2bd 5f7c e5bc 366c aebd
00000150: 8ee9 36bc a131 a9bd fd59 2b3d 8bb0 e9bc
00000160: 3634 bebd 4c9c ba3d 2f91 a63d 0be3 fd3c
00000170: 60c3 c3bd 924f 2bbd 398d 563c 0649 84bd
00000180: 941c 953d fa36 d83d 3e40 0abe 5c8d 5f3d
00000190: d1dc 9fbc b736 13bd 80be 9e3c b392 02be
000001a0: 4bc7 28bc fd0f aebd 56b8 4739 a1f6 af3d
000001b0: 36db b93c 0205 c93c fc23 cf3d a95c 62ba
000001c0: 6ad2 cc3d 2de0 223c aee3 bf3d dc16 893d
000001d0: ee7b b13c 840d c13c b2d1 9dbd 0e57 bfbd
000001e0: 7064 843d b454 4bbc 3924 d63d 5aef 45bd
000001f0: 3a1e a3bd f69f 22bd ad31 73bd 3bed bcbd
00000200: 950f 9bbc 50c5 213d 16da 973c bdda 0dbe
00000210: 405d 5c3d 980f b23d 827d 38bc 60b9 dbbc
00000220: a141 8f3d 6639 d73c 3a45 2b3d 14f7 95bd
00000230: a128 db3d e2d9 c6bc 33e0 8dbd 8741 0cbd
00000240: 3fb1 4d3d 4038 bfbb 971e e13c 7b99 bfbc
00000250: 7408 b33c d788 ab3d 597e a73d a18a e5bd
00000260: 0cbe a2bd d107 f0bc 0eda 64bc 9f74 703d
00000270: 4d4b f43d 0dc0 1cbc 7517 85bd e5fe e33d
00000280: e008 5b3d 978d 44bc 3a1d 383d 5ed1 bf3d
00000290: 615b 713d be7c c73d 81f8 1c3b ccf8 90bc
000002a0: b668 b9bc 9190 693d 91a4 5ebd 3165 d2bd
000002b0: 6253 52bd c3c8 9bbd 9cf5 29bd 6d5b c93d
000002c0: 7e76 9dbd 7e0e bcbd d7ac be3d ebc2 d0bd
000002d0: 172b 47bd 26fd ba3d 0c8e f7bc bb72 cebc
000002e0: 861f 07bd a8ae a33d 8658 8a3d 4956 e03d
000002f0: 1fcb d53d 2e4e d73c add8 d73d b631 4cbd
00000300: d126 68bc ce07 ec3c 50e6 243c 30e7 ec3d
00000310: cbb2 7dbc ca1b 1fbc 61ee 8bbc f273 37bd
00000320: 526c 4c3d 5322 98bd f206 4c3d b338 cdbd
00000330: 4c31 58bd 14b8 b23d 139e b53d 186d 893d
00000340: 8105 40bd b6e3 cd3d 7aba 74bd dec5 343e
00000350: 41b2 c2bd 338d 293d 1cfa c43d be7c 1cbd
00000360: fe48 b2bd d3a0 b33d 73a1 89bd 8641 b4bd
00000370: 7f6c e6bd 6888 973d a391 7c3d 0a85 b13d
00000380: 2c8e f8bd a97b 0dbd 7fbb 71bb 8aaf f73c
00000390: 754d 4b3c 456d cd3d cded 3ebd 1279 653d
000003a0: c2c0 8b3d 1775 1b3c 4243 2fbd 4b3d a3bd
000003b0: 246d b53d 962b 853d 317f ba3c e3c3 5abd
000003c0: 18af d4bd 9372 693c a187 483d 0ffd 463d
000003d0: d3c9 db3c 1fc8 afbe ff10 77bd 6c07 3dbd
000003e0: 38c8 663c a3b0 ee3d 4765 a63c 7449 d33d
000003f0: 61c8 7b3d ebcd c93d 7e1f a4bd 8acb f23c

fc5.bias f4 [32]
-0.07199541 -0.09855301 -0.09201191 0.031600352 0.09835567 -0.083387434 0.10343095 -0.033666033
-0.019406402 -0.104926676 0.05835086 -0.048776552 -0.1137318 0.02176322 -0.014536636 -0.042431217
-0.10451155 0.03712659 -0.10331455 -0.06883922 -0.06824809 -0.10280128 0.022821978 -0.11685478
-0.038213063 -0.04394114 -0.044299677 0.035328247 -0.12473588 0.10812541 0.02084126 -0.10228472
00000000: 5472 93bd 29d6 c9bd be70 bcbd 5f6f 013d
00000010: b36e c93d 08c7 aabd 9bd3 d33d 65e5 09bd
00000020: 2dfa 9ebc cce3 d6bd 5001 6f3d ecc9 47bd
00000030: 38ec e8bd c848 b23c 122b 6ebc 5bcc 2dbd
00000040: 270a d6bd 0d12 183d 9496 d3bd 94fb 8cbd
00000050: a8c5 8bbd 7a89 d2bd 28f5 ba3c 8f51 efbd
00000060: 4d85 1cbd a0fb 33bd 9473 35bd 5ab4 103d
00000070: 8675 ffbd db70 dd3d 4abb aa3c a77a d1bd

fc6.weight f4 [32, 32]
0.00033515692 -0.16255172 -0.10671038 -0.13664988 -0.13221693 -0.17607082 0.06434715 0.16198583
-0.112936355 0.055069298 -0.15035169 -0.114693925 -0.12757348 -0.17611255 -0.13074252 -0.077627726
-0.13343751 -0.008309171 0.0848542 0.0024232268 0.045626864 0.11028622 -0.059418455 -0.17620438
-0.110440016 0.17239793 -0.16580573 0.057764724 0.11227049 0.019506231 -0.003498122 0.15364517
0.13936335 -0.093484454 0.14487575 -0.030653797 -0.059937377 0.08884831 -0.04558514 -0.04933107
-0.13997598 -0.19050768 -0.11788884 -0.08342044 0.14011352 0.0197469 -0.05680032 -0.06763351
-0.050575927 -0.13744567 -0.17165416 0.16288026 -0.10424108 0.07983873 0.045358993 -0.051263005
-0.14938375 -0.15648934 -0.107751854 -0.0055191917 -0.055714834 0.042764693 -0.020983035 0.09554528
0.03111136 -0.13845868 -0.11530595 -0.15017602 0.057023577 0.08793697 0.07922675 0.14824744
-0.1704582 0.040272895 0.01951776 0.12090989 0.03731416 -0.13921171 0.012882147 0.045927264
-0.14909533 -0.27520117 0.06686609 0.03269528 -0.16646005 -0.120012514 -0.0852664 -0.39290434
0.18634245 0.04267016 0.15463264 0.11142356 0.11098812 -0.07272182 0.008966381 0.12177096
0.18864575 0.16681767 -0.07090635 0.13419023 -0.02993644 -0.08585487 0.11526367 0.051404364
-0.015638916 -0.058308303 -0.025488248 0.05180465 0.1338829 0.13632639 -0.087406084 -0.06358958
0.10098087 -0.18598863 0.028030071 -0.12886234 -0.14638102 0.07639293 -0.13785054 0.11862717
0.04739819 0.047715813 -0.059998192 -0.016082296 0.0504904 -0.04304842 0.09695475 0.13068533
-0.13911009 -0.16558227 -0.112621374 0.042137723 0.1277218 -0.08457931 0.08329272 -0.0626417
0.10124513 -0.06862803 0.0101385135 -0.0404969 0.14806165 -0.08361741 0.0027318862 0.13189173
-0.14581418 0.0698932 -0.17434359 0.09627195 0.10335165 0.035930857 -0.03396282 0.092376485
0.09142781 0.033819467 -0.114542164 -0.067935504 0.17875144 0.033427928 0.0060874037 0.00041732535
0.043602373 -0.09502239 0.08104659 -0.12300938 -0.08584664 0.002266373 0.017799944 -0.016803935
-0.17151064 0.1138116 -0.058768943 0.11043156 0.032381848 -0.12162809 -0.17668691 0.07137568
-0.054837957 -0.03230068 -0.094456814 0.18596864 0.123240426 0.104515105 -0.14636362 -0.14413457
-0.07341449 0.17324002 0.122007154 -0.16842505 0.02906337 0.0552388 -0.1316739 0.14184102
0.051493037 -0.123622224 0.1749722 -0.05839047 -0.08965302 -0.08158132 0.033707805 0.03884706
-0.06461836 -0.024619734 -0.29085094 -0.14701326 0.1692066 -0.0051589804 0.08174343 0.0670329
0.116910584 0.116595924 0.017770873 -0.109260656 0.06413998 -0.14132677 -0.078314126 0.12747432
0.11288976 -0.07180122 0.074306324 0.12114336 -0.021187782 -0.15796559 0.1798622 -0.083315134
0.038214874 0.09040016 0.17795329 -0.1567923 0.15673718 0.124418475 0.1181939 -0.24307029
-0.12308741 -0.12342924 0.057083413 -0.071125485 0.11113663 -0.031990565 -0.038598783 0.1263994
0.09446341 0.31781098 0.13404816 -0.12695774 0.15098265 0.036200523 -0.10389248 -0.13583413
-0.086083256 0.17427509 0.07082643 0.009526141 0.052648142 -0.14766525 0.01289593 -0.03396735
00000000: 00b8 af39 f573 26be f98a dabd f2ed 0bbe
00000010: e063 07be e94b 34be 70c8 833d 9ddf 253e
00000020: 2d4b e7bd 5890 613d cbf5 19be a6e4 eabd
00000030: 9fa2 02be d956 34be 5ee1 05be 49fb 9ebd
00000040: d8a3 08be 3023 08bc 0ac8 ad3d 00cf 1e3b
00000050: 3ce3 3a3d bedd e13d c460 73bd ec6e 34be
00000060: 602e e2bd 1589 303e fac8 29be b49a 6c3d
00000070: 12ee e53d 88cb 9f3c c040 65bb 2955 1d3e
00000080: 44b5 0e3e c774 bfbd 4f5a 143e ac1d fbbc
00000090: e580 75bd 1af6 b53d 7cb7 3abd 600f 4abd
000000a0: dd55 0fbe 7214 43be b46f f1bd 56d8 aabd
000000b0: eb79 0f3e 40c4 a13c 74a7 68bd 7083 8abd
000000c0: b428 4fbd 8fbe 0cbe 1cc6 2fbe 15ca 263e
000000d0: 597c d5bd 7d82 a33d 5aca 393d 28f9 51bd
000000e0: 0ef8 18be be3e 20be 01ad dcbd 56da b4bb
000000f0: 3d35 64bd 082a 2f3d 9de4 abbc 3ead c33d
00000100: 40dd fe3c 1dc8 0dbe 8725 ecbd bec7 19be
00000110: 8e91 693d 4c18 b43d a241 a23d 2dce 173e
00000120: 988c 2ebe 31f5 243d b6e3 9f3c 9b9f f73d
00000130: bcd6 183d 848d 0ebe a40f 533c 3a1e 3c3d
00000140: 72ac 18be 2be7 8cbe 17f1 883d 7ceb 053d
00000150: 8174 2abe 1fc9 f5bd 26a0 aebd c22a c9be
00000160: 8ed0 3e3e e8c6 2e3d 0558 1e3e 0932 e43d
00000170: bd4d e33d 2def 94bd bae7 123c 0e63 f93d
00000180: 5a2c 413e 40d2 2a3e 5937 91bd 2a69 093e
00000190: 443d f5bc aed4 afbd 5c0f ec3d 628d 523d
000001a0: 2f1d 80bc b0d4 6ebd bbcc d0bc 1d31 543d
000001b0: 9918 093e 2599 0b3e f601 b3bd 413b 82bd
000001c0: 0fcf ce3d ce73 3ebe 529f e53c 7df4 03be
000001d0: e8e4 15be e573 9c3d b128 0dbe cdf2 f23d
000001e0: 9b24 423d a871 433d aac0 75bd 05bf 83bc
000001f0: 06cf 4e3d 8a53 30bd 3690 c63d 60d2 053e
00000200: e072 0ebe 668e 29be 09a6 e6bd 9b98 2c3d
00000210: 81c9 023e eb37 adbd 6095 aa3d 4b4a 80bd
00000220: 9b59 cf3d da8c 8cbd 021c 263c 14e0 25bd
00000230: 799d 173e 9b3f abbd 7209 333b a00e 073e
00000240: 5050 15be 2b24 8f3d 2087 32be 3a2a c53d
00000250: 08aa d33d 3c2c 133d 991c 0bbd e22f bd3d
00000260: 813e bb3d 4886 0a3d 1595 eabd c521 8bbd
00000270: 9e0a 373e b9eb 083d d878 c73b 76cc da39
00000280: 6798 323d 199b c2bd c1fb a53d 58ec fbbd
00000290: 5dd0 afbd 6e87 143b 30d1 913c 68a8 89bc
000002a0: 7ca0 2fbe 0e16 e93d b4b7 70bd f129 e23d
000002b0: d4a2 043d 2618 f9bd 6aed 34be 6a2d 923d
000002c0: c49d 60bd b84d 04bd 9372 c1bd 906e 3e3e
000002d0: 7a65 fc3d 040c d63d 58e0 15be 0398 13be
000002e0: 565a 96bd d565 313e e3de f93d 9e77 2cbe
000002f0: 4e16 ee3c 1442 623d 86d5 06be c63e 113e
00000300: 5dea 523d a62d fdbd ea2b 333e d82a 6fbd
00000310: 019c b7bd 1b14 a7bd 3211 0a3d 181e 1f3d
00000320: a156 84bd 53af c9bc 6aea 94be a58a 16be
00000330: 7f44 2d3e aa0c a9bb 1969 a73d 8c48 893d
00000340: d16e ef3d d8c9 ee3d 3994 913c 0dc4 dfbd
00000350: d25b 833d f7b7 10be 2863 a0bd a188 023e
00000360: bf32 e73d 850c 93bd ea2d 983d 031a f83d
00000370: 0092 adbc bbc1 21be cc2d 383e 20a1 aabd
00000380: 3387 1c3d b823 b93d 6339 363e 298e 20be
00000390: b67f 203e 1dcf fe3d a50f f23d 6be7 78be
000003a0: 4115 fcbd 78c8 fcbd 4cd0 693d 3daa 91bd
000003b0: 9a9b e33d 8a08 03bd c219 1ebd d86e 013e
000003c0: 0876 c13d 1fb8 a23e ec43 093e 3601 02be
000003d0: 329b 1a3e 0047 143d 95c5 d4bd 1a18 0bbe
000003e0: 6b4c b0bd 2b75 323e 730d 913d 8813 1c3c
000003f0: 94a5 573d 8f35 17be 7349 533c 5921 0bbd

fc6.bias f4 [32]
0.052713275 0.033398263 -0.044595685 -0.07898288 -0.06644941 0.047723062 0.07300454 -0.15790132
-0.05297988 0.027025655 0.053725936 -0.05423328 0.034454614 -0.17249699 0.08628495 0.08308954
0.12705684 -0.10327432 6.993201e-05 -0.10702581 -0.15731585 0.14767195 -0.16153525 -0.024645891
-0.086432874 -0.03325053 -0.07255944 -0.0005478327 0.11609141 0.04107583 -0.048396368 -0.10560998
00000000: e0e9 573d 9ecc 083d f7a9 36bd c7c1 a1bd
00000010: a116 88bd 4279 433d 6783 953d e2b0 21be
00000020: 6e01 59bd e864 dd3c ba0f 5c3d b723 5ebd
00000030: 4820 0d3d 0da3 30be 2ab6 b03d d92a aa3d
00000040: 301b 023e 7d81 d3bd 76a8 9238 5930 dbbd
00000050: 6817 21be 5137 173e 7f69 25be 2ee6 c9bc
00000060: b803 b1bd b531 08bd 0b9a 94bd 6e9c 0fba
00000070: 55c1 ed3d 213f 283d 453b 46bd 0c4a d8bd
