model/trained_model.pth (torch, 206107 bytes, 14 tensors)

fc1.weight f4 [128, 141]
000000 ed 17 9e 3d 56 d4 5b bd 7a 6e f8 3c 24 23 e4 bd
       0.07719407 -0.053669296 0.030326117 -0.11139515
000010 67 ca ec bd 6d 08 9c bd a7 a5 78 3e f8 a0 9d bc
       -0.11562043 -0.076187946 0.24281941 -0.019241795
000020 cf 56 29 bd 74 b4 ea bc 56 4d b9 3d 00 f0 fa 3c
       -0.041342553 -0.0286505 0.09047954 0.030632019
000030 6d fe 43 3d 7a 25 54 bc 8a b0 44 3d 5d 2a 55 3d
       0.04785006 -0.012948388 0.048019923 0.052042354
000040 e8 f4 b0 3d 57 53 74 3d 35 29 a3 3d 31 69 81 bc
       0.08640462 0.05964979 0.07966844 -0.01579723
000050 a3 a8 dc 3b 2f 7b e5 bc ec de 8e 3c 8b c3 3e 3c
       0.0067339703 -0.02801284 0.017440282 0.011643301
000060 0b ae 2b 3d 9a f3 fc 3c bd 98 42 3b 8f aa 47 3d
       0.041914027 0.030877877 0.002969309 0.04874664
000070 85 82 11 3c f3 40 3c 3d 5b d5 f8 3c ba 04 08 3d
       0.008881216 0.045960378 0.030375173 0.033207633
000080 b0 a5 89 3c 09 fa 53 3d e6 59 69 3d df d3 7b 3d
       0.016802639 0.051752124 0.0569705 0.061481353
000090 99 6d 32 bc 6d fc f8 3c 91 ee 6a 3c e3 33 38 bd
       -0.010890388 0.030393803 0.014339105 -0.044971358
0000a0 49 94 53 3d 11 9e fd 3d 27 d5 b3 3d b9 e9 27 3d
       0.051655088 0.123836644 0.0878089 0.04099438
0000b0 b7 b8 da bc 60 5d 11 bd 82 07 62 bd 80 73 74 3c
       -0.026699407 -0.03548944 -0.05518294 0.0149201155
0000c0 8f 78 a5 3d 77 2e 04 3d 9a 1e b4 3d c7 73 4b 3d
       0.08079635 0.032270875 0.08794899 0.04967096
0000d0 c7 8a 18 3d 0e 55 c9 bd 4b 29 43 3d dd e9 87 bd
       0.037241723 -0.09830676 0.047646802 -0.06636403
0000e0 79 70 f6 bc dd d7 10 bd f2 29 02 3b 4f 12 1e be
       -0.030082928 -0.035362113 0.0019861427 -0.15436672
0000f0 ee ec e9 bc 16 83 cb 3c 58 fd 20 3c d6 6a cb 3d
       -0.02855536 0.02484278 0.009826027 0.09932487
000100 74 0b 54 3d 47 75 9c bd 8d ef 88 3d f1 d6 47 3e
       0.051768735 -0.076395564 0.06686316 0.19515587
000110 a5 96 07 3e c1 17 9c bd d2 fc af bd 76 76 0d bc
       0.1324106 -0.07621718 -0.085931435 -0.0086342
000120 4a 32 09 bd 8c 5f 56 be 47 40 5b be 41 c3 f7 bc
       -0.033495225 -0.20934886 -0.21411239 -0.030244472
000130 d9 aa ec bd 8f bc ff 3c 00 b3 e8 bc 8e ab 35 be
       -0.11556024 0.031217841 -0.028405666 -0.17741224
000140 18 2b 84 3d 23 8b 91 bd 2d 30 92 bd dd d2 45 bd
       0.06453532 -0.07106616 -0.07138095 -0.048296798
000150 80 f1 ce bc cc 08 ac bd f6 a4 3a 3c 47 87 38 be
       -0.02526164 -0.08400115 0.011391869 -0.18020354
000160 32 c2 2d bc 82 37 3d be f1 c2 4f 3d 05 72 5c 3f
       -0.010605382 -0.18478206 0.05072302 0.8611148
000170 88 fd ca bd fd 96 18 3e 5e 22 1d 3e f0 6b 19 3d
       -0.099116385 0.14901347 0.15345141 0.037456453
000180 88 0c 4d 3e 5e 33 98 3e c5 de 3c 3e ab 0d 2a 3e
       0.20024312 0.2972669 0.18444355 0.16606776
000190 d1 47 19 3e ab 68 67 3d 14 c8 7b 3d 16 e7 0b bc
       0.14968802 0.056496304 0.061470106 -0.008538982
0001a0 12 b4 58 3e e7 91 d2 3b b9 76 e2 bc 4e 7e 3a 3c
       0.21162441 0.0064260843 -0.027644502 0.011382652
0001b0 62 7e 10 be 8e 15 8d 3d b5 bd 9a bc c3 fb 6f 3d
       -0.14110711 0.06888877 -0.018889287 0.058589708
0001c0 c5 3a 8e 3c 7b 48 b4 bc 31 81 4e 3d 49 4d fe 3d
       0.017362008 -0.022007218 0.050416175 0.12417085
0001d0 c6 e8 2f 3e 52 8c 15 3e d0 f8 2d 3d be 83 d3 3c
       0.1717864 0.14604309 0.042473614 0.025819656
0001e0 af a5 9e 3d ca 31 84 bc b3 c0 e5 3d 0a 3b 2f be
       0.077464454 -0.016137023 0.11218395 -0.17112365
0001f0 00 62 01 be b3 c3 19 be 05 1a 64 be df 5d c4 be
       -0.1263504 -0.1501606 -0.2227555 -0.38352868
000200 73 33 72 be c1 9a c9 be 1d bd 47 be b4 5c 81 be
       -0.23652439 -0.3937588 -0.19505735 -0.2526604
000210 c0 40 66 be 2f 94 59 bc c0 f1 da be 12 4d a6 bd
       -0.22485638 -0.013279959 -0.42762566 -0.08120169
000220 84 c9 73 bd 8d 6f 82 3d bb 7e 93 3d b7 9e c1 bd
       -0.059518352 0.06368933 0.07201906 -0.094541006
000230 52 0e 88 bd 9a 96 a9 bd 5c d2 5e 3d 40 12 d2 ba
       -0.066433564 -0.08280678 0.054399833 -0.0016027167
000240 58 13 a7 bd 26 8a 83 bd da 54 e5 bc 6c 96 08 3d
       -0.081579864 -0.06422834 -0.027994562 0.03334658
000250 74 01 f2 bc a0 da 29 bb f3 13 41 bd 08 a6 38 bc
       -0.029541709 -0.0025917664 -0.047138166 -0.011270054
000260 78 9f 61 bc 14 4e 0b 3d ee ff f8 bc 6c 53 e0 3c
       -0.0137709305 0.034010008 -0.030395474 0.027383529
000270 78 25 5f 3c 70 dc 80 bd 00 0f 3c 3d f8 9a 48 3d
       0.013619773 -0.06292045 0.045912743 0.048975915
000280 14 66 f4 3c 91 4a ac bd b8 89 f8 3c dc fc 68 3d
       0.02983383 -0.0841266 0.030339107 0.05688177
000290 4a 46 99 bd c0 17 0e 3b 5b a7 85 bd 44 66 a9 bd
       -0.0748411 0.0021681637 -0.06526061 -0.08271459
0002a0 e7 c2 a2 bd da 4b 25 bd 7e eb 14 3d 0f 64 69 bd
       -0.07947331 -0.04035554 0.036357395 -0.05698019
0002b0 fe c4 95 bd c5 7b 59 bd e0 25 7b bc e5 af 87 bd
       -0.07312964 -0.05309655 -0.015328854 -0.06625346
0002c0 c2 cc 9e bd dd 0d ac bd 45 0e 22 bd 68 a7 82 bd
       -0.07753898 -0.08401082 -0.03956439 -0.063795865
0002d0 ae 3e 92 bd 1a 64 58 bd a4 8f 8a 3d 94 a1 54 3d
       -0.071408615 -0.05282984 0.067656785 0.051911905
0002e0 04 c4 d0 3c b6 8c 2c bd 36 cd 9e 3d e0 67 68 bb
       0.025484093 -0.04212638 0.07753985 -0.0035462305
0002f0 80 bd 3c bc 18 bb 94 bd 78 ad 75 3c 05 e6 23 bd
       -0.01151979 -0.07262248 0.014994971 -0.040014286
000300 6c b2 bc bc 79 fd 3c bd 4c 6e 42 3d 1c 34 27 3d
       -0.023034297 -0.046140168 0.04746847 0.04082118
000310 90 86 fb 3c 30 5c 5e 3d 14 34 43 3d ac c6 59 3d
       0.030703813 0.054287136 0.047657087 0.053167984
000320 b6 60 80 3d 89 e1 8a bd 44 52 81 bd b0 61 95 bb
       0.06268446 -0.06781299 -0.06314519 -0.0045587644
000330 00 b8 ce 3c fa 8e 5d bd 08 95 8f bd d0 79 bc 3b
       0.025234222 -0.05409143 -0.07010847 0.005751826
000340 08 9e 71 3d 1e 6e 8f bd 81 bc 74 bd 7a 86 eb bc
       0.0589886 -0.07003425 -0.059750084 -0.028750647
000350 d6 81 a2 3d 60 b3 26 3d fe 86 ea bc e2 f4 a9 3d
       0.079349205 0.04069841 -0.028628822 0.08298661
000360 9e e0 89 3d f2 f4 9e bd 00 ae 30 bd b0 c6 80 bb
       0.067322955 -0.07761563 -0.04313469 -0.0039299354
000370 e4 04 88 bc ec 1d bd 3c 80 64 db ba c3 7f 48 bd
       -0.016603895 0.023085557 -0.0016738325 -0.048949968
000380 c8 04 9a bc 50 ca fa 3b 10 60 91 bd ec a1 8a bc
       -0.018801108 0.007653512 -0.070984006 -0.016922913
000390 12 0e 91 3d dc d3 c9 3c 93 85 07 bd 01 59 15 bd
       0.07082762 0.024637155 -0.03308637 -0.036461834
0003a0 1c 76 70 bd 94 07 b6 3c 18 e5 6a bc 30 6b a6 bb
       -0.058706388 0.02222041 -0.014336847 -0.0050786957
0003b0 c5 7d 25 bd e8 c3 68 3d a0 e1 5d 3b e0 19 56 3d
       -0.040403146 0.056827456 0.0033856407 0.05227077
0003c0 e8 0f 50 3d 2b c6 94 bd c0 07 37 3d 60 a6 e8 3c
       0.05079642 -0.0726436 0.044685125 0.028399646
0003d0 30 4d 75 bd 90 06 2f 3d 50 61 f6 3b ee e1 a9 3d
       -0.059888065 0.042730868 0.007518925 0.08295046
0003e0 a2 25 07 bd a0 30 44 bc 60 1a 60 3d 30 0f 2b bc
       -0.032994874 -0.011974484 0.054712653 -0.010440633
0003f0 a0 a9 ae bb 00 97 7f bb f2 47 ec bc 58 62 f3 3c
       -0.0053302795 -0.0038999915 -0.0288429 0.02970998

fc1.bias f4 [128]
000000 49 36 84 3d b6 6e 99 3d 50 9d af 3d 36 2b d5 bc
       0.064556666 0.074918196 0.08574927 -0.026021581
000010 13 12 80 bd 8a 82 41 3d 2e 0b f4 3c 7d e4 9c bc
       -0.062534474 0.047243632 0.029790487 -0.01915192
000020 97 7e 5c bd dc 52 cf 3c b8 80 3a 3c 93 37 43 bd
       -0.053831663 0.025308065 0.011383228 -0.04766042
000030 7c 1a be 3d 41 9b cb bc b8 7f a3 3d 10 89 d7 bb
       0.09282395 -0.024854304 0.07983345 -0.0065776184
000040 af e8 10 bd 15 c9 16 bd b8 ca 8e bd cd 0d 11 3d
       -0.035378154 -0.03681286 -0.06972259 0.035413552
000050 e7 99 2d bd f0 aa 25 bc 9b 25 14 bc 3e 88 3f bc
       -0.0423831 -0.010111555 -0.009042169 -0.0116901975
000060 50 20 ec bb 13 c1 50 bd 24 5c 87 3d 83 e8 ed 3c
       -0.0072060004 -0.05096538 0.06609371 0.029041534
000070 9e 01 8b bc ff 45 9c bb d4 cd a6 3b 94 09 87 bd
       -0.016968545 -0.0047690864 0.0050904546 -0.06593624
000080 76 dd 89 bd a5 45 3b 3d b6 4f c0 bb f4 db a2 3c
       -0.067316934 0.045720715 -0.0058688773 0.019880272
000090 c3 87 99 bd 2d 15 7f 3d e8 91 48 3d 98 52 91 3d
       -0.074965976 0.062276054 0.048967272 0.07095832
0000a0 d0 70 b1 bd 7b 96 b5 3c 4b 7d b2 3c e1 fa 00 3d
       -0.086640954 0.022166481 0.02178826 0.031489257
0000b0 08 2b 3e bd 79 56 73 3b 7b 93 40 bd bb 35 16 bd
       -0.046427757 0.00371304 -0.04701565 -0.036672335
0000c0 49 aa f0 bc 72 e0 8f 3d 2e bd 10 bd 1e 76 93 3d
       -0.029378073 0.070252314 -0.035336666 0.072002634
0000d0 2a ac 6e 3d dc 4d 1b bd 84 04 87 3b cb 4d 37 bc
       0.058269657 -0.03791605 0.0041204114 -0.011187981
0000e0 81 0a 17 3c 58 b7 90 bd 4a 60 8a bd 34 b0 3b 3d
       0.009218813 -0.0706622 -0.06756647 0.045822337
0000f0 67 cd 0d bd 6c 92 e8 3c 38 1b 84 bd db 9f 9f 3d
       -0.034619715 0.028390132 -0.06450504 0.07794162
000100 08 54 9d 3d 84 fe c8 bc 65 f4 4e 3d be ac ba 3d
       0.07682043 -0.024535425 0.05052604 0.09114979
000110 5c 7f f4 3b af 34 08 3e 60 a1 6f 3d 43 2a a0 3d
       0.0074614715 0.13301347 0.05850351 0.07820561
000120 34 5c e5 3c 47 c9 00 bd ae ae c5 3c 6b ab 7c 3c
       0.027998067 -0.031441953 0.024131145 0.015421729
000130 c8 8c 18 bc 08 ba ff bc e3 da 55 bc de 1c 87 3d
       -0.009310909 -0.031216636 -0.013052675 0.06597303
000140 78 dd b5 bd 98 3b 91 bc 48 71 a2 3d 54 0a 8b 3d
       -0.088801324 -0.017728612 0.07931763 0.06789079
000150 63 c4 07 3d 93 eb 39 bd c2 48 f1 3c 8c ae 22 bc
       0.033146273 -0.045390677 0.029453639 -0.0099293105
000160 ae 09 91 bd 79 df 8c 3d 95 a7 6d bc 86 56 fa 3c
       -0.070819244 0.068785615 -0.014505287 0.030558836
000170 12 e5 a4 3d cb d0 eb 3d 84 28 ed 3c 50 5c 85 3d
       0.08051504 0.115144335 0.028949983 0.06511748
000180 18 01 f6 bb 53 ed 01 3d a0 c9 96 3c 7b 6e c6 3c
       -0.0075074546 0.03172047 0.01840669 0.024222603
000190 90 e1 57 3d bf 83 1a bd 99 2a 95 bc 78 47 96 bd
       0.052705348 -0.0377233 -0.018208789 -0.0733785
0001a0 f2 c9 ff bc e4 65 94 3b 40 e6 02 bd cf e6 a8 3b
       -0.031224225 0.004528748 -0.031957865 0.0051544677
0001b0 63 2a 11 3e 90 5a a7 b8 53 6e 9a bc 9a c1 12 bc
       0.14176326 -7.980049e-05 -0.018851435 -0.008957291
0001c0 97 29 99 3d 05 9b d7 3d 12 db 84 3d d2 99 83 3d
       0.07478636 0.105276145 0.06487097 0.06425823
0001d0 62 4a 0d bc c9 a5 09 bd 78 61 b8 3c 6c a9 7d bd
       -0.008623691 -0.03360537 0.022507414 -0.06192915
0001e0 ec ed 1e 3c 85 22 a9 3c 18 04 21 bd 25 81 4f bd
       0.00970028 0.020646343 -0.039310545 -0.05066027
0001f0 77 83 5f bd 48 88 37 3d 1d 3e 83 3d e2 15 87 bd
       -0.054568734 0.044807702 0.064083315 -0.06595971

fc2.weight f4 [128, 128]
000000 71 e8 88 3d f3 4f ad bd bc 3b 6f bd b9 4c a4 3d
       0.0668496 -0.08462515 -0.058406577 0.08022446
000010 e0 37 d5 3c 2c 97 a2 bd 53 36 a6 3d 00 0a 02 ba
       0.02602762 -0.0793899 0.0811583 -0.00049605966
000020 a0 a2 15 3d c6 3a 9f bd c8 a9 12 bc 54 03 98 bc
       0.036532044 -0.07774882 -0.008951612 -0.018556274
000030 50 f5 ef bb 09 c8 a5 bd 1d 9c a5 3d 9e 2b 60 3d
       -0.0073229447 -0.08094794 0.08086417 0.054729097
000040 3c f0 08 3d 4a ee 84 bd 04 98 ba 3c 4f 42 79 bd
       0.03343223 -0.064907625 0.022777565 -0.060854252
000050 58 2d 86 bc 29 45 98 bd 18 d2 52 bc 08 43 e4 3c
       -0.016379043 -0.07435066 -0.012867473 0.027863994
000060 00 25 96 ba 6c cb 9c bd b0 60 cb bc fe 52 05 bd
       -0.0011455119 -0.07655987 -0.024826378 -0.03254985
000070 5b dd 98 bd 52 71 7c 3d 3c 85 8d bc 09 db 9c 3d
       -0.07464095 0.06163151 -0.017275445 0.07658965
000080 a4 e9 59 bd 56 a9 9d bd 30 a0 ce 3b 80 e7 dd bc
       -0.053201333 -0.07698314 0.006305717 -0.027087927
000090 1d 56 9f 3d 80 bf c9 bb e6 fc 16 bd d0 20 bd 3c
       0.07780097 -0.006156862 -0.036862276 0.023086935
0000a0 d2 a8 9a bd 87 1c a1 bd ea 28 3f bd b6 28 e1 bc
       -0.07551731 -0.07866769 -0.046669878 -0.027485233
0000b0 83 5d 09 bd 08 24 5d 3c a4 7f 8e bc d7 65 45 bd
       -0.033536445 0.01349736 -0.017394848 -0.048192825
0000c0 06 be 7d bd 1d 7d a5 3d e0 b8 da 3b 78 d9 fa 3c
       -0.0619488 0.08080504 0.006674871 0.030621275
0000d0 58 a1 97 bd 60 15 88 3c 7f 2a 2e bd c2 ff 15 3d
       -0.07403821 0.016611755 -0.042520996 0.036620863
0000e0 3c 7b ac bd 9a 85 08 bd d0 9a 86 bc f0 35 7f bc
       -0.084219426 -0.033330537 -0.016431242 -0.015576825
0000f0 76 e4 4e bd c0 b4 9c 3a b6 4e 7b 3d 7f 2d 16 bd
       -0.050510846 0.0011955723 0.06135436 -0.036664482
000100 c4 e8 84 3c 3c 05 db bc 42 da 0a bd 1f 4a 91 bd
       0.016224273 -0.026735894 -0.033899553 -0.070942156
000110 60 8d d0 3c ed 78 8a bd 33 0b b2 3d 10 1c 7b bd
       0.025458038 -0.06761346 0.08693542 -0.06130606
000120 18 c1 63 3c d2 c0 20 3d 6c 9e dc 3c 52 3b 08 3d
       0.013901018 0.039246388 0.02693101 0.033259697
000130 f5 a3 3a bd 90 55 2d bc 57 2c 24 bd 24 cc 0b 3d
       -0.045566518 -0.010579482 -0.04008135 0.03413023
000140 84 a9 aa bd 31 97 9d bd 3b d8 aa 3d cf c7 91 bd
       -0.08333114 -0.07694853 0.08342024 -0.071181886
000150 b8 bc 88 bd 7f 55 95 bd 8b bf 94 3d e0 13 c8 3c
       -0.0667662 -0.07291698 0.072630964 0.02442354
000160 e3 f7 52 bd 80 bc bf 3a 88 92 a9 bd 6d 90 ab 3d
       -0.051505934 0.0014628321 -0.08279902 0.083771564
000170 1d ad 9a 3d 1b c0 a3 bd e0 92 95 bb 2a d9 92 bd
       0.0755255 -0.079956256 -0.004564628 -0.07170327
000180 95 af 46 bd a5 a2 83 3d e5 b9 a0 3d 64 9f df 3c
       -0.04850729 0.06427506 0.078479566 0.027297683
000190 58 7e 0c 3d 76 b4 80 bd 5d 02 86 3d 78 54 6d 3c
       0.03430018 -0.0628442 0.065434195 0.014485471
0001a0 20 81 21 bb fb bf 7a bd 93 b5 81 3d ea 9a 59 3d
       -0.0024643615 -0.061218243 0.06333461 0.053126253
0001b0 a6 81 0a bd 77 44 a4 3d 65 a3 96 bd 03 ad a9 bd
       -0.03381505 0.08020871 -0.07355384 -0.082849525
0001c0 9e 6d 74 3d d7 55 a1 bd b8 b1 02 3d 00 47 de ba
       0.05967485 -0.07877701 0.031907767 -0.0016958416
0001d0 30 ec 40 3c ec 36 94 bd d6 9b 2b 3d c0 0d 9a 3c
       0.0117750615 -0.07237038 0.041896664 0.018805385
0001e0 80 f6 5e 3b c6 9d 7b 3d 20 f1 99 bd c0 b3 54 bd
       0.0034021437 0.06142976 -0.07516694 -0.051929235
0001f0 84 97 27 bd c8 c7 06 3d 1b 0a b1 3d e1 db 9a 3d
       -0.04091598 0.03290537 0.086445056 0.0756147
000200 99 fc 9f ba 79 fd 05 bd 6c dc b0 3d 01 45 b6 3d
       -0.0012206017 -0.032712433 0.08635792 0.0889988
000210 d9 b7 ca 3b 96 28 89 3c da d0 4b 3d 90 12 59 3d
       0.006186467 0.016742986 0.049759723 0.05299622
000220 0d 83 7d bc 08 92 21 bd e6 71 20 3d 50 27 fb bc
       -0.0154731395 -0.039445907 0.039171122 -0.030658394
000230 3a c6 d2 3d d5 a9 41 3d 55 90 33 3d c0 f0 6e bb
       0.10291715 0.047281105 0.043838818 -0.0036459416
000240 ef 62 d1 3c 82 22 06 be 4a 1a 1f bd e4 5c 51 bd
       0.02555987 -0.13099101 -0.03884343 -0.051113978
000250 08 0f 83 bd a4 a9 94 3c 8e a3 dd ba 12 aa 7a 3d
       -0.06399351 0.018147297 -0.0016909705 0.061197348
000260 0c eb c9 3c 86 ad 3c bd f4 1f 28 bd 00 ca 11 3d
       0.024648212 -0.046063922 -0.041046098 0.035593033
000270 de 6d 83 3c c8 ff 41 bd d2 40 63 3d 21 0e a2 bd
       0.0160436 -0.047363073 0.05548174 -0.07912851
000280 f2 13 25 3d 1f ab 1b bd 95 ea 18 3d 18 9a 18 3d
       0.040302224 -0.03800499 0.03733309 0.03725633
000290 84 57 28 3d 14 32 ad 3d e4 e2 11 3d 7d ef 2e 3c
       0.041099086 0.08456817 0.03561677 0.010677216
0002a0 b7 34 be bd f5 f3 18 bd 77 53 e7 3d b0 e9 19 bc
       -0.09287398 -0.03734203 0.112952165 -0.009394094
0002b0 dd 3c c4 3d 4b c5 5f bd e4 23 ad bc 43 aa 69 bd
       0.09581921 -0.054631513 -0.021135278 -0.05704714
0002c0 52 b7 c0 bd 80 0d 3b bc 2c 2c a1 bd 9c f8 b4 bd
       -0.094099656 -0.011416793 -0.07869753 -0.08836481
0002d0 b3 91 9f 3d 74 24 27 bd 03 1a 8f bd fb 63 42 bc
       0.07791462 -0.04080625 -0.06987383 -0.0118646575
0002e0 df f4 f8 bc 20 90 91 bc 0d 95 a3 3d d0 6b ba 3b
       -0.030390201 -0.01776892 0.079874136 0.005689122
0002f0 43 68 c5 bc 4b 2a 9d bc b5 d5 d2 3c 43 8d 04 3e
       -0.024097567 -0.019185206 0.02573667 0.12944512
000300 b0 d7 4e 3d b8 d3 3c bd aa 0d 3f bd 2c f6 5e ba
       0.050498664 -0.04610035 -0.04664389 -0.00085053104
000310 02 b9 35 3d 99 d8 95 3d e9 4f e6 bd d7 9c b9 3c
       0.04436589 0.07316703 -0.112457104 0.022657795
000320 2e 85 ac bd 44 06 73 bc 8a 4a 79 bd 86 55 4d bd
       -0.084238395 -0.014833037 -0.0608621 -0.05013039
000330 60 77 f8 3b 70 0b 80 bb 13 f1 85 bc c0 a7 d0 3b
       0.00758259 -0.0039076135 -0.016350305 0.0063676536
000340 0a 8d f2 bc 1f c8 a8 3d f1 2c 45 3b 87 60 91 bd
       -0.029608268 0.08241295 0.0030086602 -0.07098489
000350 88 3e 04 bd 1a 0a 90 bd 40 37 6e bd 2a 1c c6 3c
       -0.032286197 -0.07033177 -0.05815816 0.024183352
000360 f6 29 7b 3d 4a ac ae bd 4b 8b 48 bd a6 b5 8f 3d
       0.061319314 -0.08528955 -0.048960965 0.070170686
000370 80 11 96 bd 36 a0 9e 3d 50 05 49 bc 02 22 28 3d
       -0.073275566 0.077454016 -0.012269333 0.041048057
000380 1e b9 c3 bd 46 dd f3 3d 75 17 7b bd cf ee 3b 3d
       -0.09556793 0.11907439 -0.061301667 0.045882042
000390 69 35 9f 3d 4a bc 9d 3d 13 49 7b 3d 26 5a 89 3d
       0.07773859 0.07701929 0.061348986 0.067066476
0003a0 60 c2 97 3d 95 9f bf 3c 1b 48 05 3d 24 97 25 bd
       0.07410121 0.023391524 0.03253947 -0.040427342
0003b0 21 59 a2 3b fc f9 3e 3d 83 02 8d bb c9 39 5d 3d
       0.0049544726 0.046625122 -0.004303278 0.054010186
0003c0 7b ff 91 3d aa 71 48 3d 5a 52 1b 3d 78 42 6d bd
       0.07128807 0.048936523 0.037920333 -0.057924718
0003d0 74 4f 43 bd b0 1d 63 bc 8c 4b 9a 3d bf 4b 79 bc
       -0.047683194 -0.0138620585 0.07533941 -0.015215813
0003e0 16 87 37 3d 88 d8 22 3d 56 41 42 3d 60 0c be 3c
       0.044806562 0.03975728 0.04742559 0.02319926
0003f0 8d 0d 35 3c a6 0b 51 bd 52 fc 94 3d ed 5b a4 3d
       0.011050594 -0.0510365 0.07274689 0.08025346

fc2.bias f4 [128]
000000 5d bc 87 3d 85 fb fb bb aa 16 2e bd b2 04 78 3c
       0.06627724 -0.0076898956 -0.042502083 0.015137838
000010 b3 80 3c bd 6c 4b aa bd 82 20 22 3d 89 2f ac 3d
       -0.046021175 -0.08315167 0.039581783 0.08407504
000020 c3 df d4 bb 57 c7 18 3d eb bf dc 3c fa 29 95 3d
       -0.006496401 0.03729948 0.026946982 0.07283397
000030 b9 76 07 3d c2 bc a6 3c e6 8f 20 3c 0c f0 85 bc
       0.033072207 0.020353679 0.009799933 -0.016349815
000040 aa 75 06 3d 71 7c 13 3d 53 2e ce bc 03 5c 8e 3d
       0.032827057 0.03600735 -0.025168573 0.069511436
000050 88 6e 93 bd 7c 83 93 3d b2 54 a4 3c 56 0b f4 bc
       -0.071988165 0.07202813 0.020059917 -0.029790562
000060 ea 50 2d 3d 78 9b 4d 3a 2f cd e0 bc 9c 68 1b bd
       0.042313494 0.0007843296 -0.02744159 -0.03794156
000070 bd bb 90 bd 38 ed 8e bc 13 ef 3e bc a5 04 a8 3d
       -0.07067058 -0.0174471 -0.011653679 0.08204011
000080 8a f4 59 bd e0 56 e8 3b 80 f4 ac ba c4 3c a5 3d
       -0.053211726 0.0070904344 -0.0013195425 0.08068231
000090 f0 ec 0e bd ec cb 03 3d b4 2d 86 bd 62 e8 42 bc
       -0.03489393 0.032176897 -0.06551686 -0.011896225
0000a0 7b 24 02 bc 01 92 8f 3d c2 03 a1 3d 3d 87 61 3d
       -0.007943268 0.0701027 0.07862045 0.055060614
0000b0 9e d8 33 3c c2 73 af bd f8 77 84 3d e5 24 a3 3c
       0.0109769385 -0.08567001 0.06468195 0.019915054
0000c0 7c 98 53 bd ca 41 b9 bd ba 65 8b 3d 7d 78 cd 3c
       -0.051659092 -0.090457514 0.06806512 0.025081867
0000d0 ae 32 a2 3c 71 03 61 bd 23 f6 85 3d e5 c0 7c 3d
       0.019799557 -0.054934923 0.065410875 0.061707396
0000e0 5c 64 88 bc 73 0f ff bc ad e3 b6 3d a9 cb 3a bd
       -0.016649418 -0.031135296 0.089301445 -0.04560438
0000f0 be d1 c2 bd 0d ad 48 bd eb 30 1e bd 41 32 ee bc
       -0.095126614 -0.04899316 -0.03862087 -0.029076697
000100 14 60 07 3c b0 7f 87 3d 6b be e3 3c 73 07 e8 bc
       0.008262653 0.06616151 0.02780076 -0.028323865
000110 6b e8 b6 bd f9 fb 3b bd 8f 45 a7 3d db fe bb bd
       -0.08931049 -0.045894597 0.08167564 -0.09179469
000120 f6 44 87 3b 40 1a ba bc 04 62 0d 3d 0b 5e 7a bc
       0.004128094 -0.022717595 0.034517303 -0.015281211
000130 52 fd f1 bc cd 15 05 3c 35 46 54 bd 63 a3 cc 3d
       -0.029539738 0.0081228735 -0.051824767 0.09992101
000140 8a d8 42 3d 19 97 2d bc 54 aa 97 3c c2 97 15 bd
       0.04756979 -0.0105951065 0.018513836 -0.03652168
000150 ab 37 2f 3d 87 31 f0 bb bb cc a5 3c 1e 32 8e bb
       0.0427777 -0.007330123 0.020239225 -0.0043394705
000160 4e 3c 8a bd 39 26 c5 bc 30 24 56 bd da dd 54 3d
       -0.067497835 -0.024066078 -0.052280605 0.051969387
000170 25 5f b7 3d 96 6b 18 3d 3b 57 b7 3d 1e 07 ee 3b
       0.08953694 0.037211977 0.08952185 0.007264032
000180 59 2b 46 3d 53 1b 5e bd 80 bd cb 3c d6 67 93 3d
       0.048381183 -0.054225277 0.024870634 0.071975395
000190 2c 1f 25 3d fd 8d 5d 3d 00 b2 e5 3d e6 43 c9 bc
       0.04031293 0.05409049 0.112155914 -0.02456851
0001a0 cf e5 76 3d d1 91 bd 3c 03 7c 09 3e 81 91 1a 3c
       0.060277756 0.02314082 0.13426213 0.009434105
0001b0 53 37 bf 3b a4 a7 1f bd 0e a7 3c 3d ac 2d ba bd
       0.0058354526 -0.038978234 0.046057753 -0.090907425
0001c0 9a 71 31 bd 5b c6 bf 3c cb 05 e8 bb cc 78 92 ba
       -0.04332123 0.023410013 -0.0070807687 -0.0011174916
0001d0 25 eb a5 3d 20 7f 80 bd 1b 00 08 3d bf 18 e7 3b
       0.08101491 -0.06274247 0.033203226 0.0070525105
0001e0 80 b2 ba bb c7 4d a7 3d ac aa 5c 3d 3f a5 26 3d
       -0.0056975484 0.08169132 0.053873703 0.040684935
0001f0 1f 9c d2 3b 78 81 8b 3d c2 ca f4 b9 80 44 7f 3a
       0.0064273025 0.068118036 -0.00046690373 0.00097376853

fc3.weight f4 [64, 128]
000000 da 80 2a bd c3 e1 be 3c 10 86 92 bd 51 27 87 bd
       -0.04162679 0.023301011 -0.07154477 -0.06599296
000010 0e c7 88 3d 84 fd 4f bd a0 8b dc 3b d3 37 12 3c
       0.06678592 -0.05077888 0.006730512 0.008924442
000020 fd 92 a8 3d 24 ec 74 3d 0a a0 80 3d fb 16 7b 3d
       0.08231161 0.059795514 0.06280525 0.061301213
000030 3d 41 b5 bd 6e 28 83 bc ac 00 1f 3d 9e 34 69 bd
       -0.08850334 -0.01601049 0.038819 -0.056934945
000040 81 3c 7c 3d 0f 23 2b 3d 7d 20 8e 3c 01 7b 85 bc
       0.06158114 0.04178148 0.017349476 -0.016294004
000050 60 24 fe bb b6 c3 ce bc 62 e3 a7 bc 24 dd ee 3c
       -0.007755801 -0.025239807 -0.020494167 0.029158182
000060 66 b8 10 3d 2b 26 0b 3d 88 96 85 3d 50 6f e0 3b
       0.035332106 0.033971947 0.06522852 0.006849207
000070 49 91 84 3d 6a bd bc 3d 1e 74 d5 3d 75 a5 80 3d
       0.064730234 0.09215815 0.10422538 0.062815584
000080 60 f0 bf 3d 0f 1a a1 3d d0 a7 9e bc a7 23 a9 3d
       0.0937202 0.078662984 -0.019367129 0.08258753
000090 df 52 f1 bc 7c 91 b0 3c c9 9c 7d 3d e7 16 67 3e
       -0.029458461 0.021553747 0.0619171 0.2256733
0000a0 ef f2 1f bd 9b a6 9b bd d5 82 d7 bc 7c 39 ac 3d
       -0.03905004 -0.07600137 -0.026307503 0.08409402
0000b0 14 57 a4 3d ba 0a 64 bd d7 bb dd 3b 54 8e 84 bd
       0.08024421 -0.055674292 0.006766777 -0.064724594
0000c0 85 8b b8 3d 88 29 97 bd 74 6f ad 3d 3e 64 5e bd
       0.09010986 -0.07380968 0.084685236 -0.054294817
0000d0 7a 96 c5 bc ee f4 64 3d b5 11 5e 3d 0e a1 1c 3d
       -0.024119604 0.055897646 0.054216105 0.03823953
0000e0 f0 65 86 bb 3b dd 51 bd 8d f9 c9 bc 89 39 c5 3d
       -0.0041015074 -0.051236372 -0.024655128 0.096301146
0000f0 4f 0a 56 bc 4e 5a 91 bd 48 8e e6 bb e6 7f 9f 3d
       -0.013063981 -0.070973024 -0.007036004 0.077880666
000100 6c 4a ac 3d 67 7b 3e 3c db 46 48 bd d0 10 29 3d
       0.08412632 0.011626101 -0.048895698 0.0412758
000110 1d 46 8f bc 17 4c 17 bd f3 64 b5 3c ca c0 a9 3b
       -0.017489487 -0.0369378 0.022142863 0.005180453
000120 62 e7 a3 bd 96 f3 81 bd 8d 1d f7 3c 1b 66 90 3d
       -0.08003117 -0.063452885 0.030165458 0.07050725
000130 02 77 e6 bc f4 8b db bc 27 dc a0 3d fc fe 8f 3d
       -0.02813292 -0.026800133 0.07854491 0.07031056
000140 76 e1 50 3d 0e 6e 76 bc 8f 74 16 bd d6 25 04 bd
       0.050996266 -0.0150408875 -0.036732253 -0.032262646
000150 fb 62 30 3d d2 28 11 bd 95 9a 68 bd e4 71 06 3d
       0.043063145 -0.03543932 -0.056788046 0.03282346
000160 05 a8 ad bc ed aa 97 bd 7d ab 3b 3d a9 17 b5 3d
       -0.021198282 -0.074056484 0.04581784 0.088424034
000170 39 ad f1 3b b9 5a 58 bd 1d fd d2 bd 65 59 76 3c
       0.007375386 -0.052820895 -0.10302184 0.015035962
000180 cc 28 52 bd 14 f4 5f b9 2e f9 5d 3d d3 54 3f bd
       -0.05130844 -0.00021357863 0.054192714 -0.046711754
000190 6c 6a 36 3d 94 31 b0 3c c1 46 7d 3b 2a 75 51 3d
       0.044535086 0.021508016 0.003864691 0.051137127
0001a0 00 b2 36 3d c4 44 40 bd 50 35 89 3d a5 33 a9 bd
       0.044603348 -0.04694058 0.06699622 -0.082618035
0001b0 35 25 9d 3c aa ea 6b 3c b8 6f 86 3c d2 4e e1 3d
       0.01918278 0.01439921 0.016410694 0.11001362
0001c0 a3 91 a5 3d 54 d8 24 3e eb e6 86 bd 0e 4f 4d 3d
       0.080844186 0.16098148 -0.06587013 0.05012422
0001d0 c6 71 05 3c f4 f6 e0 3c 60 92 ad 3d 61 3c 0d 3d
       0.0081448015 0.027461506 0.084751844 0.03448141
0001e0 cb 45 85 3d bf 98 13 bd 9b 2b a4 3c 21 36 c7 bc
       0.065074526 -0.036034342 0.020040324 -0.024317803
0001f0 ee 23 9a 3d 67 af 1c bb c2 0a ac bd 40 40 89 bd
       0.07526384 -0.002390826 -0.084004894 -0.06701708
000200 e8 49 b2 3c ea 19 27 3d 60 14 c6 3c a2 9a 24 3d
       0.021763757 0.040796198 0.024179637 0.04018653
000210 f4 a4 78 bd 5a 41 68 bd 4c 61 ac bd 1d ac a8 bd
       -0.060704187 -0.05670295 -0.084169954 -0.08235953
000220 55 2b 19 3c 28 76 45 3c 94 b3 de bc 70 cc 93 3d
       0.00934871 0.012052096 -0.027185239 0.07216728
000230 cc ed 7c 3c e1 f0 1c 3d 39 7f b0 3d 54 d3 b3 bc
       0.015437555 0.038315658 0.08618016 -0.021951355
000240 fd 3a 30 3d 59 c7 4f bc 11 33 48 bd b7 8e e4 bc
       0.043025006 -0.0126818055 -0.048876826 -0.027900083
000250 75 c2 a9 3d 4d df 3d 3c 66 89 93 3d 56 0e 44 3d
       0.08289043 0.011588884 0.07203941 0.047865234
000260 8a 58 20 3d 87 93 8d 3d 8d 02 0d 3d 27 44 6e 3d
       0.039146937 0.06912904 0.03442626 0.058170464
000270 2d d6 47 bd 32 6c 94 3d 91 03 b6 3d 6e 98 68 3d
       -0.04878824 0.07247199 0.08887399 0.056785993
000280 cd fa 97 bc 06 46 9a bc 86 1b 64 3d de 6c 0d 3d
       -0.018552208 -0.018832218 0.05569031 0.034527652
000290 ba 87 50 bd a2 8e 51 3d 3c 11 86 3c a1 97 55 be
       -0.05091069 0.051161416 0.01636564 -0.20858623
0002a0 f8 e2 92 3c 45 ac ac 3d e6 fe 3e bd 3e 58 1e 3d
       0.017930493 0.08431295 -0.04662981 0.038658373
0002b0 94 95 d7 3c 45 3d b7 bd 4e 9a 76 3d 1c 35 ed 3d
       0.026316442 -0.08947233 0.06020575 0.115823954
0002c0 27 ad a6 bd 07 3e 18 3d e4 5b 9e bb c0 e2 14 3d
       -0.08138495 0.03716853 -0.0048327316 0.03634906
0002d0 74 0d ef 3c ac 75 c0 bc 88 47 87 3d af ad 37 3d
       0.02918122 -0.02349361 0.066054404 0.044843372
0002e0 be b9 1d 3d 08 9f d0 3d e8 fd e4 3c 9d b6 5f 3d
       0.038507216 0.10186583 0.027953103 0.054617513
0002f0 39 17 a1 bc f1 1f a2 bd a9 81 45 3d 23 97 29 bd
       -0.019664394 -0.079162486 0.048219357 -0.0414039
000300 21 cb 2d 3d 23 6c 61 bd c4 45 94 bd 40 22 26 bc
       0.042430047 -0.055034768 -0.07239869 -0.010140002
000310 58 b6 9e ba 2c a9 81 3d 35 f0 f8 bc 28 5e a0 bd
       -0.0012108786 0.06331095 -0.030387977 -0.07830459
000320 5c 59 65 3b 96 68 1d 3d b0 f6 ef 3b 08 be 3f 3d
       0.003499589 0.03842982 0.0073231086 0.046812087
000330 93 7d 8d 3d 32 ad 3e bd 71 99 13 bd ee 30 6a bc
       0.06908717 -0.04655189 -0.036035005 -0.014293892
000340 1c e0 ce bc ac 19 38 3c 9f 16 97 3b 6f 93 23 3d
       -0.025253348 0.011236589 0.004610851 0.039935526
000350 1e 9e 3c 3d 8f 86 ce 3b a3 28 96 3d e4 7a 26 bc
       0.04604923 0.0063026617 0.073319696 -0.010161135
000360 83 42 71 bd 1a 98 a7 3c 32 16 6d 3c 3e 53 13 3d
       -0.05890132 0.02045827 0.014470624 0.035968058
000370 c1 e1 05 3d 60 9e ab 3b 58 46 bc 3d 7f e7 58 bd
       0.032686 0.0052373856 0.091931045 -0.052955147
000380 07 bc 51 3d 6e 59 3d 3c c2 75 0f 3d 5e 35 ee 3c
       0.051204707 0.011556966 0.035024412 0.029078182
000390 9f 24 9c 3d b5 c7 5b 3d 62 eb db bd ab cf b9 bd
       0.076241724 0.053657252 -0.10738255 -0.09072813
0003a0 91 ff 27 3c 32 04 94 bc 12 6e 65 3d 87 43 35 3d
       0.010253803 -0.018068407 0.056013174 0.044253852
0003b0 d0 08 1f 3c c3 09 81 3d b7 75 22 bd b5 49 88 bb
       0.009706691 0.0630069 -0.039663043 -0.004159177
0003c0 c9 37 1b 3d 54 0b bd bd 74 de 51 3d 0f 78 9a bd
       0.037894998 -0.09230676 0.05123754 -0.075424306
0003d0 72 28 f5 3c 50 d6 18 bc 27 92 a8 3d 51 e8 63 3d
       0.029926512 -0.00932844 0.08231001 0.055641476
0003e0 02 e3 9b 3d da be 5d bd e9 34 1d 3c c8 1f af 3d
       0.07611658 -0.05413709 0.009595134 0.08550984
0003f0 1a 8c bd 3b 0d b7 7a 3d e8 5b 05 3e 4a 4e 63 3d
       0.0057845237 0.061209727 0.1302334 0.055494584

fc3.bias f4 [64]
000000 b4 21 db 3c 17 40 e9 3c f4 37 94 bd 75 de 60 bd
       0.02674947 0.028472943 -0.07237235 -0.05489965
000010 d5 c2 9f 3d 20 8f 4a 3d ec b9 f9 bd 3d d6 67 bb
       0.07800833 0.0494529 -0.12193665 -0.0035375499
000020 df 59 9b 3b 68 c9 89 bd c9 0f 2c bd d3 a5 c7 3d
       0.004740938 -0.06727868 -0.04200724 0.09748425
000030 58 bc ed 3c 38 5c 07 3d 87 90 ad 3b b3 dc ae bd
       0.029020473 0.03304693 0.00529677 -0.08538189
000040 f0 f2 13 3d e8 5d c5 3d 18 99 71 3d 60 29 a1 bd
       0.036120355 0.09637052 0.058983892 -0.0786922
000050 f9 ee 6a 3d 1b 31 48 bc a8 a7 97 bc 4d b7 0a 3d
       0.05735681 -0.012218739 -0.018512562 0.033866215
000060 c7 d7 dd 3c 19 e0 7e 3d 5c 6b 59 bd 4c 77 37 3d
       0.02708043 0.062225435 -0.0530809 0.044791505
000070 ec 58 7a 3d d0 a5 75 bd f4 a1 1a 3d 66 3c f1 3d
       0.06111996 -0.059972584 0.037752107 0.11779098
000080 4f 8d 8f bc 81 bc da 3d 20 ec 18 bd 33 76 dc bc
       -0.017523436 0.106804855 -0.03733456 -0.02691183
000090 f4 a1 6c bb 7b 86 0c 3d 8d 6e 8a 3d 44 3f 0a 3d
       -0.0036107274 0.034307938 0.06759367 0.03375174
0000a0 4f 62 43 bd 97 ed fe 3c 99 3d 93 3d 4a b2 57 bc
       -0.047701176 0.031119151 0.07189483 -0.013165066
0000b0 62 63 8b 3d 55 b4 2e bd aa b3 9b bd 7e a5 b0 3c
       0.06806065 -0.042652447 -0.076026276 0.021563288
0000c0 61 03 a0 3d fe a0 a5 bd 13 44 6a bd 8e 19 a1 bd
       0.078131445 -0.080873474 -0.057193827 -0.07866202
0000d0 e9 8a 88 bd 4f c1 9b 3d 48 bc 5a bd 48 52 82 3d
       -0.0666712 0.0760523 -0.053402215 0.0636335
0000e0 4a 1a 15 3d 07 d9 75 bc 9d 28 4a 3b 30 c3 4f bc
       0.036402024 -0.015005357 0.0030846961 -0.012680814
0000f0 df 39 1c bd 75 8d b7 3c 6d 1b 3a 3c 0e 9e 1d bc
       -0.038141128 0.02240632 0.011359078 -0.009620203

fc4.weight f4 [64, 64]
000000 73 93 03 bc 11 5d f4 3d 13 39 07 be 89 8b 80 bd
       -0.00803076 0.119318135 -0.13205366 -0.06276614
000010 10 61 f2 bd de 70 de 3d 4d 7a b1 be 04 ad 44 3d
       -0.118349195 0.108613715 -0.3466362 0.048016563
000020 67 78 f3 3d 22 d3 c2 bd cb 0d ed 3d e3 36 a7 3d
       0.11888199 -0.09512927 0.115748964 0.08164766
000030 02 dd a8 bc e4 1a df bd ca 12 27 bd ae 6c 03 3e
       -0.020613197 -0.10893801 -0.040789403 0.12834427
000040 22 f2 c7 3d ca 40 11 3d 8d 63 d9 bd 0a 25 db 3d
       0.0976298 0.03546218 -0.10614691 0.10700424
000050 16 29 66 bd 0b be be bd 32 60 88 3d 21 b8 85 3d
       -0.056191526 -0.093135916 0.06658973 0.065292604
000060 aa 3f 17 3e b2 ce 35 bc 8b a7 de 3d 36 c1 d7 3d
       0.1477038 -0.011096643 0.108718 0.10534899
000070 a0 81 a0 bd 13 e9 1a 3c b8 a8 9a 3d 03 53 da bc
       -0.07837224 0.009454983 0.07551712 -0.026650911
000080 84 d3 97 bd 1b 45 db bd df e6 31 3d 0d fa a4 3d
       -0.0741339 -0.1070654 0.043433066 0.08055506
000090 09 c9 6b 3d fb 94 4a bd 3a eb a2 bd 52 1c b7 3d
       0.05756477 -0.049458485 -0.07955022 0.089409485
0000a0 a6 35 de 3a fe 61 e8 3c 56 02 13 3d a6 b3 b8 bc
       0.0016953244 0.028367039 0.0358909 -0.0225466
0000b0 da e0 87 3d 8f ff 94 3d a4 e1 c6 3d 27 d5 ec bc
       0.06634684 0.072753064 0.09711006 -0.028910233
0000c0 8a eb 75 3c 1d c4 c5 bd 88 64 84 bd e0 1f 83 bd
       0.01500977 -0.09656546 -0.06464487 -0.06402564
0000d0 68 e6 aa 3c ee 37 81 bd 24 cd a6 3d da 79 85 bd
       0.02086182 -0.06309496 0.08144596 -0.06517382
0000e0 0a 24 a3 bd d7 0f 9d 3d 21 53 a6 3d d4 5f c5 3d
       -0.07965858 0.07669037 0.08121324 0.096374184
0000f0 32 12 91 3d 79 a5 4e bd 37 5d 8a 3d e5 31 43 3e
       0.070835486 -0.050450776 0.067560606 0.19062002
000100 64 c9 aa bd a7 7d cb bd 9a 40 91 3c 9b 9f e0 bd
       -0.083391935 -0.09936076 0.017731 -0.10967942
000110 9a 09 74 be c0 3c 2a 3d a8 b1 c8 3e 58 2e 9a bd
       -0.23831788 0.041561842 0.3919804 -0.075283706
000120 27 ed fa bd 64 97 7b 3d 7e 65 86 bd f9 2c a7 bd
       -0.122522645 0.061423674 -0.06562327 -0.08162875
000130 62 f8 b7 bd 80 2d 8a 3b ac fa bb 3d 6d b3 45 3c
       -0.08982922 0.00421685 0.09178671 0.012066704
000140 59 8f 3c 3d 0c e7 81 3d 46 dd 9f bd 19 ad 23 be
       0.046035144 0.06342897 -0.078058764 -0.15984
000150 c8 c6 a5 3d 07 01 83 3d 26 88 ab bd ba 58 50 bc
       0.08094555 0.0639668 -0.08375578 -0.012716467
000160 b8 0f c6 bd 0c fd d7 3c 90 15 bf bd b4 77 8c bd
       -0.09670967 0.02636578 -0.093302846 -0.06858769
000170 db d8 b0 3d 5a 50 7d 3d a7 ca 8d 3c 33 db eb 3d
       0.08635112 0.061844207 0.017308546 0.11516418
000180 e2 39 9e 3d 7c 67 31 bc 69 07 d6 3a b2 90 81 bd
       0.07725884 -0.010827895 0.0016329113 -0.063264266
000190 a6 d3 0d 3d 28 f9 04 be 08 53 8e 3d e0 56 b4 3d
       0.03462567 -0.1298567 0.06949431 0.088056326
0001a0 ae f1 35 3d 1e a6 6e 3d b3 d7 f2 bd 86 bd a7 3d
       0.044419937 0.05826389 -0.118575476 0.081904456
0001b0 9c 20 71 bd 4b 8d ca bc 50 c2 52 3c 93 da c7 3d
       -0.05886899 -0.024725577 0.0128637105 0.097584866
0001c0 29 23 a8 3d 04 aa ec 3a f8 e9 89 bc b3 26 7f bd
       0.08209831 0.001805604 -0.016835198 -0.062292766
0001d0 a0 9b bf 3d 47 bc b9 bd 5f 88 eb bd 53 a5 a4 3d
       0.09355855 -0.09069114 -0.1150062 0.080393456
0001e0 3b c4 9f 3c 16 98 36 bc 0b 7f c0 3d 4d d6 d7 bc
       0.01950275 -0.011144659 0.093992315 -0.026347304
0001f0 62 7a 81 3c d9 21 bf bc 09 ef 6f bd 7f 39 b3 bd
       0.015805427 -0.02333157 -0.05857757 -0.08751201
000200 9f 02 bb 3d 5d 7f c3 3d 62 b0 60 be e6 8f 9e bd
       0.09131359 0.09545777 -0.21942285 -0.0774229
000210 c1 5c 58 bd c7 7d 93 3d 92 ed d0 bd c6 7e f7 3d
       -0.052822832 0.072017245 -0.10201563 0.12084727
000220 b2 2c 1e bd 00 0e 20 bd fc f0 30 3d af 62 7f 3c
       -0.038616844 -0.03907585 0.04319857 0.015587493
000230 26 d4 1b 3c 60 7a b9 bc 40 98 eb 3c 27 14 e4 bd
       0.009511029 -0.02264136 0.028759122 -0.11136656
000240 ad fd 0d 3c 53 d1 fb bc 23 2b ee 3c 76 04 f9 bd
       0.008666438 -0.030739462 0.029073304 -0.12159054
000250 22 89 ae bc 14 18 46 3d 40 d4 22 bc 7c 13 ec 3d
       -0.021305624 0.048362806 -0.0099383 0.11527154
000260 85 b9 b7 bd 42 c3 92 3d 3b f8 30 be 00 41 82 bd
       -0.08970932 0.07166149 -0.17282192 -0.06360054
000270 8b d3 8b 3d 0a 23 4b 3d ed d6 a6 3d 25 df 64 3d
       0.06827458 0.049593963 0.081464626 0.05587687
000280 99 a7 f7 3c 76 9f 43 3d 11 3d 50 3d b1 91 39 3c
       0.030231284 0.047759496 0.050839487 0.011326239
000290 20 bb da bd 79 17 51 3c 08 76 a7 bd d2 5f 1e 3e
       -0.106802225 0.012761944 -0.081768095 0.1546624
0002a0 20 4d 67 bc ad 9c 54 bc e3 40 be 3d 49 9f bb 3d
       -0.014117509 -0.012976808 0.0928972 0.091612406
0002b0 e6 cb 73 bd c9 f4 08 3e 38 fc 02 3d 34 3c be 3b
       -0.059520625 0.13374628 0.031978816 0.0058055166
0002c0 16 d9 d0 3d 70 b5 e9 bc 1a a6 74 bc 20 1a fc 3d
       0.10197656 -0.028528899 -0.01493218 0.123096704
0002d0 8d 1a 2e 3c 3d a8 1d 3d 6b c5 9b 3d 86 90 d8 bc
       0.010626447 0.038490523 0.07606014 -0.026436102
0002e0 41 c5 48 3d e5 c4 f8 bd fd f2 ba bd cb 3d 13 bd
       0.04901624 -0.1214693 -0.091283776 -0.035947602
0002f0 9e 25 50 bc 21 60 be bc 5d a5 a7 3d 8a 7f cb bc
       -0.012704281 -0.023239197 0.081858374 -0.024841089
000300 a0 90 fb bd a4 0a 42 bd 52 5e d3 3d cc 7e 19 bd
       -0.122834444 -0.04737343 0.103207245 -0.03747444
000310 de 4f c3 bd b4 b8 f9 3d 40 0e 5b 3c c0 a7 fc bd
       -0.09536718 0.121934325 0.013370097 -0.12336683
000320 b0 86 b3 bc c0 9d 62 bd 00 03 19 3b 98 94 1a 3d
       -0.02191481 -0.055326223 0.0023347735 0.037739366
000330 7c 6b 8d 3d 76 f5 c9 bd f4 65 b8 3d 6c 52 99 bd
       0.06905267 -0.09861271 0.09003821 -0.07486424
000340 ec 5d c8 bd 40 38 33 3d a0 18 26 bd a8 d3 8f 3d
       -0.09783539 0.043754816 -0.040550828 0.07022792
000350 02 55 a9 bd 20 9b 8e 3d bc a5 0f 3d fc 42 ec bd
       -0.08268167 0.069631815 0.035070166 -0.11536214
000360 d0 e7 30 3c a0 5e 0a bd be 20 a3 3d e8 bc de bc
       0.010797456 -0.033781648 0.079652295 -0.027189687
000370 50 40 2c 3c 00 e6 a7 3c 22 15 ff 3d 48 e1 ac bd
       0.01051338 0.020495415 0.12455203 -0.084414065
000380 40 2b 88 bd 48 78 5c 3d c8 e6 7b 3d 54 13 bb 3d
       -0.06648874 0.053825647 0.061499387 0.09134546
000390 84 7a ae 3d 88 78 12 3d 30 62 4f bc ce 56 f2 3d
       0.08519462 0.03575948 -0.012657687 0.11832963
0003a0 02 b1 8e bd e8 2b 92 bd 10 7c 48 bd 20 47 9d 3b
       -0.06967355 -0.07137281 -0.04894644 0.0047997385
0003b0 24 37 a2 3d c0 58 97 3c 18 ab b4 bc 00 c6 c9 3d
       0.079206735 0.018474936 -0.02205424 0.09852219
0003c0 f0 34 fa bd 70 da d3 3c 16 c1 e8 3d 1c 99 90 bd
       -0.12217128 0.025860995 0.11364953 -0.07060453
0003d0 84 4d cf 3d d2 57 db bd da 13 f8 bd 00 71 84 bd
       0.10122207 -0.1071011 -0.121131614 -0.064668655
0003e0 62 a2 c3 3d ac 3b 86 bd 52 ed aa 3d 00 5a ff bd
       0.095524564 -0.0655435 0.083460465 -0.12468338
0003f0 a4 32 ad bd d0 b7 24 3c 64 42 c1 bd d8 fa 98 bc
       -0.084569246 0.01005359 -0.09436491 -0.0186743

fc4.bias f4 [64]
000000 af f6 d4 3d 05 cc cc 3c 1f 4f 33 3d 0c 36 dd 3d
       0.10398614 0.024999628 0.043776628 0.10801324
000010 b9 94 5c bd 62 dd bd 3d a6 47 62 bd e0 32 01 be
       -0.05385277 0.09270741 -0.05524411 -0.12617064
000020 94 f9 b7 3d cb 5e 8f 3d 75 b0 dd 3d b6 1a b6 3d
       0.0898315 0.07000502 0.10824672 0.088918135
000030 2b 55 b9 bd 97 b3 2b 3d 2c e6 8d bd 53 e5 94 3d
       -0.090494476 0.041919317 -0.069286674 0.072703026
000040 ec c3 40 3d cf 26 d5 bc 8b c3 80 3d bb c7 97 bd
       0.047061846 -0.026019482 0.06287297 -0.074111424
000050 33 46 e1 bc 93 74 f4 bc 1f d9 7d 3d c3 d3 e5 3b
       -0.027499294 -0.029840743 0.06197464 0.0070137694
000060 e5 26 9a bc ee ce b5 3d 90 56 a9 bc 70 ef 94 bd
       -0.018817374 0.08877359 -0.020671159 -0.072722316
000070 3c e3 25 3d 99 1a 5c 3d 9f 2a 8d bd 77 b2 b7 bd
       0.04049991 0.053736303 -0.06892895 -0.08969586
000080 5f e6 df bd 98 ce fc bc f5 53 a3 bd 3c 9f 99 3d
       -0.10932612 -0.03086023 -0.07974998 0.07501075
000090 f2 7f d1 bd 51 2e 03 3c 62 f5 55 bd 81 2e e4 3d
       -0.10229482 0.008006648 -0.05223597 0.111416824
0000a0 ea 53 b5 bd 26 4b f8 bd 52 2b 0d 3e a1 29 6f bd
       -0.08853896 -0.121237084 0.13786057 -0.05838931
0000b0 dd eb bc bd 5a b9 85 bd 1a a6 3c 3e df dd df 3d
       -0.09224675 -0.06529494 0.18422738 0.109309904
0000c0 a5 5a e2 3d 21 a1 b9 bc 07 79 bf 3d b3 0b ec 3d
       0.11052445 -0.02265984 0.09349256 0.11525669
0000d0 0d 2c f4 3d 39 32 9a bd 36 8a 9e 3d e1 fe 9a 3d
       0.119224645 -0.075291105 0.077412054 0.075681455
0000e0 f3 cc cd 3d a6 a7 02 bd 53 bb 8f 3d 95 fc 03 bd
       0.100488566 -0.031898163 0.07018151 -0.032223303
0000f0 b8 29 ee bd 4c 1d 52 3c b2 b2 d4 bd 1d 4a ec 3d
       -0.11629051 0.012824368 -0.10385646 0.115375735

fc5.weight f4 [32, 64]
000000 aa a8 82 3d ee cf ea bd 9f 1b cb bd 68 9c 28 bd
       0.06379826 -0.11465441 -0.09917378 -0.041164786
000010 c3 fd 60 3c ac ae 8d bd 3a 10 bf bd 42 65 ce bd
       0.0137323765 -0.06918082 -0.09329267 -0.10077907
000020 4a 73 ee bd e5 b0 9b 3c 71 9f 55 bd 9f ef 98 3d
       -0.116430834 0.019005248 -0.05215401 0.07467579
000030 5a 03 59 3d 68 f3 73 bc 4a b8 e5 3d 1b 40 99 bd
       0.052981712 -0.014889576 0.11216791 -0.0748293
000040 a4 60 32 3d 8c 4d e9 bc 19 17 56 be a2 ed 05 3e
       0.043549195 -0.02847936 -0.20907249 0.13078931
000050 f4 30 d5 3d 11 33 8d 3d 57 d8 cb 3d 2a b2 2b bc
       0.10409728 0.06894506 0.09953373 -0.010479489
000060 79 05 d4 bd 70 dd 29 3d 66 7d aa 3d c6 b7 d5 bd
       -0.10352606 0.041470945 0.08324699 -0.104354426
000070 f4 18 24 3d e1 95 09 3d 72 14 0e 3e 8f c9 a5 bd
       0.04006286 0.0335902 0.13874987 -0.08095085
000080 6e 43 15 3e 58 25 fe bc 74 c2 d1 bd c4 e0 b9 bd
       0.14576504 -0.031023666 -0.10242167 -0.09076074
000090 4e 13 23 bc 44 7d 8c 3d 99 61 f9 bd de 96 1d 3d
       -0.009953333 0.0685983 -0.121768184 0.038473956
0000a0 a6 c9 10 bd bf a3 e9 3d 61 58 80 bd 17 7d d2 bd
       -0.035348557 0.11408185 -0.06266857 -0.10277765
0000b0 a6 e9 7f bd 34 6a 77 3d e4 32 7d be 01 cf 91 bc
       -0.062478684 0.060404018 -0.24726444 -0.017798902
0000c0 34 b4 d8 bc 61 b7 cb 3d 2c 4c f1 3d bf fc cb bc
       -0.026453115 0.09947086 0.11782107 -0.024900792
0000d0 53 c3 ce 3d c4 ff d7 bd 42 b6 e4 bd 0f 00 b3 3d
       0.10095849 -0.1054683 -0.111675754 0.087402456
0000e0 41 4d 6a bd 26 80 db 3d 9b d5 49 3e 91 da 05 3e
       -0.05720258 0.10717802 0.1971039 0.13071658
0000f0 0f 48 e1 3d 7b f9 89 bd 85 b7 1a bd 9d ea df 3d
       0.11000072 -0.06737038 -0.037772674 0.10933421
000100 ed 62 ea 3d cd 28 c5 bd 15 8d 31 3d 88 0c 1d 3d
       0.1144465 -0.09626923 0.043347437 0.03834203
000110 81 43 de bc ba f4 d0 3d b7 39 e8 3a f0 6a ce 3d
       -0.027131798 0.10202928 0.0017717396 0.100789905
000120 30 79 e2 bd 5b b5 a8 bc 90 c7 ff 3d 31 b6 ad bd
       -0.11058271 -0.02059429 0.124892354 -0.08482016
000130 d2 f3 e8 bd fd 4d 88 3d c0 34 ef bc a3 60 b9 bd
       -0.1137463 0.066555 -0.029199958 -0.09051635
000140 d9 23 4f 3e 84 c2 09 3e b2 47 a0 3e af bd a1 3d
       0.20228519 0.13453108 0.313047 0.078975074
000150 70 9b d0 bd 6f b9 4b bc 82 76 a8 3b 3d bb fe bc
       -0.10185897 -0.0124343475 0.0051410804 -0.031095142
000160 0a 96 ff 3d 99 5f 16 3e 34 9a 2b 3d 87 b1 43 bd
       0.124797896 0.14684905 0.041895106 -0.047776725
000170 00 65 6e ba 60 97 a5 bd 91 81 c4 3d e2 96 72 3d
       -0.00090940297 -0.08085513 0.09595025 0.059225924
000180 79 e8 d3 3d ec 33 d8 bd 14 25 d6 bd a6 bf 2e 3d
       0.10347075 -0.10556778 -0.10456291 0.04266324
000190 4d 8a 93 3c d8 41 7e 3d 0c b2 39 ba 8e e2 9e 3c
       0.018010283 0.062074512 -0.0007083721 0.019395139
0001a0 9e 90 4a 3d 15 71 88 3d c7 71 ef 3c 65 ee 76 3d
       0.049454324 0.06662194 0.029229058 0.060285944
0001b0 66 8d b6 bd 9c 4a d9 3d 20 85 d1 bc 03 af 78 be
       -0.08913688 0.10609934 -0.025576174 -0.24285512
0001c0 11 2c 52 bd a0 51 ff 3d c5 64 86 bd 56 1c 07 be
       -0.051311556 0.124667406 -0.06562189 -0.13194403
0001d0 06 87 fe 3c 60 67 60 3d 88 74 8b 3c 2b 5b 02 be
       0.031070244 0.054786086 0.01702334 -0.1273009
0001e0 36 92 f1 3d da 20 2f bc 92 ee 39 3c 4f b5 89 3d
       0.11795466 -0.010688985 0.0113483835 0.06724035
0001f0 86 04 5a bd 3d 6a 07 3e 7c f2 75 bd 63 6c a1 3d
       -0.05322697 0.1322412 -0.060045704 0.07882001
000200 07 44 d2 bc 52 56 b8 bc c2 62 d5 bd 88 44 e5 bc
       -0.025667204 -0.022502098 -0.10419227 -0.02798678
000210 c5 64 d0 3d 9a 42 e1 bd 5f 69 a6 3d 30 c2 3a 3d
       0.1017547 -0.10999031 0.08125567 0.045595348
000220 70 f4 d7 bd b6 eb d2 3d 4a 48 e4 bd a6 7e a8 bc
       -0.1054467 0.102988645 -0.111466005 -0.020568203
000230 84 f2 f7 ba 53 83 d2 3d a4 75 59 3d e0 52 b4 bd
       -0.001891688 0.10278954 0.053090706 -0.0880487
000240 ca 9b da bd 92 15 d6 3d 22 46 95 3d f4 3c d5 3b
       -0.10674246 0.10453333 0.072887674 0.0065075103
000250 32 14 1b 3b f5 e8 f4 3c 75 95 2e 3d ee b2 55 bd
       0.002366316 0.029896239 0.042623002 -0.052172594
000260 80 51 a4 3b 87 fd d6 3c 92 94 bf 3d 0c 46 d7 3d
       0.0050145984 0.026243938 0.093545094 0.10511407
000270 c0 98 ca bc ff 67 d3 3d 51 c5 96 bc 7f 1f b6 bd
       -0.02473104 0.1032257 -0.018404635 -0.08892726
000280 1f d1 8a 3c dc 64 45 3d 13 c7 55 3d c3 4f 9e 3d
       0.01694542 0.04819189 0.052191805 0.07730057
000290 6d 7b b8 3d d4 18 c2 bd 4e db 5f 3c 1e cf c5 bd
       0.090079166 -0.09477392 0.013663126 -0.09658645
0002a0 a2 6e a6 3d fd e2 55 3c c7 f1 23 bc bf be c2 3d
       0.0812657 0.0130546065 -0.010006375 0.09509038
0002b0 ea eb a4 bd bc 16 01 3d 7b 72 56 bd 98 c6 b2 3d
       -0.080528095 0.03151582 -0.05235527 0.08729285
0002c0 4d fe a9 bd df 6b 8d bd c8 4f fe 3d ad 12 44 3d
       -0.08300457 -0.069053404 0.12417561 0.047869373
0002d0 92 30 af bd a6 16 a5 3d c0 99 4c 3c 8f af 83 3c
       -0.08554186 0.080609605 0.012487829 0.016074924
0002e0 31 3b 9f 3d f8 34 9d 3c 36 e8 69 bd b2 b1 24 bd
       0.07774962 0.019190297 -0.05710622 -0.040208526
0002f0 fb a0 87 bd 4c 0d 66 3d 9e ec ef 3d 86 98 37 3c
       -0.066225015 0.056165025 0.11715053 0.011205798
000300 9a 3d a2 3d 37 a4 aa 3d fd 51 72 bc 30 f5 66 3d
       0.07921906 0.08332103 -0.014790055 0.056386173
000310 68 a5 fa bd 38 02 08 3d 6c 5c 8a 3c b9 b7 8e bd
       -0.1223858 0.03320524 0.016889773 -0.06968636
000320 73 88 77 bd e8 15 28 bd 0d 0d c3 bd 49 f9 0c 3e
       -0.060432862 -0.041036516 -0.095239736 0.1376697
000330 4a 25 5e bd d5 29 a1 3d da 7b f8 3d 0b 5a 1a 3d
       -0.05423478 0.07869307 0.12132998 0.037683528
000340 b9 67 01 be 90 52 a2 bc ce e9 e3 be b5 97 dd 3d
       -0.12637223 -0.01981476 -0.44514316 0.108199514
000350 09 81 55 3d 52 46 d0 bd cb 22 53 bd f4 dd e8 3d
       0.05212501 -0.101696625 -0.051546853 0.11370459
000360 79 0f 91 3d a3 bf 79 bd 10 be 6e 3d 81 34 04 3e
       0.07083029 -0.060973775 0.058286726 0.12910654
000370 e0 26 ff 3b a5 38 9a 3d df d6 a1 bd 5a 2c 35 3c
       0.0077866167 0.07530335 -0.079023115 0.0110579375
000380 3a f3 ef 3c a8 ca 46 3d 3f cc 0f 3e fa c0 f3 3c
       0.029290784 0.04853311 0.14042757 0.029755104
000390 30 b7 00 3e 93 d8 1d bd 7b 13 74 3d 35 82 22 bb
       0.1256988 -0.03853662 0.05958889 -0.0024796848
0003a0 05 de 44 bd d1 29 05 3d fe 3d 0e bd 02 bb a3 bd
       -0.048063297 0.032510582 -0.03472709 -0.07994653
0003b0 56 d0 b4 3d 94 a0 b6 3d f2 d3 3f bc 27 0d 22 be
       0.088287994 0.089173466 -0.011708247 -0.1582533
0003c0 4b f1 6f 3c 9a a0 b7 3d 61 99 81 3c 79 63 e2 3c
       0.014644931 0.08966179 0.015820207 0.027635323
0003d0 01 17 de bc de 2a 56 3d c4 40 14 bd 96 3a 8a 3d
       -0.027110578 0.052286975 -0.036194578 0.06749456
0003e0 87 7c 67 3d 52 46 d3 bd c8 64 1a be 25 9a 01 3e
       0.056515243 -0.10316147 -0.15077507 0.12656458
0003f0 18 9e 7f bd a1 6b 93 be a1 c2 38 bd c1 32 cc 3d
       -0.06240663 -0.28793052 -0.045107488 0.09970618

fc5.bias f4 [32]
000000 16 2b ef ba 11 21 bf 3d 9f f3 d1 bc f8 04 bb bd
       -0.0018247094 0.09332479 -0.025628863 -0.09131807
000010 14 c7 ca bd cb 0e b0 3d ba a6 66 3c 03 f1 13 3e
       -0.099012524 0.085965715 0.014077837 0.14447407
000020 2a 22 5f 3d 80 69 b2 3b be f1 86 bd 3e c2 3f 3e
       0.05447594 0.0054447055 -0.065890774 0.18726441
000030 99 4b 74 3c b7 36 4c bb 82 39 d8 bd 9a 02 c4 bd
       0.014910602 -0.0031160542 -0.10557844 -0.09570809
000040 86 1e e0 bd ea 66 b6 3c 8d 66 ae 3c d7 d2 4e bd
       -0.10943322 0.02226587 0.021289134 -0.05049404
000050 f1 1d a1 3d 0a 33 a8 bc 2b c0 ff 3b b2 6a b5 bb
       0.07867039 -0.02053215 0.0078048906 -0.0055364007
000060 15 a3 f5 3d 60 17 6d 3c cd ce 10 bd fa 34 ed 3d
       0.11993996 0.014470905 -0.03535347 0.1158237
000070 39 e1 e3 3c 46 71 f0 3d 84 c5 a5 3d 23 58 b1 bc
       0.027817355 0.11740355 0.08094314 -0.021648472
